notebooks/colab/2023-02-04-07-38-18_model_checkpoint.pth (torch_old, 62907 bytes, 11 tensors)

feature_layer.0.weight f4 [64, 37]
0	0xbe0d5f27	-0.13805829
1	0x3e0f4d02	0.1399422
2	0x3dd291b3	0.10281696
3	0x3e08a843	0.13345437
4	0x3dae4324	0.085089
5	0xbd68187d	-0.05666398
6	0xbde2b69e	-0.11069988
7	0x3e600bb6	0.21879467
8	0xbe66ed6e	-0.2255151
9	0xbf47a9f9	-0.7799373
10	0x3dd8c7bc	0.10584971
11	0xbe3ed7a9	-0.18636955
12	0xbe2595e1	-0.16170456
13	0x3de4e3ed	0.11176286
14	0x3e7991f9	0.2437209
15	0xbdbdda0d	-0.092701055
16	0xbee88763	-0.45415792
17	0x3e82ffdf	0.2558584
18	0xbe3d6c8a	-0.18498436
19	0xbe3c75d7	-0.18404327
20	0x3e993736	0.29924935
21	0xbf1288f4	-0.57240224
22	0xbe5bc5a0	-0.21462107
23	0xbebdf284	-0.37099087
24	0xbe0b20c3	-0.13586716
25	0xbedd6def	-0.43247935
26	0x3e92c993	0.28669414
27	0x3e58a947	0.21158324
28	0xbf05e197	-0.5229735
29	0xbe14dc94	-0.14537269
30	0x3d5de7c8	0.054176122
31	0xbd8a8a88	-0.06764704
32	0xbc690a74	-0.014223684
33	0xbf3149b7	-0.69253105
34	0xbeb1b96c	-0.34711778
35	0x3d4d4658	0.050115913
36	0x3c6a0274	0.014282811
37	0x3dca043f	0.09864091
38	0x3daf2e2d	0.08553729
39	0x3d8e1b29	0.06938774
40	0x3e0a69e4	0.13516957
41	0xbb987a2e	-0.004653237
42	0x3db1b152	0.08676399
43	0x3dfd86bd	0.12379215
44	0x3de5e01d	0.11224387
45	0x3e4eb84b	0.2018749
46	0x3db390db	0.08767863
47	0xbdab431b	-0.08362409
48	0xbd3afec6	-0.045653127
49	0xbd019d37	-0.031644072
50	0x3d1ee462	0.03879202
51	0xbc71c6b9	-0.014756852
52	0x3f1e2412	0.6177379
53	0xbee92792	-0.45538002
54	0xbef9405a	-0.4868191
55	0xbf234442	-0.6377603
56	0xc04477e5	-3.0698178
57	0xbcc590ad	-0.024116838
58	0x3dd04c84	0.10170844
59	0x3d96a2e8	0.07355291
60	0x3e0a6f3c	0.13518995
61	0x3d66349c	0.056202516
62	0x3d09534b	0.0335267
63	0x3d41f3af	0.047351535
64	0x3cafc303	0.021455294
65	0x3e40c416	0.18824801
66	0x3dc25a91	0.094899304
67	0xbc6e50fd	-0.014545676
68	0x3dda47e2	0.10658242
69	0x3e0b0d9d	0.13579412
70	0x3e613ac4	0.21995074
71	0x3e15f7af	0.14645265
72	0x3bbc4a10	0.0057461336
73	0x3b9aa857	0.0047197747
74	0xbe2bd3bd	-0.1677999
75	0x3e0ddc34	0.13853532
76	0x3d971439	0.07376904
77	0xbd88800a	-0.066650465
78	0x3efff25a	0.49989587
79	0x3d9b8dfb	0.0759544
80	0xbe2eb6f0	-0.17061973
81	0xbdf03d39	-0.11730427
82	0x3b6dcce3	0.0036285452
83	0xbe87af70	-0.26501036
84	0xbe3ee1ef	-0.18640874
85	0xbdf9eea7	-0.122037224
86	0x3cd1efdb	0.025627067
87	0x3e92176b	0.28533491
88	0xbe059bb8	-0.13047683
89	0x3d4d3813	0.050102305
90	0xbe0b61db	-0.13611548
91	0xbe0e5fc5	-0.1390372
92	0x3e9f861c	0.31157005
93	0x3dd7bbb0	0.105338454
94	0x3da78c63	0.081810735
95	0x3c664fd0	0.014057115
96	0xbda79605	-0.08182911
97	0xbe6831f9	-0.22675313
98	0x3e8a1e97	0.26976463
99	0xbd750b3b	-0.059825163
100	0xbe26ab1b	-0.16276209
101	0x3c86cf91	0.016456397
102	0xbeb5bdcd	-0.3549637
103	0xbed99959	-0.42499807
104	0x3e467a54	0.19382602
105	0xbe22411f	-0.15845154
106	0xbd171c99	-0.036892507
107	0xbe9cfe24	-0.30662644
108	0x3f06de00	0.52682495
109	0xbdb1eef5	-0.086881556
110	0x3cd31027	0.025764538
111	0x3e24be3f	0.16088198
112	0xbf0553aa	-0.52080786
113	0x3e941a63	0.2892638
114	0xbdf2732f	-0.11838376
115	0x3e3acd72	0.18242434
116	0x3cfddf22	0.030990187
117	0xbe831387	-0.25600836
118	0xbe86a7f7	-0.26300022
119	0x3d7bd2d6	0.061480366
120	0x3ed86759	0.42266348
121	0xbed08cb0	-0.40732336
122	0x3ea9e49f	0.33182237
123	0xbcb9cf48	-0.022681847
124	0x3e03fd31	0.12889554
125	0xbc39f767	-0.011350489
126	0x3e5b5eab	0.21422832
127	0x3db88d74	0.09011355
128	0xbecb0757	-0.39654037
129	0xbe946325	-0.2898189
130	0xbeb15194	-0.34632552
131	0xbdf36a92	-0.11885561
132	0x3e873957	0.26410934
133	0xbdb98e91	-0.090603955
134	0xbdf06226	-0.1173747
135	0xbeb83c40	-0.35983467
136	0xbb23fce9	-0.0025022572
137	0xbdbee22b	-0.09320482
138	0xbf1f47dd	-0.6221903
139	0x3e8a98e9	0.27069786
140	0x3da83416	0.082130596
141	0xbc677256	-0.014126381
142	0x3d280b54	0.04102643
143	0x3e73371d	0.23751493
144	0xbee112b0	-0.4395957
145	0x3eda7961	0.4267073
146	0xbde8a781	-0.11360074
147	0xbd5ae9dd	-0.053445686
148	0x3ef6b31d	0.48183528
149	0xbce765da	-0.028246809
150	0xbda8ff3a	-0.082518056
151	0xbeceb635	-0.40373388
152	0xbfdcf9a7	-1.7263688
153	0xbe49e9a8	-0.19718039
154	0x3ead2dbd	0.33823958
155	0xbd1128a2	-0.03543914
156	0x3e28d6d2	0.16488197
157	0x3dc2aa0d	0.09505091
158	0xbd94caca	-0.072652414
159	0xbc47b2d3	-0.012188631
160	0xbe27cfec	-0.1638791
161	0x3dcfd6a1	0.10148359
162	0x3e056739	0.13027658
163	0xbef13b38	-0.47115493
164	0x3c1c73a0	0.0095490515
165	0xbccf97ee	-0.025341
166	0x3e8dcf4c	0.27697217
167	0x3eb5e8b8	0.35529113
168	0xbceae03c	-0.028671376
169	0x3e1de927	0.15420972
170	0xbd848ce2	-0.06472184
171	0xbd2cbb82	-0.04217101
172	0x3e3be578	0.18349254
173	0x3e8c07c6	0.2734968
174	0x3d9cf241	0.07663394
175	0xbe0f249e	-0.13978812
176	0xbdbdd07f	-0.09268283
177	0xbde9095c	-0.11378738
178	0x3e4ca1c0	0.19983578
179	0x3b56646a	0.003271366
180	0x3e30fcc1	0.17283918
181	0x3dbbaeee	0.091642246
182	0x3e1018ed	0.14072008
183	0xbd3f2181	-0.04666281
184	0x3c8c9d12	0.01716474
185	0x3dd43fcb	0.1036373
186	0x3d91016f	0.070803516
187	0x3d179f5a	0.037017204
188	0x3e08c254	0.1335538
189	0xbc6b8d8f	-0.014377012
190	0x3c56cb5b	0.013110007
191	0x3e33f128	0.17572463
192	0x3b257f3f	0.0025252847
193	0x3e3a0321	0.18165256
194	0x3ecb838f	0.3974881
195	0xbd0964b2	-0.033543296
196	0xbd700fe4	-0.058608904
197	0xbbe1a6df	-0.0068863477
198	0x3d7a4935	0.061104972
199	0x3c167812	0.0091839
200	0x3c109238	0.008823924
201	0x3d847925	0.06468419
202	0x3e26eb66	0.16300735
203	0x3eaa27eb	0.3323358
204	0x3e2407f1	0.16018654
205	0x3e700bdf	0.23442028
206	0x3dd44bca	0.10366018
207	0xbde062c3	-0.10956337
208	0xbf065fc8	-0.524899
209	0xbf208cf4	-0.6271508
210	0x3ede36bd	0.43401137
211	0x3d282ecd	0.041060258
212	0xbe715d40	-0.23570728
213	0xbf190cff	-0.59785455
214	0xbf9817e0	-1.1882286
215	0x3c2f5f74	0.01070391
216	0xbd3e1ba4	-0.04641308
217	0xbd113eb5	-0.035460193
218	0x3e3b8103	0.18310933
219	0x3e491b38	0.1963929
220	0x3c6617bf	0.014043747
221	0xbc7e5e71	-0.015525446
222	0xbe0cf004	-0.13763434
223	0x3e026e68	0.12737429
224	0x3cf6200c	0.030044578
225	0xbe1078c0	-0.14108562
226	0x3ee6348c	0.44961965
227	0xbe68027e	-0.226572
228	0x3e1052c3	0.14094071
229	0x3edff8ce	0.4374451
230	0x3c0f74a4	0.008755837
231	0xbd8bc2e2	-0.0682428
232	0xbdbde86f	-0.09272849
233	0x3c6f8728	0.014619626
234	0xbe97dd06	-0.29660815
235	0xbe4bfeda	-0.19921437
236	0xbe8e77dc	-0.2782582
237	0x3d8d18cb	0.068894945
238	0xbd29bf7a	-0.041442372
239	0xbe9c6c81	-0.30551532
240	0x3abc9f74	0.0014390782
241	0xbfb6584f	-1.42457
242	0xbf0683c1	-0.5254479
243	0x3e705c79	0.23472776
244	0x3e1ec6f7	0.15505587
245	0x3d339bb8	0.043849677
246	0xbea8302b	-0.3284925
247	0x3d7238a3	0.059136044
248	0xbe134b8d	-0.14384289
249	0xbdda0af0	-0.106466174
250	0xbe7eaefc	-0.24871439
251	0xbed26edb	-0.411002
252	0xbaf458f3	-0.0018642232
253	0x3e91bad9	0.28462866
254	0xbe429e62	-0.19005731
255	0x3e06b215	0.1315387

feature_layer.0.bias f4 [64]
0	0xbe2e9fb5	-0.17053111
1	0xbdd7b56f	-0.105326526
2	0x3d65dd55	0.05611928
3	0xbda8623c	-0.08221862
4	0xbb16d1a8	-0.0023013148
5	0x3dc4e9b8	0.09614891
6	0x3df51174	0.119662195
7	0x3d383f9f	0.04498255
8	0xbddbd933	-0.10734787
9	0xbe56beb1	-0.2097118
10	0x3d95aa05	0.07307819
11	0xbe39fe0f	-0.18163322
12	0x3e591124	0.21197945
13	0xbdafcb69	-0.08583719
14	0xbe0226fc	-0.12710184
15	0xbdb0e2d8	-0.08637017
16	0x3e300687	0.1718999
17	0xbdb272a6	-0.08713274
18	0x3da74fa2	0.08169486
19	0xbdd661c6	-0.104678676
20	0x3b38b629	0.0028184748
21	0x3d38be62	0.04510344
22	0x3dcc7cde	0.09984754
23	0xbdc13274	-0.09433451
24	0xbcd83cc1	-0.026396157
25	0x3d100576	0.035161458
26	0xbd18c120	-0.037293553
27	0xbe4eedae	-0.20207855
28	0x3d1b1c6b	0.0378689
29	0xbd3aa052	-0.04556305
30	0xbe3a5e6f	-0.18200086
31	0x3d6d1727	0.057883408
32	0xbe194d97	-0.14971004
33	0xbd889639	-0.06669278
34	0xbd15a5d3	-0.036535095
35	0xbbebc935	-0.0071956166
36	0x3c36176e	0.0111139845
37	0x3dc2b692	0.09507479
38	0x3a750315	0.00093464676
39	0x3e163ff7	0.14672838
40	0x3e100136	0.14062962
41	0xbe4cbe2f	-0.19994424
42	0x3e0c347c	0.13691896
43	0x3d94c889	0.072648115
44	0xbe220486	-0.15822038
45	0xbdb8ed76	-0.09029667
46	0x3c0feb25	0.00878409
47	0xbe3a2bb9	-0.18180741
48	0xbd0a85be	-0.033818953
49	0xbd4a48fc	-0.04938601
50	0xbe7fb80a	-0.24972549
51	0x3df32723	0.11872699
52	0xbbc39ada	-0.0059693875
53	0x3dae7b51	0.085196145
54	0x3bce1dd4	0.006290177
55	0xbd4f1685	-0.050558586
56	0xbe14634c	-0.14491004
57	0xbda08ae2	-0.0783899
58	0xbd542d24	-0.051800862
59	0x3a217f4d	0.0006160632
60	0xbc67cf7d	-0.01414859
61	0x3e5a9fd8	0.21350038
62	0x3c88811a	0.016663123
63	0xbe7ffc3c	-0.24998564

feature_layer.2.weight f4 [64, 64]
0	0x3ec4ed9b	0.3846253
1	0xbeb03a3a	-0.34419423
2	0x3dd0740c	0.10178384
3	0xbe130276	-0.14356408
4	0x3db70345	0.089361705
5	0xbee41d28	-0.44553494
6	0xbd966ded	-0.073451854
7	0xbda16add	-0.07881711
8	0x3e47de65	0.1951843
9	0xbd11e0e8	-0.035614878
10	0x3e0fd93a	0.14047709
11	0xbe6e3c90	-0.2326529
12	0xbe38efdf	-0.18060254
13	0xbec03770	-0.37542295
14	0x3e976cca	0.29575187
15	0xbed95e0a	-0.4245456
16	0xbe5fd71f	-0.21859406
17	0x3ea52e80	0.3226204
18	0x3e8b5e3a	0.27220327
19	0xbdd0d01c	-0.10195944
20	0xbeceda6d	-0.4040102
21	0x3e8553b6	0.2604043
22	0x3e537bd4	0.20652705
23	0x3e3fa3f7	0.18714891
24	0xbeb918b2	-0.36151654
25	0xbd69d200	-0.057085037
26	0xbe010c1e	-0.12602279
27	0xbe09a27f	-0.13440894
28	0xbe6456ca	-0.22298732
29	0x3ed58d22	0.41709238
30	0x3f19828b	0.5996482
31	0x3e8ff9e8	0.2812035
32	0x3dfcbb3c	0.123403996
33	0xbe50dbd6	-0.20396361
34	0xbb95e56f	-0.0045744698
35	0xbe0196bb	-0.12655155
36	0x3d51309a	0.05107174
37	0xbe504f65	-0.20342787
38	0x3e46f816	0.19430575
39	0x3e8aec48	0.27133393
40	0xbe63cbb6	-0.22245678
41	0xbe101e77	-0.14074121
42	0x3e99b2f7	0.30019352
43	0x3d2914af	0.04127949
44	0x3e17340d	0.1476595
45	0xbc9f9409	-0.019479768
46	0x3da81ee3	0.08209016
47	0xbc88ef3e	-0.016715642
48	0x3cf68915	0.030094663
49	0x3ebc4051	0.3676782
50	0x3e89c389	0.26906994
51	0xbdda5b8e	-0.10661994
52	0xbdbc6930	-0.091997504
53	0xbe4d1a60	-0.20029593
54	0xbe18bbc1	-0.14915372
55	0xbd6db0db	-0.05802999
56	0xbe77cbf6	-0.24198899
57	0x3c28fc00	0.010313988
58	0x3de5e29e	0.112248644
59	0x3ef7e154	0.484141
60	0x3e75eff9	0.24017324
61	0x3ddabae2	0.10680176
62	0x3e05b418	0.13056982
63	0xbe84e0ee	-0.25952858
64	0xbd2834aa	-0.04106585
65	0x3e322560	0.1739707
66	0xbe4f8199	-0.20264281
67	0xbf5e1197	-0.8674559
68	0xbcc0d9f2	-0.023541424
69	0xbd24d925	-0.040246148
70	0x3e607860	0.2192092
71	0x3e09e6f1	0.13467003
72	0xbe0936bd	-0.13399787
73	0xbec4caac	-0.38435876
74	0x3e8f9528	0.28043485
75	0x3e1bff93	0.15234213
76	0x3df00d25	0.11721257
77	0xbea93c0d	-0.33053628
78	0xbe9cc3c3	-0.30618104
79	0xbd9742a6	-0.07385759
80	0xbe9123fa	-0.2834776
81	0xbe2e32e9	-0.17011608
82	0xbe8e7ce8	-0.2782967
83	0x3c027195	0.00796165
84	0xbf21e017	-0.6323256
85	0xbe079d19	-0.13243522
86	0xbe9ad6c1	-0.3024197
87	0x3ce39aac	0.027783714
88	0xbdf5400e	-0.11975108
89	0xbecd4f4c	-0.4009956
90	0x3dc9e901	0.09858895
91	0xbe0132c5	-0.12617023
92	0x3db10683	0.0864382
93	0x3d2ff0c8	0.042954236
94	0xbe887155	-0.26648965
95	0x3ec30570	0.38090086
96	0x3c922f22	0.01784474
97	0x3c625166	0.013813352
98	0x3dcb32ed	0.09921823
99	0xbd335e76	-0.043791257
100	0x3d8d1d4c	0.068903536
101	0xbf2135e0	-0.6297283
102	0xbf0189b2	-0.5060073
103	0x3dd69f3f	0.104795925
104	0x3e79fa38	0.24411857
105	0xbe55edf9	-0.2089156
106	0xbe5993d2	-0.21247795
107	0xbe71a3a6	-0.23597583
108	0xbd294d3b	-0.04133342
109	0x3dcbd07d	0.09951875
110	0xbeddf3ef	-0.4335017
111	0xbf47cc7b	-0.7804639
112	0xbece5ab8	-0.40303588
113	0x3ee2cb48	0.44295716
114	0x3e157156	0.14594015
115	0xbf84c431	-1.0372373
116	0xbf0ebdad	-0.5575817
117	0xbdfe93b7	-0.12430518
118	0xbedc4bb2	-0.430265
119	0x3d7854af	0.060627636
120	0x3d7b8ddf	0.061414596
121	0xbde22a08	-0.11043173
122	0x3e604dad	0.21904631
123	0xbdd2b50e	-0.1028844
124	0x3ea6dcac	0.32590234
125	0xbeb44998	-0.35212398
126	0x3de9543e	0.11393021
127	0xbf0f9518	-0.56086874
128	0xbc76cd5e	-0.015063612
129	0xbedcab49	-0.4309943
130	0xbc63ca0c	-0.013903152
131	0xbb54b854	-0.00324585
132	0x3e34e160	0.17664099
133	0xbe2fdbec	-0.17173737
134	0xbd29c9b5	-0.04145213
135	0x3e0a4dfb	0.1350631
136	0xbdbc9466	-0.09207992
137	0x3c4683e9	0.012116411
138	0x3d8c79d0	0.068591714
139	0x3d4e1b4a	0.050318994
140	0xbbf95c6a	-0.0076098936
141	0x3d0ddb9c	0.034633264
142	0x3d9e6734	0.07734528
143	0xbb606f80	-0.0034246147
144	0xbeb925c0	-0.36161613
145	0xbd43f6f1	-0.047842924
146	0xbd219e67	-0.039457705
147	0x3d9bdf4a	0.076109484
148	0x3e1e70ff	0.15472792
149	0x3ed566bc	0.41679943
150	0x3d9c979f	0.07646107
151	0x3da4bc6d	0.08043752
152	0x3dfd24f2	0.123605624
153	0x3d0430e9	0.032273207
154	0x3df2ff2f	0.11865079
155	0x3b25f3ac	0.0025322242
156	0x3c958bd3	0.01825515
157	0x3e567082	0.20941356
158	0x3b908a64	0.0044110287
159	0xbed58364	-0.41701806
160	0xbd1c71e6	-0.03819456
161	0xbde06f07	-0.10958677
162	0xbccb3b3f	-0.024808524
163	0xbb219ca0	-0.0024660006
164	0x3c855435	0.016275505
165	0x3f06ae71	0.52609926
166	0xbb4e2178	-0.0031453054
167	0x3c533942	0.012892069
168	0xbe686027	-0.22692929
169	0xbe2a2c71	-0.16618516
170	0xbcfff00f	-0.031242399
171	0xbe959cbd	-0.29221144
172	0x3c7148d8	0.01472684
173	0xbdac5957	-0.08415478
174	0xbda6560c	-0.08121881
175	0xbc76b50b	-0.015057812
176	0xbd2a45d9	-0.04157052
177	0xbe1a23b1	-0.15052678
178	0xbe8b0c36	-0.27157754
179	0xbcf8fe14	-0.030394591
180	0xbd29e98d	-0.041482497
181	0xbdfd7a9a	-0.123769
182	0xbdbb2fff	-0.09140014
183	0x3e7e5024	0.24835259
184	0xbe4911d0	-0.19635701
185	0xbd92c011	-0.0716554
186	0xbe90a114	-0.28247893
187	0x3e490c66	0.19633636
188	0x3d03e412	0.032199927
189	0x3db68116	0.0891134
190	0x3eff8b99	0.49911192
191	0xbe32d038	-0.17462242
192	0xbdb8cd5a	-0.09023543
193	0xbeec75db	-0.46183667
194	0xbead4310	-0.33840227
195	0xbe60c608	-0.21950543
196	0x3e6c5c21	0.2308202
197	0xbeb8eae9	-0.36116722
198	0x3e430589	0.1904508
199	0x3d40e578	0.04709384
200	0x3e0f610d	0.14001866
201	0xbe51e144	-0.20496088
202	0xbf0092cf	-0.5022401
203	0x3ddcbe54	0.1077849
204	0x3d6b920a	0.05751232
205	0x3dc2ca08	0.09511191
206	0x3daf974e	0.08573781
207	0xbd807968	-0.062731564
208	0xbdcf61f6	-0.101261064
209	0xbafc24f5	-0.0019237088
210	0x3e98f86e	0.29877037
211	0xbdee798d	-0.11644278
212	0xbcb1deda	-0.02171271
213	0xbed21e53	-0.4103876
214	0x3c9a7a69	0.018857198
215	0x3d0a787f	0.03380632
216	0x3e0fcc7d	0.1404285
217	0x3bcd3639	0.0062625674
218	0xbf047e6a	-0.5175539
219	0x3ee92863	0.45538625
220	0x3dcc2a8b	0.09969052
221	0x3e9323c0	0.28738213
222	0xbe1a521f	-0.15070389
223	0xbecc37d6	-0.3988635
224	0x3d6d581c	0.057945356
225	0x3da8f6f1	0.08250225
226	0xbf59e391	-0.85112864
227	0xbe86e6c9	-0.2634795
228	0xbec6c834	-0.38824618
229	0xbe539697	-0.20662914
230	0x3db8a492	0.09015764
231	0x3db57094	0.08859363
232	0x3c5595d4	0.01303621
233	0x3e492487	0.1964284
234	0xbe52e129	-0.20593704
235	0xbec47203	-0.38368234
236	0x3d950f24	0.072782785
237	0xbe6d13e6	-0.23152122
238	0x3e682b25	0.22672708
239	0xbe106b79	-0.14103498
240	0xbf0270b5	-0.5095323
241	0xbe263ca9	-0.16234078
242	0x3d1e7277	0.03868338
243	0xbe1ea629	-0.15493073
244	0xbeb89cff	-0.3605728
245	0x3e6a16c6	0.2286025
246	0xbed18bc3	-0.40926942
247	0xbecddaf0	-0.402061
248	0xbd74fb16	-0.059809767
249	0xbd74cd07	-0.05976584
250	0x3d2ac809	0.041694675
251	0xbdabb6c5	-0.0838447
252	0xbe3f84dc	-0.18703026
253	0xbd7710b7	-0.060318675
254	0xbe3a704e	-0.18206903
255	0xbe531270	-0.20612502

feature_layer.2.bias f4 [64]
0	0xbd2c2ac4	-0.042032972
1	0x3dae2dc6	0.08504824
2	0xbdb4ac09	-0.088218756
3	0xbe095eab	-0.13415019
4	0xbd879cf5	-0.06621734
5	0x3c0cdfa2	0.00859824
6	0xbd81f0a2	-0.06344725
7	0x3dbc38e7	0.09190541
8	0x3c587744	0.013212029
9	0xbe282efa	-0.1642417
10	0xbd83f2ba	-0.06442781
11	0x3cbc4886	0.0229838
12	0x3c19fd6b	0.009398798
13	0x3e6511c8	0.22370064
14	0xbca4ad06	-0.020102035
15	0x3d9df4ae	0.077126846
16	0x3c8dcb15	0.017308751
17	0xbe22475d	-0.15847535
18	0xbe04526c	-0.12922066
19	0xbd923e83	-0.071408294
20	0x3df661ea	0.120303944
21	0x3dadd624	0.0848811
22	0x3d2688de	0.04065787
23	0x3d5bd3c5	0.053668756
24	0xbdf02da0	-0.11727452
25	0x3e501622	0.20320943
26	0xbe2226cb	-0.15835111
27	0xbd808f4e	-0.06277333
28	0x3e4b69fe	0.19864652
29	0x3d8717f8	0.065963686
30	0xba842b4a	-0.0010083702
31	0xbe4c8748	-0.1997348
32	0xbcba22ec	-0.02272173
33	0xbdc70e53	-0.09719529
34	0x3de0e84e	0.109818086
35	0xbc734143	-0.014847103
36	0x3d650f90	0.055923045
37	0x3d43ef7b	0.04783581
38	0x3d932b28	0.07185966
39	0x3daeac8a	0.08529003
40	0xbd52e6e5	-0.05148973
41	0xbdabca56	-0.08388202
42	0x3d35239f	0.044223424
43	0x3d75a401	0.05997086
44	0x3e1d47b1	0.1535938
45	0xbcc12411	-0.023576768
46	0x3db7d347	0.08975845
47	0xbdcb7828	-0.09935027
48	0x3d7b3164	0.0613264
49	0xbd7079bb	-0.05870984
50	0x3e344c1b	0.17607157
51	0xbe2e9cfe	-0.17052075
52	0x3bc06df5	0.005872483
53	0xbe3826a0	-0.17983484
54	0xbe1f9c7c	-0.15587038
55	0xbdc0ca68	-0.09413606
56	0xbd2768bb	-0.040871363
57	0x3d726db1	0.05918664
58	0xbd0777d3	-0.033073258
59	0xbd582b4f	-0.052775677
60	0xbe2d238a	-0.16908088
61	0x3b370987	0.0027929263
62	0x3db48932	0.088152304
63	0x3bbc9e28	0.0057561584

advantage_layer.0.weight f4 [64, 64]
0	0x391f2b8e	0.00015179647
1	0x3ea66ce3	0.3250495
2	0xbd87e01a	-0.06634541
3	0xbe20c253	-0.15699129
4	0xbe30dd03	-0.1727181
5	0xbe60fdb0	-0.21971774
6	0xbe31200a	-0.17297378
7	0xbcba3e8f	-0.022734908
8	0x3d70bdcf	0.058774766
9	0xbebba427	-0.36648676
10	0xbf1e7883	-0.61902636
11	0xbde6df50	-0.11273062
12	0x3e8642fe	0.26222986
13	0xbe533b88	-0.20628178
14	0xbf063b49	-0.5243421
15	0x3d595586	0.053060077
16	0x3e77ab57	0.24186455
17	0xbe167ec0	-0.14696789
18	0xbaea838e	-0.001789199
19	0x3d549de3	0.051908385
20	0x3e977825	0.2958385
21	0xbe3f4775	-0.18679602
22	0xbf45d27e	-0.7727431
23	0xbe751aaa	-0.23935953
24	0x3c2e9252	0.010655003
25	0x3e08bafe	0.13352582
26	0x3eb33687	0.3500254
27	0xbf4e81aa	-0.806666
28	0x3ceb192c	0.028698526
29	0x3dc3cdd9	0.09560747
30	0xbd8c375f	-0.06846499
31	0xbe6a806f	-0.22900556
32	0xbf0c2e43	-0.5475809
33	0xbe1054ae	-0.14094803
34	0x3d87ef25	0.0663741
35	0xbd192b8f	-0.037395056
36	0xbf21d34f	-0.63213056
37	0x3d8e7d88	0.06957537
38	0xbded1c8a	-0.11577709
39	0xbf26a1e3	-0.6509077
40	0xbea293cb	-0.31753382
41	0x3e8000aa	0.25000507
42	0xbdd15de7	-0.102229886
43	0x3ed5fb76	0.41793412
44	0xbf917652	-1.1364233
45	0x3eaaf459	0.33389547
46	0xbb713e41	-0.0036810788
47	0xbddb1e4a	-0.106991366
48	0x3e4b2da9	0.19841637
49	0x3c628db8	0.013827734
50	0xbecda30f	-0.40163466
51	0xbe868484	-0.26272976
52	0xbd7ec4a5	-0.062199254
53	0xbefb794d	-0.49115983
54	0xbda21d4b	-0.079157434
55	0xbe72cc24	-0.23710686
56	0x3ea28ca4	0.31747925
57	0xbe381943	-0.17978387
58	0xbdfcc685	-0.12342552
59	0x3bf82c32	0.007573628
60	0x3efeccb5	0.49765554
61	0xbe777032	-0.24163893
62	0xbf165b93	-0.5873348
63	0x3c17d9ca	0.009268234
64	0x3e427e28	0.18993437
65	0xbe980470	-0.29690886
66	0xbe5008ee	-0.20315906
67	0xbcc7b3ae	-0.02437767
68	0xbed1df27	-0.40990564
69	0xbed573db	-0.41689953
70	0xbc5a8e8f	-0.013339653
71	0x3df6a441	0.12043048
72	0xbd905314	-0.07047096
73	0x3e848f47	0.25890562
74	0x3e8b4f9f	0.27209184
75	0x3eb587bf	0.3545513
76	0xbf0fee22	-0.56222737
77	0x3d003457	0.031299915
78	0xbeb261fc	-0.3484038
79	0x3de63341	0.11240245
80	0xbe86aeb0	-0.2630515
81	0x3ee8bc55	0.45456186
82	0xbf062a1b	-0.52408
83	0x3d96249b	0.07331201
84	0x3c8bac76	0.01705001
85	0x3e905c10	0.28195238
86	0x3ee4e762	0.4470778
87	0x3ed2fa8b	0.41206774
88	0xbc085aca	-0.008322427
89	0x3d4c0cfd	0.049817074
90	0xbda0117b	-0.07815834
91	0xbe3f69df	-0.1869273
92	0xbf00a9d9	-0.50259167
93	0xbbe04579	-0.0068442193
94	0xbca1ac84	-0.019735582
95	0xbe1312c9	-0.14362635
96	0x3df0ffa2	0.11767508
97	0x3e29a115	0.16565354
98	0xbd0c7d52	-0.034299202
99	0x3dab9d32	0.08379592
100	0xbe972aad	-0.29524747
101	0xbe0d5a92	-0.13804081
102	0x3ed3fd84	0.41404355
103	0xbe50dfa4	-0.20397812
104	0x3d56ed0a	0.05247215
105	0x3d3ea3df	0.046543
106	0xbe776d43	-0.24162774
107	0xbdda0b6f	-0.10646712
108	0xbc2f46f4	-0.010698069
109	0xbdca5a58	-0.09880513
110	0x3ea7d24f	0.3277764
111	0x3e43b1bf	0.19110774
112	0x3eaca80d	0.33721963
113	0x3df4949b	0.11942407
114	0xbebbe9a3	-0.36701688
115	0x3e6633a9	0.22480644
116	0xbe1a9864	-0.15097195
117	0x3e864e10	0.26231432
118	0x3ea23649	0.3168204
119	0x3c8e1106	0.017342102
120	0xbf1245de	-0.5713786
121	0xbd9cd4bf	-0.076577656
122	0x3c5fb906	0.013654953
123	0xbe5d9c65	-0.21641691
124	0x3eef05c5	0.4668409
125	0xbdf552f5	-0.119787134
126	0xbde5645c	-0.11200783
127	0xbd1d429d	-0.038393606
128	0xbf25f69e	-0.6482943
129	0xbe8e8f0b	-0.27843508
130	0x3e2fee66	0.17180786
131	0xbdb56ed1	-0.08859027
132	0x3ee6bfb8	0.45068145
133	0xbe4d0fe2	-0.2002559
134	0xbe8c4907	-0.27399465
135	0xbcd6d5d9	-0.026225017
136	0x3e0e2eb6	0.13885006
137	0x3dd79a10	0.10527432
138	0xbd803f63	-0.0626209
139	0xbd144878	-0.036201924
140	0x3cc778cc	0.024349593
141	0x3d99f102	0.07516672
142	0xbda697d4	-0.08134428
143	0xbc8661f2	-0.016404126
144	0xbe83ee16	-0.25767583
145	0xbf4364b6	-0.7632555
146	0x3e98dc74	0.29855692
147	0xbe0e5e32	-0.1390312
148	0xbcf85a6e	-0.030316558
149	0xbde058d2	-0.10954441
150	0xbd9bd274	-0.076085
151	0x3c389a67	0.011267281
152	0xbd5e13eb	-0.054218214
153	0x3d0ea214	0.03482254
154	0x3e781ba5	0.24229296
155	0xbd536d95	-0.051618177
156	0x3ce8a8d2	0.028400812
157	0xbd7ed0fa	-0.062211014
158	0xbc84acf6	-0.016195755
159	0x3eaed3b6	0.34145898
160	0xbe3ecb87	-0.18632327
161	0x3c431aec	0.011908274
162	0x3e0e00b3	0.13867454
163	0xbd4272f9	-0.047472928
164	0x3e257504	0.16157919
165	0x3e32d9bb	0.1746587
166	0x3d8b9049	0.068146296
167	0xbe874825	-0.2642223
168	0x3ca1c6a4	0.01974804
169	0x3eb57042	0.35437208
170	0x3d3fc0a3	0.046814572
171	0x3d62cf60	0.05537355
172	0x3d3110f8	0.043229073
173	0xbe02c82a	-0.12771669
174	0xbf815b48	-1.0105982
175	0x3ea92e85	0.33043304
176	0xbf1bba34	-0.60831
177	0xbd581231	-0.052751724
178	0xbda37680	-0.079815865
179	0xbeafbfb3	-0.34325942
180	0xbe2d7cb5	-0.16942103
181	0xbea77e87	-0.3271372
182	0xbe85ccbf	-0.2613277
183	0xbd994226	-0.0748332
184	0x3dbdeca1	0.09273649
185	0xbe18e25c	-0.14930099
186	0x3e2d9152	0.16949967
187	0x3d3bbd70	0.04583496
188	0xbeb879f4	-0.36030543
189	0xbde6fc9a	-0.11278649
190	0x3dee8822	0.11647059
191	0xbe938778	-0.28814292
192	0xbe7783f8	-0.24171436
193	0x3e8d35e2	0.27580172
194	0xbe804859	-0.25055197
195	0xbd895044	-0.067047626
196	0x3e26118b	0.1621763
197	0xbe9f3475	-0.3109471
198	0xbd79d2c4	-0.060992017
199	0x3edd59f1	0.43232682
200	0xbeefdf14	-0.46849883
201	0x3d06827f	0.032839295
202	0x3e406d25	0.18791635
203	0x3e03762d	0.12838049
204	0xbd8343c9	-0.06409413
205	0xbd493eba	-0.049132086
206	0x3da384e7	0.079843335
207	0xbd76ab02	-0.06022168
208	0xbe5848bd	-0.21121497
209	0x3e080cf9	0.13286199
210	0x3e8a9449	0.27066258
211	0xbdbfdbac	-0.09368071
212	0x3e09e35b	0.13465635
213	0x3df8c39b	0.12146684
214	0xbb35d22b	-0.0027743678
215	0x3d052741	0.03250814
216	0xbe3c7ad4	-0.1840623
217	0x3d44e0d9	0.048065994
218	0xbca04f05	-0.01956893
219	0x3e23faa5	0.16013582
220	0x3bf33e78	0.0074232183
221	0x3cb45e0a	0.022017498
222	0xbdc338b3	-0.09532299
223	0x3f02e0a4	0.51124024
224	0xbb925b40	-0.0044664443
225	0x3e86b209	0.26307705
226	0x3e4d0775	0.20022376
227	0xbbd6dfd5	-0.0065574446
228	0x3d911a6f	0.0708512
229	0x3d1e7147	0.03868225
230	0x3dc57d85	0.096430816
231	0x3e023c26	0.12718257
232	0xbf21ce50	-0.6320543
233	0x3ec2af63	0.38024434
234	0x3e3839bf	0.17990778
235	0x3d48a3e9	0.048984442
236	0x3dde4ad1	0.10854114
237	0xbebf2b73	-0.37337837
238	0xbe19f8c8	-0.15036309
239	0x3debace5	0.115075864
240	0xbdb85701	-0.0900097
241	0x3e8f174b	0.2794746
242	0x3e18c742	0.14919761
243	0x3eac6cdd	0.33676806
244	0xbe8799e5	-0.264846
245	0xbe19171c	-0.14950222
246	0xbd92e3b2	-0.07172336
247	0xbe154af2	-0.1457937
248	0xbf410976	-0.7540506
249	0xbea682d8	-0.325217
250	0xbcd19dc9	-0.025587933
251	0xbcf793dd	-0.030221874
252	0xbe3a3c42	-0.18187049
253	0xbf335be4	-0.7006209
254	0xbefaf247	-0.49012968
255	0xbd603fcf	-0.054748353

advantage_layer.0.bias f4 [64]
0	0xbc4accfe	-0.0123779755
1	0xbe3d32ba	-0.18476382
2	0x3d2e3ad3	0.042536568
3	0x3d50a395	0.050937254
4	0xbbdb8269	-0.0066988957
5	0xbdc920b1	-0.098206885
6	0xbdc2b550	-0.09507239
7	0xbb1eda3f	-0.0024238972
8	0xbd20afcc	-0.039230153
9	0xbdc4ea66	-0.096150205
10	0xbdd02a8e	-0.10164367
11	0x3d1bfe62	0.038084395
12	0xbe01f4a7	-0.12690984
13	0x3da1dd09	0.07903487
14	0xbddae666	-0.10688476
15	0xbd6fb14b	-0.05851869
16	0xbd8449ce	-0.064593896
17	0xbd2f332e	-0.042773418
18	0xbbc0738b	-0.005873149
19	0x3d444e78	0.047926396
20	0xbd8bac09	-0.068199225
21	0xbdb7519f	-0.08951115
22	0xbe2b90b7	-0.16754423
23	0xbe3c379d	-0.1838059
24	0xbdf4c0d7	-0.11950844
25	0xbe487ca5	-0.19578798
26	0x3df77f54	0.12084833
27	0xbe68b2b9	-0.22724427
28	0x3b89b6c1	0.004202694
29	0xbe048eb1	-0.12945057
30	0xbc88cfd2	-0.016700659
31	0xbdbab49d	-0.091164805
32	0x3e351189	0.1768247
33	0xbe624a6a	-0.22098699
34	0x3e2d0c8f	0.16899322
35	0xbe671355	-0.22565968
36	0xbda72ace	-0.08162461
37	0x3dc6014c	0.09668216
38	0xbe588245	-0.21143444
39	0x3d4574a9	0.04820696
40	0xbdcea2e7	-0.10089665
41	0x3d8701bf	0.0659213
42	0xbe167503	-0.14693074
43	0xbd621900	-0.055199623
44	0x3c404819	0.011735939
45	0x3d18733d	0.037219275
46	0xbd20702b	-0.03916947
47	0xbd91c57a	-0.07117744
48	0xba339361	-0.0006850269
49	0xbd80db68	-0.062918484
50	0xbc8e9b07	-0.017407907
51	0xbb8bc710	-0.0042656735
52	0xbdb3ec17	-0.08785265
53	0xbe9d9812	-0.30780083
54	0x3d956cf8	0.07296175
55	0xbe76178d	-0.24032421
56	0xbe408e0c	-0.18804187
57	0xbc8842a4	-0.01663334
58	0xbce27fad	-0.027648771
59	0xbbaac8a6	-0.0052119074
60	0xbe71ccb6	-0.23613247
61	0x3dba4a65	0.09096221
62	0x3ddf3b7a	0.10900016
63	0xbe37df0b	-0.17956178

advantage_layer.2.weight f4 [4, 64]
0	0xbf18e9bc	-0.5973165
1	0xbeba8b9a	-0.36434633
2	0x3d3aa44c	0.045566842
3	0x3dbff991	0.09373773
4	0x3ebaa766	0.3645584
5	0xbe8e419d	-0.27784434
6	0x3ebb839a	0.36623842
7	0x3f27dd01	0.655716
8	0xbe85f24a	-0.26161414
9	0xbeddf345	-0.43349662
10	0xbf8cf6c8	-1.1012812
11	0xbf064894	-0.52454495
12	0x3f978830	1.1838436
13	0xbdd8312d	-0.105562545
14	0xbeaa9d37	-0.3332307
15	0x3f591256	0.84793603
16	0xbefc437a	-0.4927023
17	0xbdd449d5	-0.10365645
18	0x3f2d9377	0.6780314
19	0x3d8f614f	0.07000982
20	0x3dabc57c	0.083872765
21	0x3e85f196	0.26160878
22	0xbe03bd04	-0.12865072
23	0xbd85fd58	-0.06542462
24	0xbf0f55a0	-0.5599003
25	0x3f53b825	0.8270286
26	0xbf1ac2d7	-0.6045355
27	0xbdf60ab7	-0.120137624
28	0x3e8a78ec	0.2704538
29	0x3dd3d998	0.10344237
30	0xbba85e08	-0.0051381625
31	0xbfc75bae	-1.5574853
32	0x3e5abb70	0.21360564
33	0xbf2f0ba9	-0.68377167
34	0x3e4bb428	0.19892943
35	0xbf485786	-0.7825855
36	0x3f67b77e	0.9051436
37	0xbde09555	-0.10965983
38	0x3f11a031	0.5688506
39	0x3d52f9aa	0.05150763
40	0xbcafd9cc	-0.021466158
41	0xbf028be9	-0.50994736
42	0x3ee731d2	0.45155197
43	0x3e8633b6	0.26211327
44	0x3d837036	0.06417887
45	0xbf1e58ae	-0.61854064
46	0xbf8f8f1b	-1.1215547
47	0xbe570a33	-0.20999984
48	0x3e5448a8	0.20730841
49	0x3ec4884e	0.38385242
50	0x3f01f8a5	0.50770026
51	0x3ec344d1	0.3813844
52	0xbe6a55a5	-0.22884233
53	0xbec573a1	-0.3856478
54	0x3dd1048a	0.10205944
55	0x3f1db9e9	0.616118
56	0xbdd4d40b	-0.103920065
57	0x3e825cb6	0.25461358
58	0x3f3ae8e8	0.73011637
59	0x3e125c2d	0.14292975
60	0x3e89d48a	0.26919967
61	0x3e825f29	0.25463226
62	0x3e047c29	0.12937988
63	0x3f0afd8f	0.5429315
64	0x3ec422c0	0.38307762
65	0xbd647bd8	-0.05578217
66	0x3d86f1e3	0.06589105
67	0x3d70ba34	0.058771327
68	0x3e2fae30	0.17156291
69	0xbe011835	-0.1260689
70	0xbf376ad4	-0.7164738
71	0x3f3a0d3e	0.72676456
72	0xbe07689c	-0.13223499
73	0xbd047277	-0.032335725
74	0x3e8841c9	0.2661269
75	0xbdcf3725	-0.1011794
76	0xbf1a1aea	-0.6019732
77	0xbc7eec84	-0.015559319
78	0x3eee29e2	0.4651633
79	0x3ef773fe	0.48330683
80	0x3eeff803	0.46868905
81	0x3d3b4678	0.0457215
82	0x3e4d454d	0.20045967
83	0x3f0f0da7	0.55880207
84	0xbdc6c9b9	-0.09706444
85	0x3f13aa2b	0.5768153
86	0x3da4fc5a	0.08055945
87	0x3e75beba	0.23998538
88	0xbdab21ad	-0.083560325
89	0xbe188b3c	-0.14896864
90	0xbe487f09	-0.1957971
91	0x3e511d95	0.20421441
92	0xbca17c07	-0.019712461
93	0xbeb4e380	-0.3532982
94	0xbe93b7d3	-0.28851184
95	0x3f140155	0.5781453
96	0x3dfde4bb	0.123971425
97	0x3f4ecbbf	0.8077964
98	0x3e03a937	0.12857519
99	0x3eea143e	0.4571857
100	0xbf260b77	-0.64861244
101	0xbe2ce1a5	-0.16882952
102	0xbd6a0634	-0.057134822
103	0x3e9ea07d	0.30981818
104	0xbec1ac3e	-0.37826723
105	0xbd386c1f	-0.045024987
106	0xbf153325	-0.58281165
107	0xbe96845d	-0.2939786
108	0xbdeafc6a	-0.114739254
109	0x3ec018c0	0.37518883
110	0x3f1e8964	0.6192839
111	0xbdff2755	-0.12458674
112	0x3e22ae54	0.15886813
113	0x3e5d93fa	0.2163848
114	0x3ecad0ea	0.39612514
115	0xbdacc341	-0.08435679
116	0xbe127020	-0.14300585
117	0x3e731fc5	0.23742588
118	0x3e3a1baa	0.18174616
119	0xbe86c946	-0.26325434
120	0xbe0c6fc3	-0.13714509
121	0xbe4a4ecb	-0.1975662
122	0xbea22f6f	-0.31676814
123	0x3dcf637f	0.10126399
124	0xbd63ebc9	-0.055644784
125	0x3db93c63	0.09044721
126	0x3c7fa269	0.015602686
127	0xbf2d4e09	-0.676972
128	0xbf408516	-0.75203073
129	0x3f3eca8e	0.74527824
130	0xbe8bd01e	-0.27307218
131	0x3ea6f148	0.32605958
132	0x3da9c6fe	0.08289908
133	0xbbfdeced	-0.007749191
134	0x3f23cd7d	0.63985425
135	0x3f42e158	0.761251
136	0x3e0cd11d	0.13751645
137	0x3ef69490	0.4816022
138	0x3f4895c2	0.7835351
139	0xbc0fd3ba	-0.008778507
140	0xbf7180b3	-0.94337004
141	0x3ed91675	0.42399946
142	0x3f450c84	0.7697222
143	0xbf13b38b	-0.57695836
144	0x3f5c2058	0.8598685
145	0x3eea28b0	0.45734167
146	0x3ed4aaff	0.4153671
147	0xbf6a82fc	-0.91606116
148	0xbeb7a728	-0.35869718
149	0xbdd25bb9	-0.10271401
150	0xbe82e09d	-0.2556199
151	0xbf2b7817	-0.6698012
152	0x3f36c071	0.7138739
153	0x3dc42f38	0.09579319
154	0x3f85253d	1.0401989
155	0x3ea5e5d0	0.32401896
156	0xbfac1696	-1.3444393
157	0xbc50aeb4	-0.012736965
158	0xbdc40bf5	-0.09572593
159	0x3e987692	0.29777962
160	0xbc9184ca	-0.017763514
161	0xbdd6a4b8	-0.10480636
162	0xbd911425	-0.070839204
163	0xbf48cc93	-0.78437155
164	0xbedf56bf	-0.4362087
165	0xbf04c292	-0.5185939
166	0xbf946063	-1.1591915
167	0xbe8d810f	-0.27637526
168	0x3f5605d5	0.8360265
169	0x3ebd4e6a	0.36973888
170	0x3ed140f0	0.40869856
171	0x3f5917d1	0.84801966
172	0xbea14a39	-0.3150194
173	0x3e36c54e	0.17848703
174	0xbdf25aa0	-0.118336916
175	0x3ed36691	0.4128919
176	0xbf198923	-0.5997488
177	0xbeff5f72	-0.49877506
178	0xbf262a51	-0.6490832
179	0x3f7635fc	0.96176124
180	0x3ea95a0c	0.33076513
181	0x3ea01d46	0.31272334
182	0xbe61f001	-0.2206421
183	0xbf38719d	-0.7204836
184	0x3eeaa0b7	0.4582574
185	0xbe309518	-0.17244375
186	0xbfbf5dd9	-1.4950515
187	0x3eac1a87	0.3361399
188	0xbe601d07	-0.21886073
189	0xbd10ec78	-0.035381764
190	0xbf02d471	-0.5110541
191	0x3ebaf51d	0.36515132
192	0x3fa261cd	1.2686096
193	0xbd94d5c8	-0.07267338
194	0x3e20348c	0.15645045
195	0xbef5dc29	-0.4801953
196	0xbf458ab4	-0.7716477
197	0x3eee80de	0.46582693
198	0xbd9918f2	-0.07475461
199	0xbf7ef453	-0.9959156
200	0x3e4f6d98	0.2025665
201	0x3d9b8aec	0.075948566
202	0x3ed6b488	0.4193461
203	0x3f0f0614	0.5586865
204	0xbe3bf7af	-0.18356203
205	0xbeb8d43d	-0.36099425
206	0xbf2e04a1	-0.67975813
207	0xbfa85c7b	-1.3153223
208	0xbf050a03	-0.519684
209	0xbebfb630	-0.37443686
210	0xbfb91894	-1.4460626
211	0x3ed39875	0.41327253
212	0x3eba08ea	0.36334926
213	0xbf56bf1b	-0.83885354
214	0x3ea2e961	0.3181868
215	0x3f39fb0b	0.72648686
216	0x3f2d5db1	0.67721087
217	0xbf8079b3	-1.003714
218	0xbf0a4735	-0.54014903
219	0xbf01ac85	-0.5065387
220	0x3f62a103	0.88526934
221	0x3e857c16	0.26071233
222	0x3ee3a23f	0.4445972
223	0x3f31efc7	0.69506496
224	0xbe2da901	-0.16959001
225	0x3e16a1d9	0.14710177
226	0xbe77f735	-0.24215396
227	0x3f61be50	0.8818102
228	0x3e2369bb	0.15958302
229	0x3f2c08e7	0.67201084
230	0x3f531040	0.8244667
231	0xbd39db73	-0.0453753
232	0xbefb4233	-0.49073943
233	0x3e40e8c7	0.18838798
234	0xbeecf59a	-0.4628113
235	0xbf8e2634	-1.1105409
236	0x3e7f5864	0.24936062
237	0x3dc85847	0.097824626
238	0x3f3e6d44	0.74385476
239	0xbe0af574	-0.13570195
240	0x3eed5e72	0.4636112
241	0xbd90a8af	-0.07063424
242	0xbf08b9f8	-0.53408766
243	0xbfa97e8d	-1.3241745
244	0x3e046f11	0.12932993
245	0x3e74a421	0.23890735
246	0x3d6985b3	0.05701227
247	0x3f2dd40f	0.679017
248	0xbe616417	-0.22010837
249	0x3e8ca5ff	0.27470395
250	0x3f36dffd	0.7143553
251	0xbeb786c9	-0.3584502
252	0xbe9e4795	-0.30913988
253	0xbec33031	-0.38122705
254	0x3e8efb0d	0.27925912
255	0xbf9da8aa	-1.2317097

advantage_layer.2.bias f4 [4]
0	0x3d71f7e8	0.059074312
1	0xbe01d172	-0.12677553
2	0x3cc41246	0.023934495
3	0x3d96ac38	0.07357067

value_layer.0.weight f4 [64, 64]
0	0xbdbd73c6	-0.09250598
1	0x3d55e2cd	0.052218247
2	0x3e2d1493	0.1690238
3	0xbd7f8041	-0.06237817
4	0x3e569f3a	0.20959178
5	0xbe2cc82f	-0.16873239
6	0x3d832ac2	0.0640464
7	0x3e1845c8	0.1487037
8	0xbd6ab6d4	-0.057303265
9	0xbddd056f	-0.10792052
10	0xbd44ac28	-0.048015743
11	0xbd2d490c	-0.04230599
12	0x3dadca07	0.08485799
13	0x3e239a0e	0.15976736
14	0x3df4869e	0.11939739
15	0x3de23472	0.110451594
16	0x3dd67b0a	0.104726866
17	0xbdaf599c	-0.085620135
18	0xbeb40501	-0.35160068
19	0xbd9d3d7f	-0.07677745
20	0xbdb411b7	-0.08792441
21	0xbda62493	-0.08112445
22	0x3db2cbb1	0.08730257
23	0x3db28f39	0.08718724
24	0xbe14463f	-0.14479922
25	0x3d0c1055	0.034195263
26	0xbe8fd810	-0.2809453
27	0xbda25a59	-0.07927389
28	0x3b5f6199	0.0034085272
29	0x3da294a6	0.07938509
30	0xbc88d2e9	-0.016702132
31	0xbe61a7d2	-0.22036675
32	0xbdbedafa	-0.0931911
33	0x3e45472f	0.19265436
34	0xbd72e501	-0.059300426
35	0x3dd57ad2	0.10423817
36	0xbde2bf7e	-0.110716805
37	0xbd3a3f82	-0.045470722
38	0xbdbd8d88	-0.092555106
39	0x3cc040c9	0.023468392
40	0x3d49ba98	0.049250215
41	0xbe680c73	-0.22660999
42	0x3dc7504e	0.09732114
43	0xbe3f162c	-0.18660802
44	0x3da60d34	0.08107987
45	0x3bbe6c96	0.0058112843
46	0x39c7c5de	0.0003810366
47	0x3db9923f	0.09061097
48	0xbe1b680c	-0.1517641
49	0x3dd3203f	0.10308885
50	0xbc85fdb4	-0.016356327
51	0xbcc60d20	-0.02417618
52	0x3e22cc4b	0.15898244
53	0xbdfe2f4d	-0.12411366
54	0x3e1bee48	0.15227616
55	0xbbbe449d	-0.005806519
56	0x3ddb4930	0.10707319
57	0x3dbcf587	0.09226518
58	0xbca7e2ba	-0.020493854
59	0xbe0192ad	-0.12653609
60	0x3cecaaaf	0.028889982
61	0xbe131398	-0.14362943
62	0xba9fb375	-0.001218422
63	0xbd26a754	-0.04068692
64	0xbea5a4f8	-0.32352424
65	0xbe018eae	-0.12652084
66	0xbe8f06fb	-0.27935013
67	0x3ea47eee	0.3212809
68	0xbe603d89	-0.21898474
69	0xbe404293	-0.18775396
70	0x3dae0fd4	0.08499113
71	0x3e32d90e	0.17465612
72	0x3e1052a6	0.14094028
73	0xbcaf1456	-0.021372002
74	0xbda64f9e	-0.081206545
75	0x3e5d99f1	0.21640755
76	0xbe49af0b	-0.1969568
77	0xbe44a69b	-0.1920418
78	0xbef0bc24	-0.4701854
79	0xbe46a7a8	-0.19399893
80	0xbe725648	-0.23665726
81	0xbd524b44	-0.05134131
82	0x3e2525dc	0.16127723
83	0x3e0c082a	0.1367499
84	0x3e1c33ec	0.15254182
85	0x3f04b2d7	0.5183539
86	0x3e3302fc	0.17481607
87	0xbda3d21c	-0.079990596
88	0x3cc85a94	0.024457254
89	0xbeb078a9	-0.34467056
90	0x3e4908f0	0.19632316
91	0xbe21f07a	-0.15814391
92	0xbe31a72a	-0.17348924
93	0x3e93da76	0.2887761
94	0x3d3a3590	0.045461237
95	0x3e86dadc	0.2633885
96	0x3c9e371d	0.01931339
97	0xbcda9e8e	-0.026686933
98	0x3c897e89	0.01678397
99	0x3dd23fac	0.10266051
100	0xbbd9f6ad	-0.0066517205
101	0x3db9b9d3	0.09068646
102	0xbeb57058	-0.35437274
103	0xbd37b38b	-0.04484896
104	0xbe0d2c68	-0.13786471
105	0xbd3d8bc6	-0.046275876
106	0xbe74f566	-0.23921737
107	0xbcaac1dd	-0.020844394
108	0xbd952ea5	-0.07284287
109	0x3c638e7f	0.013888954
110	0xbdea48be	-0.11439656
111	0x3e4d9ce8	0.20079386
112	0xbd239af2	-0.03994269
113	0x3e2d4425	0.16920526
114	0xbd862b33	-0.06551208
115	0xbe54a59f	-0.20766304
116	0x3dc31118	0.09524745
117	0x3e3b7c9b	0.18309252
118	0xbe1adcf7	-0.15123354
119	0x3e1331d9	0.14374484
120	0xbe01a42c	-0.12660283
121	0xbe37cb86	-0.17948732
122	0x3dc055ad	0.09391341
123	0xbc22ed24	-0.009944234
124	0x3dfb4535	0.122690596
125	0xbcfe9841	-0.03107846
126	0x3e4930f0	0.19647574
127	0xbebff2da	-0.3748997
128	0xbd620394	-0.055179194
129	0xbd254389	-0.04034761
130	0x3d824cab	0.063622795
131	0x3c2ef331	0.010678099
132	0xbd1f18b9	-0.038841937
133	0xbdc8e5af	-0.09809434
134	0x3e641c38	0.2227639
135	0x3ddca8fb	0.10774418
136	0x3b97fdb7	0.0046383995
137	0x3d36b9b6	0.0446107
138	0x3c467a51	0.012114123
139	0xbc7f78d9	-0.015592777
140	0xbdf46948	-0.11934143
141	0xbc71d3e4	-0.014759991
142	0xbe09023e	-0.13379762
143	0xbd8364b8	-0.06415695
144	0x3d98cce9	0.074609585
145	0xbe4658f1	-0.19369866
146	0xbc875625	-0.01652057
147	0x3d4802b6	0.04883071
148	0x3cc02b40	0.023458123
149	0x3daa4011	0.08313001
150	0x3cc8a5cf	0.024493126
151	0x3d8707bc	0.06593272
152	0xbca4656f	-0.020067899
153	0xbde30dd1	-0.1108662
154	0xbd8769a5	-0.06611947
155	0x3d7beff3	0.06150813
156	0x3c17ad7a	0.009257669
157	0xbdaa08e7	-0.08302479
158	0x3cfb3f78	0.030669913
159	0xbda6e5ef	-0.08149325
160	0xbd9652e9	-0.073400326
161	0x3dfa5aff	0.122243874
162	0x3b6e6f83	0.0036382384
163	0x3e006518	0.12538564
164	0x3bbbf9c5	0.005736562
165	0xbdfd4354	-0.123663574
166	0xbde49a4b	-0.111622415
167	0x3dadb375	0.08481494
168	0xbbc705b0	-0.006073676
169	0xbe979e51	-0.29612973
170	0x3d64d594	0.055867746
171	0x3d4e829b	0.050417524
172	0xbd80cc4d	-0.06288967
173	0xbd914df3	-0.07094946
174	0xbdca8db0	-0.09890306
175	0x3b60d4e9	0.0034306592
176	0xbc6b12bf	-0.014347731
177	0x3ea5771c	0.32317436
178	0x3e040aa6	0.12894687
179	0xbe39bcf7	-0.1813849
180	0x3d225a34	0.039636806
181	0x3c8123a0	0.015764058
182	0x3e8a1b2b	0.26973853
183	0x3e6ce2bd	0.23133369
184	0x3e450e08	0.19243634
185	0x3e155a14	0.14585143
186	0x3e07cff4	0.13262922
187	0x3e183e11	0.14867426
188	0xbc1f3266	-0.009716606
189	0x3da90ba8	0.082541764
190	0x3dacd375	0.0843877
191	0x3d871f1d	0.06597731
192	0xbd68c0cb	-0.056824487
193	0xbdf6ab9b	-0.1204445
194	0xbeae0626	-0.33989066
195	0xbe26c0a3	-0.16284423
196	0x3dbecd5c	0.09316513
197	0x3d101c35	0.03518315
198	0x3d562cd9	0.052288864
199	0xbe7dd322	-0.24787572
200	0xbf52c983	-0.8233873
201	0xbe113bda	-0.14182988
202	0x3dbfb978	0.09361547
203	0x3d901812	0.07035841
204	0x3e0e8acc	0.13920134
205	0xbdd89c4d	-0.10576687
206	0xbe0bf5ab	-0.13667934
207	0x3e828514	0.25492156
208	0xbefe8fc6	-0.49719065
209	0x3e2d85c5	0.1694556
210	0xbe539329	-0.20661606
211	0x3daebf5c	0.08532593
212	0x3cb6d0ae	0.022316303
213	0xbd967ddc	-0.073482245
214	0xbe4cf1e4	-0.20014149
215	0x3c75eaf6	0.015009632
216	0xbe55a56d	-0.20863886
217	0x3d9a970d	0.07548342
218	0x3e1f1937	0.15536962
219	0x3e8e2661	0.27763656
220	0x3e686c8c	0.22697657
221	0x3e209031	0.15680005
222	0xbd9f034b	-0.077643
223	0x3e594ba9	0.21220268
224	0xbe1c63a4	-0.15272385
225	0x3e119ffc	0.14221185
226	0x3a6f4441	0.0009127297
227	0xbef047e2	-0.46929842
228	0xbe6fda1c	-0.23423046
229	0xbf295f6d	-0.66161233
230	0x3e8dc149	0.27686527
231	0xbcbe185b	-0.023204973
232	0xbda4f242	-0.080540195
233	0x3e6a02bd	0.22852607
234	0xbdff68cf	-0.124711625
235	0xbebb014a	-0.3652442
236	0xbeca9936	-0.39570016
237	0xbde2bbde	-0.11070989
238	0xbe362f15	-0.17791398
239	0x3ecf8ffe	0.40539545
240	0xbf752c28	-0.957705
241	0xbd9db165	-0.07699851
242	0x3b84ff24	0.0040587354
243	0x3d6437ae	0.055717163
244	0xbd359fb3	-0.044341754
245	0xbf4b6cc6	-0.7946285
246	0xbdfb10fc	-0.12259099
247	0x3dae572f	0.08512723
248	0xbdccd179	-0.10000891
249	0x3d57d6a7	0.052694943
250	0x3d98e47d	0.07465456
251	0xbe4c5b77	-0.19956766
252	0x3e74a26f	0.23890088
253	0x3e756b08	0.2396661
254	0x3c9bb271	0.019005986
255	0xbce63b23	-0.02810437

value_layer.0.bias f4 [64]
0	0x3f01263e	0.5044898
1	0x3e07881d	0.13235517
2	0x3ef83743	0.4847966
3	0xbe8c6ade	-0.27425283
4	0xbe4f4c7b	-0.20244019
5	0x3f006515	0.5015424
6	0xbe1bafaa	-0.1520373
7	0x3e9c3c1f	0.3051462
8	0xbe1a4f17	-0.15069233
9	0xbea0baf1	-0.31392625
10	0x3f0aea93	0.5426418
11	0x3efa46c3	0.48882112
12	0x3e3d6653	0.18496065
13	0xbd8402a0	-0.06445813
14	0xbe66aa39	-0.22525872
15	0xbe9a30a6	-0.3011524
16	0xbe24df84	-0.1610089
17	0xbe7db4ea	-0.24776044
18	0xbd5a407c	-0.053284153
19	0x3eece6e5	0.4626991
20	0x3e9d7ee4	0.30760872
21	0xbe896c07	-0.2684023
22	0xbdf71593	-0.12064662
23	0x3e958706	0.29204577
24	0xbe55fdf7	-0.20897661
25	0x3cf85db7	0.030318124
26	0xbe6d7218	-0.23188055
27	0xbe54a08a	-0.20764366
28	0xbe316e3f	-0.17327212
29	0xbdb475ea	-0.08811553
30	0xbe9a0a0f	-0.300858
31	0xbe7386ed	-0.23781939
32	0x3f0b7f37	0.5449099
33	0x3e178e93	0.14800481
34	0x3f003fe2	0.5009748
35	0x3ef1beda	0.4721592
36	0xbe7a0f4f	-0.24419902
37	0xbe69f4c5	-0.22847278
38	0x3e7a094f	0.24417613
39	0x3e8d81cb	0.27638087
40	0x3da493b9	0.08035988
41	0xbeb295b5	-0.34879842
42	0x3e05656a	0.13026968
43	0xbe6c6c30	-0.23088145
44	0xbd8630f9	-0.065523095
45	0xbdb25aa3	-0.08708694
46	0xbe4eb237	-0.20185171
47	0xbdedc195	-0.116091885
48	0xbdc643ca	-0.096808985
49	0x3ec5b3b8	0.38613677
50	0xbcf79a2c	-0.030224882
51	0x3efe5db6	0.4968087
52	0xbe81ac1d	-0.25326625
53	0xbe02e433	-0.12782364
54	0x3edd470f	0.43218276
55	0x3ecbcea6	0.39806098
56	0xbe90c20e	-0.28273052
57	0x3f03c0af	0.51465887
58	0xbe85068b	-0.25981554
59	0xbccdc2b0	-0.025117248
60	0x3eefe44b	0.4685386
61	0xbcd34164	-0.025788017
62	0x3e971eff	0.29515836
63	0x3e4c6468	0.19960177

value_layer.2.weight f4 [1, 64]
0	0x3e87b711	0.26506856
1	0x3ea1e8b7	0.3162286
2	0x3e346a32	0.17618635
3	0xbf579f1a	-0.84227145
4	0xbee0cff0	-0.43908644
5	0x3e747d44	0.2387591
6	0xbf302bd9	-0.68816906
7	0x3e9b8a36	0.30378884
8	0xbf6fb989	-0.9364248
9	0xbf581651	-0.8440905
10	0x3e8971d6	0.26844662
11	0x3eb51def	0.353744
12	0x3ea6d33a	0.32583028
13	0x3f8c1bb7	1.0945958
14	0xbf842253	-1.0322975
15	0xbf505899	-0.8138519
16	0x3f3186ad	0.69346124
17	0xbf15881d	-0.5841082
18	0x3f287d15	0.6581586
19	0x3e1aa6aa	0.1510264
20	0x3e36693f	0.17813586
21	0xbf69e664	-0.91367173
22	0xbf677fc9	-0.9042936
23	0x3e82e646	0.2556631
24	0xbeced1a7	-0.40394327
25	0x3ecbaaa7	0.39778635
26	0xbf3af00e	-0.73022544
27	0xbf3d5e88	-0.7397237
28	0x3d775d54	0.06039174
29	0x3f50fbb5	0.81634074
30	0xbf72cb64	-0.948416
31	0x3f78b704	0.9715426
32	0x3e935c5a	0.28781396
33	0x3e87c1f0	0.2651515
34	0x3e254efd	0.16143413
35	0x3e363e96	0.17797312
36	0xbf017dea	-0.50582755
37	0xbfb2085a	-1.3908799
38	0x3eaa3ad2	0.33248
39	0x3f14d841	0.5814248
40	0xbfbf3c0b	-1.4940199
41	0xbf1584d3	-0.584058
42	0x3f2dd4ea	0.67903006
43	0xbeb66e30	-0.3563094
44	0xbf42949d	-0.76008016
45	0xbefe7bfd	-0.4970397
46	0xbf8a44a0	-1.0802193
47	0xbec3ad08	-0.3821795
48	0xbe8a1ba2	-0.26974207
49	0x3de77ded	0.11303315
50	0x3ef106c7	0.47075483
51	0x3e7530f9	0.23944463
52	0xbf2574c8	-0.6463132
53	0xbf1a63b1	-0.60308367
54	0x3e9200dc	0.2851628
55	0x3e208fb7	0.15679823
56	0xbea67c07	-0.325165
57	0x3e838858	0.2568996
58	0xbeb72c02	-0.35775763
59	0x3f04e39b	0.519098
60	0x3e2b1f66	0.16711196
61	0xbef771e0	-0.48329067
62	0x3e65d725	0.22445352
63	0x3eb1ddf4	0.3473965
