notebooks/colab/2023-02-03-17-06-16_model_checkpoint.pth (torch_old, 62907 bytes, 11 tensors)

feature_layer.0.weight f4 [64, 37]
0	0xbd6eaea9	-0.058272038
1	0x3e0f5065	0.13995512
2	0x3e4df080	0.20111275
3	0x3d941f95	0.07232586
4	0xbc01880c	-0.007905971
5	0x3ddbc10e	0.10730182
6	0xbee255f0	-0.4420619
7	0x3ed03d8f	0.40671965
8	0xbf57c77d	-0.8428877
9	0xc02087d2	-2.5082898
10	0xbdd4c8f9	-0.10389895
11	0xbdc2c08f	-0.09509384
12	0xbde8c5aa	-0.113658264
13	0x3ec0354e	0.37540668
14	0x3dbe8aa8	0.0930379
15	0xbe4739ea	-0.19455686
16	0x3e69cd60	0.2283225
17	0xbd94cdc0	-0.07265806
18	0xbea8b7cf	-0.32952735
19	0x3e3834a6	0.17988834
20	0xbbe59bed	-0.007007113
21	0x3d102816	0.03519448
22	0xbe1d8f0b	-0.15386598
23	0x3e7de879	0.24795713
24	0x3e843721	0.2582331
25	0xbd3950ce	-0.045243077
26	0xbde6ba45	-0.11265997
27	0xbde45c66	-0.11150436
28	0xbd2ff909	-0.042962108
29	0xbf6212b3	-0.8830978
30	0xbe53385a	-0.20626965
31	0x3e445a2a	0.1917502
32	0x3d8657a5	0.065596856
33	0xbf1e2f1a	-0.6179062
34	0xbf96dd32	-1.1786253
35	0x3e82024d	0.2539238
36	0x3dcd070e	0.10011111
37	0x3e04616f	0.12927793
38	0x3d9c3d9f	0.07628941
39	0x3e470ffe	0.19439694
40	0x3e374f0d	0.17901249
41	0x3d23f9a3	0.040032994
42	0x3e0ba4b2	0.13637045
43	0x3e2414b7	0.16023527
44	0x3e34053d	0.17580123
45	0x3eac02e1	0.33595946
46	0x3e0444e0	0.12916899
47	0xbd379a29	-0.044824753
48	0xbd8f7ba3	-0.07006004
49	0xba89eeca	-0.0010523435
50	0x3c69ca8c	0.014269482
51	0x3d28e80f	0.041236933
52	0x3dba8e14	0.091091305
53	0x3e120863	0.14261012
54	0x3de75129	0.11294777
55	0x3db39c38	0.08770031
56	0xb9201442	-0.00015266336
57	0x3d3ea28d	0.04654174
58	0x3d9d72a9	0.07687885
59	0x3e4c7029	0.1996466
60	0x3e22cbfb	0.15898125
61	0x3dcc5e36	0.09978907
62	0x3f15e91a	0.5855881
63	0xbf70ee22	-0.9411336
64	0xbf3d8a50	-0.74039173
65	0xbf78367d	-0.9695814
66	0xc067a024	-3.6191492
67	0x3e007dd1	0.12547995
68	0x3d416fab	0.047225635
69	0x3e03b7b7	0.1286305
70	0x3e2d055d	0.16896577
71	0x3db69156	0.089144394
72	0x3c473957	0.012159667
73	0x3c0225c2	0.0079435725
74	0xbd9ea432	-0.077461615
75	0x3ecbfdd3	0.3984209
76	0xbe0e68d1	-0.13907172
77	0x3d5af383	0.053454887
78	0x3ef0853c	0.4697665
79	0xbe3c6d77	-0.18401133
80	0x3efe8710	0.4971242
81	0x3d929b42	0.07158519
82	0xbeb5741d	-0.3544015
83	0xbf098c75	-0.53729945
84	0xbe7230bf	-0.23651408
85	0xbd9dbb97	-0.077017955
86	0x3f033f5f	0.5126857
87	0xbf13663b	-0.57577866
88	0xbe1f81be	-0.15576836
89	0xbda02ad9	-0.078206725
90	0x3def02f2	0.11670484
91	0x3e749650	0.23885465
92	0xbe8f81c0	-0.2802868
93	0xbe3fba98	-0.18723524
94	0x3d8efbc8	0.06981617
95	0x3e95acae	0.29233307
96	0xbe97d787	-0.29656622
97	0x3d9cef7b	0.07662865
98	0xbe05f103	-0.1308022
99	0xbe79f64b	-0.2441036
100	0x3e0f0b7f	0.13969229
101	0x3d2aeb5c	0.041728362
102	0xbdb491a3	-0.088168405
103	0xbe913e79	-0.28367975
104	0xbc0e3f01	-0.0086820135
105	0x3cc5dd67	0.024153424
106	0xbd4d1fd1	-0.05007917
107	0x3e89acf1	0.26889756
108	0x3ee94b14	0.45565093
109	0x3e72280e	0.23648092
110	0xbdebd171	-0.11514557
111	0xbea414b2	-0.3204704
112	0x3f13293c	0.57484794
113	0x3ea6b8d3	0.32562885
114	0xbf5bcb4a	-0.8585707
115	0xbe53d9fc	-0.20688623
116	0x3e5b4f38	0.21416938
117	0x3b4566e5	0.0030121144
118	0xbe8b9452	-0.27261597
119	0xbd71846d	-0.05896418
120	0x3d16e7cc	0.036842152
121	0x3d973897	0.073838405
122	0x3e816ec7	0.2527983
123	0xbef35b77	-0.4753072
124	0x3eda3416	0.42617863
125	0x3d040bf6	0.03223797
126	0x3bfc3dbc	0.007697789
127	0xbe5371c9	-0.20648874
128	0x3e96c9c3	0.29450807
129	0xbe80298f	-0.25031707
130	0xbe08ec27	-0.13371335
131	0x3d421f83	0.047393333
132	0xbe4360d9	-0.19079913
133	0x3d2f7fd0	0.0428465
134	0xbe42e782	-0.19033626
135	0xbe0b4bdf	-0.13603161
136	0x3ec2d7a7	0.38055155
137	0xbf08680c	-0.5328376
138	0xbeaf99b2	-0.34296948
139	0x3d81f00e	0.06344615
140	0x3d91593b	0.070970975
141	0xbe783ba6	-0.24241504
142	0x3e1b3f93	0.1516097
143	0x3e4d092f	0.20023035
144	0x3cad0d28	0.021124437
145	0x3df647b3	0.12025394
146	0xbe827863	-0.25482473
147	0x3cfee13e	0.031113263
148	0xbdfd0940	-0.1235528
149	0x3e37c295	0.17945321
150	0x3e0aec70	0.13566756
151	0x3dfef4ed	0.1244906
152	0x3e116717	0.14199482
153	0xbe62675e	-0.22109744
154	0x3c3d9ee2	0.011573525
155	0x3e873cfa	0.2641371
156	0x3eeaa709	0.45830563
157	0x3f35850a	0.70906126
158	0x3c9900df	0.018677173
159	0xbda3cbeb	-0.07997879
160	0x3dede252	0.11615433
161	0xbdee06e4	-0.11622408
162	0xbca42424	-0.020036764
163	0x3dc1d4e7	0.09464436
164	0xbb1a7d31	-0.0023573155
165	0xbc7d002d	-0.015441936
166	0xbe0d3b71	-0.13792206
167	0xbe91794c	-0.28412855
168	0x3e33d4eb	0.1756169
169	0x3d4b733b	0.04967044
170	0x3de3f248	0.11130196
171	0xbe055a33	-0.1302269
172	0xbe0df80e	-0.13864157
173	0x3d904056	0.07043521
174	0x3eb3d0a1	0.3512011
175	0x3d7f62c5	0.062350053
176	0xbda8f54d	-0.082499124
177	0xbcdaa611	-0.026690515
178	0x3ef8984f	0.48553702
179	0x3cf727a9	0.030170279
180	0xbed35fab	-0.41283926
181	0xbf190ed1	-0.59788233
182	0xbfc111fa	-1.5083611
183	0x3cf2f3cb	0.029657265
184	0xbcc2a14c	-0.023758553
185	0xbd778c51	-0.06043655
186	0x3d8a5032	0.06753577
187	0x3df05bce	0.1173626
188	0xbe17819a	-0.14795533
189	0x3dcb931d	0.09940169
190	0xbdf9fb6c	-0.12206158
191	0x3e02978a	0.1275312
192	0xbd8ee36c	-0.06976971
193	0x3eb67178	0.35633445
194	0x3edb7654	0.42863715
195	0x3d388638	0.045049876
196	0xbdfefa62	-0.124501005
197	0xbe403957	-0.18771873
198	0xbcc44d1e	-0.023962554
199	0x3e853926	0.26020163
200	0xbdd77530	-0.105203986
201	0x3dbd8fe4	0.092559606
202	0xbdb11a6a	-0.08647616
203	0x3ec39816	0.3820197
204	0x3e76b010	0.240906
205	0xbeef527e	-0.46742624
206	0x3e578768	0.21047747
207	0xbd244ccf	-0.040112313
208	0x3df0222e	0.11725269
209	0x3ea94a9d	0.33064738
210	0x3f1ee24b	0.62064046
211	0xbec833ea	-0.39102107
212	0xbf53e3f3	-0.827697
213	0xbf896844	-1.0734944
214	0xc01d8661	-2.4613268
215	0xbe6e61d5	-0.23279507
216	0x3e18f83d	0.14938445
217	0xbe6ec57d	-0.23317523
218	0x3c6a3fcf	0.01429744
219	0x3e8521ac	0.26002252
220	0x3d82ba52	0.06383194
221	0x3c92b58d	0.017908836
222	0x3dfa49d8	0.12221116
223	0xbc37075a	-0.011171186
224	0x3dfce589	0.12348468
225	0x3ca9ac97	0.02071218
226	0xbdcefb3e	-0.101065144
227	0x3e711f1b	0.23547022
228	0x3e770dae	0.24126312
229	0xbc42e4b6	-0.011895349
230	0x3e43a241	0.19104864
231	0xbd6f8d32	-0.058484264
232	0xbda35a3c	-0.07976195
233	0x3a936b52	0.0011247194
234	0xbd3f61a9	-0.046723995
235	0x3b8c2182	0.0042764554
236	0x3e146c0e	0.14494345
237	0x3f204b25	0.6261466
238	0xbed5011e	-0.41602415
239	0xbf0c889e	-0.5489596
240	0xbf38c779	-0.7217937
241	0xc04df30b	-3.2179592
242	0x3df89645	0.12138037
243	0x3cfca96c	0.030842505
244	0x3ac1345f	0.0014740339
245	0x3d6de031	0.058075134
246	0x3e2184ae	0.1577327
247	0xbdf7fa12	-0.12108244
248	0x3d9b7c1f	0.075920336
249	0x3d021cd8	0.03176579
250	0xbd8143cc	-0.06311759
251	0x3dc833d0	0.097755075
252	0x3decc460	0.11560893
253	0x3e3a3a55	0.18186314
254	0xbb7ac230	-0.0038262717
255	0xbe26237b	-0.16224472

feature_layer.0.bias f4 [64]
0	0xbe6a9b1f	-0.22910737
1	0xbced67d1	-0.028980168
2	0x3e26e655	0.16298802
3	0xbdd62b5d	-0.1045749
4	0x3d139803	0.03603364
5	0xbde54283	-0.11194327
6	0x3e82bc37	0.25534222
7	0x3d75bdbc	0.059995398
8	0x3dc2c8e2	0.095109716
9	0xbe374355	-0.17896779
10	0xbd6934a2	-0.05693496
11	0xbe71726f	-0.23578809
12	0xbd28cca8	-0.0412108
13	0x3d750914	0.05982311
14	0xbe1f9b3b	-0.1558656
15	0xbc516891	-0.012781278
16	0x3e68cc11	0.22734095
17	0xbdb0984c	-0.08622798
18	0xbd5dbffc	-0.05413817
19	0xbe4a3be4	-0.19749409
20	0xbd4f1053	-0.050552677
21	0xbddcd968	-0.107836545
22	0x3e674b57	0.22587334
23	0xbe14d0c2	-0.1453276
24	0xbde2b4e0	-0.110696554
25	0xbe587135	-0.21136935
26	0xbe2cdad0	-0.16880345
27	0xbe21ecd0	-0.15812993
28	0x3d49a202	0.04922677
29	0xbd56438e	-0.05231052
30	0xbe24427d	-0.16040988
31	0x3e2c1b8b	0.16807382
32	0xbe48f746	-0.19625577
33	0x3ca33cc6	0.01992644
34	0x3c37b265	0.011211966
35	0xbe91f84a	-0.28509742
36	0xbe15b071	-0.14618088
37	0xbd520d19	-0.051282022
38	0xbd286e41	-0.04112077
39	0xbdfe09cb	-0.124042116
40	0x3d84d8c3	0.064866565
41	0xbde82703	-0.11335566
42	0x3d80d022	0.06289698
43	0xbcd333da	-0.02578156
44	0xbe0e380e	-0.1388857
45	0x3d315b6b	0.043300074
46	0xbd92e479	-0.07172484
47	0xbe863735	-0.26213995
48	0x3e0f7a3e	0.14011475
49	0xbde66512	-0.112497464
50	0xbe8037e9	-0.25042656
51	0xbcd6cdbe	-0.026221152
52	0xbd5b1f18	-0.05349645
53	0x3e905dbb	0.2819651
54	0xbdab9e31	-0.08379782
55	0xbe28172a	-0.16415086
56	0x3cae5ce4	0.021284528
57	0xbeab0a58	-0.3340633
58	0x3d60c28a	0.054873027
59	0x3d472800	0.04862213
60	0x3d071a91	0.03298432
61	0x3e025ab3	0.12729912
62	0x3c960406	0.018312465
63	0xbe070db0	-0.13188815

feature_layer.2.weight f4 [64, 64]
0	0xbeb6396a	-0.35590678
1	0x3af28170	0.001850171
2	0x3d972eac	0.07381949
3	0xbeee8319	-0.46584395
4	0xbdbe49c2	-0.09291412
5	0x3ddfcb72	0.10927476
6	0xbc1432a9	-0.009045281
7	0xbcd89b6d	-0.0264413
8	0x3edded1e	0.4334497
9	0xbd48d4db	-0.04903112
10	0xbe91670a	-0.28398925
11	0xbe8d8754	-0.2764231
12	0x3eaefc56	0.34176892
13	0xbf0e1242	-0.5549661
14	0xbc9f280f	-0.019428281
15	0xbe0cc5f0	-0.13747382
16	0x3c8ecead	0.017432535
17	0x3f12ce77	0.5734629
18	0xbf00960e	-0.50228965
19	0x3e4b632b	0.19862048
20	0xbdb65a1c	-0.08903906
21	0xbf752d86	-0.9577259
22	0xbdb0a45a	-0.086250976
23	0x3d1c7630	0.03819865
24	0xbddd041a	-0.10791798
25	0xbdd754f9	-0.10514254
26	0xbfee28a0	-1.8606148
27	0x3e0c1fd8	0.13684022
28	0xbf2f7470	-0.68537045
29	0xbe925701	-0.28582004
30	0x3e40d12f	0.18829797
31	0x3dabf1da	0.08395739
32	0xbf985cf2	-1.1903365
33	0xbdebac92	-0.115075245
34	0xbd1d0cdf	-0.038342353
35	0x3e981f9e	0.29711622
36	0x3ed4b5e5	0.41545025
37	0x3c8fea62	0.017567817
38	0x3eb16fd5	0.34655634
39	0xbef6747f	-0.48135754
40	0xbe27807d	-0.16357608
41	0xbe966b8b	-0.29378924
42	0xbde4e58c	-0.11176595
43	0x3e0a182c	0.13485783
44	0xbe9d45cb	-0.3071731
45	0xbdb5bb8d	-0.08873663
46	0xbf534aed	-0.825362
47	0xbd85e11e	-0.06537078
48	0x3dbb9270	0.0915879
49	0x3ca8f215	0.020623246
50	0xbec2165a	-0.37907678
51	0xbea60162	-0.3242293
52	0xbef4ebfb	-0.4783629
53	0xbecb6a11	-0.3972936
54	0xbf0aeb46	-0.5426525
55	0xbecce443	-0.400179
56	0xbd0bea92	-0.03415925
57	0x3d1fa7ca	0.038978375
58	0xbf943b9f	-1.1580695
59	0xbecff228	-0.40614438
60	0xbde5f27d	-0.112278916
61	0xbf747be4	-0.9550154
62	0xba6d67b3	-0.0009056285
63	0x3e6f945b	0.23396437
64	0x3cb4388c	0.02199962
65	0xbe274799	-0.16335906
66	0xbe7c7957	-0.24655662
67	0xbe7c83dd	-0.24659677
68	0xbeca8728	-0.3955624
69	0xbdf84405	-0.12122349
70	0x3e15950e	0.14607641
71	0xbf01d26b	-0.507117
72	0x3e7673bf	0.24067591
73	0x3e879493	0.2648054
74	0x3e14fb93	0.14549093
75	0xbf2e04b7	-0.67975944
76	0x3e324229	0.1740805
77	0xbf60e063	-0.87842387
78	0x3e220cfd	0.15825267
79	0xbe066e51	-0.1312802
80	0xbd0aed4f	-0.03391772
81	0xbf519271	-0.81864077
82	0x3eaed078	0.34143424
83	0xbe6769b2	-0.22598913
84	0xbe566921	-0.20938541
85	0x3d922549	0.07136018
86	0x3e84e6b6	0.25957268
87	0x3e475b72	0.19468477
88	0xbf736a6a	-0.9508425
89	0xbdcedd63	-0.1010082
90	0x3f0556f2	0.52085793
91	0x3e3f6558	0.18691003
92	0xbf9c3bfb	-1.2205805
93	0x3ea83512	0.3285299
94	0x3c25c38b	0.010117422
95	0x3d97556d	0.073893405
96	0xbed60019	-0.4179695
97	0x3e144bd4	0.14482051
98	0x3ee897dc	0.4542836
99	0x3edb6fa4	0.42858613
100	0x3d2df860	0.042473197
101	0xbd6ad131	-0.057328407
102	0x3ece877c	0.4033774
103	0xbf0c9ca2	-0.549265
104	0x3e30f8f4	0.17282468
105	0xbda46715	-0.08027474
106	0x3c816bca	0.015798468
107	0x3e3fd7b5	0.1873463
108	0xbef60791	-0.48052648
109	0xbeb75f95	-0.3581511
110	0xbee94ecb	-0.45567927
111	0xbd4ab77a	-0.049491383
112	0x3e1300b6	0.1435574
113	0x3d94a3bb	0.072577916
114	0x3e0c4cb7	0.1370114
115	0x3f32f38f	0.6990289
116	0xbe5ab2e7	-0.21357308
117	0xbf2199e2	-0.6312543
118	0xbd396bf7	-0.04526898
119	0xbe9e904a	-0.3096946
120	0xbebd28b5	-0.3694512
121	0xbd500546	-0.05078628
122	0xbf664f0b	-0.8996436
123	0xbf636061	-0.8881894
124	0x3b99ae04	0.0046899337
125	0xbe084485	-0.13307388
126	0x3ee7469a	0.45171052
127	0xbf57c0e5	-0.8427871
128	0xbcf2230f	-0.029557733
129	0xbe879831	-0.264833
130	0xbf01de61	-0.5072995
131	0xbe3ed974	-0.1863764
132	0x3d69d493	0.057087492
133	0xbd55e735	-0.05222245
134	0xbedec180	-0.43507004
135	0xbe8e36ad	-0.2777609
136	0xbded0f12	-0.1157514
137	0x3eeec9db	0.46638379
138	0xbe00203b	-0.12512295
139	0xbde3599a	-0.111010745
140	0x3e70747e	0.23481938
141	0xbbec6883	-0.007214607
142	0xbf155cd8	-0.58344793
143	0xbc4bcdf7	-0.012439243
144	0x3dbc825b	0.09204551
145	0xbea18158	-0.31543994
146	0x3b728fd5	0.0037012
147	0xbdfad919	-0.12248439
148	0x3e96972c	0.2941221
149	0xbda07db6	-0.078364775
150	0x3e2920ae	0.16516373
151	0x3e10c356	0.14137015
152	0xbcd71d8f	-0.026259212
153	0x3d82a6af	0.063794486
154	0xbda606ce	-0.08106767
155	0xbec2810c	-0.3798908
156	0xbe4fd9b4	-0.20297891
157	0xbe014e1c	-0.12627453
158	0x3d40722f	0.046983894
159	0xbe68d4d6	-0.2273744
160	0xbe4632b3	-0.19355278
161	0xbe0f62e2	-0.14002565
162	0xbccbfb1e	-0.024900015
163	0xbe12647e	-0.14296147
164	0x3d241da3	0.040067326
165	0xbe56d730	-0.20980525
166	0x3dec7fed	0.115478374
167	0xbdbe6926	-0.09297399
168	0x3d82bab4	0.06383267
169	0xbe8926b2	-0.26787335
170	0x3e6c7497	0.2309135
171	0xbda9bc8b	-0.08287915
172	0x3ceb661b	0.028735211
173	0xbee666c6	-0.45000285
174	0xbe58645d	-0.21132036
175	0xbec9e2fb	-0.39430985
176	0xbe10305d	-0.14080949
177	0x3d749538	0.05971262
178	0xbe10c1a6	-0.14136371
179	0x3d5d0b44	0.05396582
180	0xbee031a6	-0.4378788
181	0xbe53b003	-0.20672612
182	0xbeb2c0fe	-0.34912866
183	0xbe6033e5	-0.21894796
184	0xbdeb19a4	-0.114795
185	0xbe63b9a9	-0.22238792
186	0x3cd2299e	0.02565461
187	0x3d458a5b	0.04822765
188	0xbed931ba	-0.4242075
189	0x3e293edd	0.16527887
190	0xbd8101f9	-0.062992044
191	0xbc918ea2	-0.017768208
192	0x3d263bf7	0.04058453
193	0x3dd9ec61	0.10640789
194	0xbf1aaed5	-0.6042302
195	0xbd96e564	-0.073679715
196	0x3d896da3	0.06710365
197	0xbe88b324	-0.26699173
198	0xbc4785e3	-0.012177917
199	0x3c6cce1f	0.01445344
200	0xbe266ee1	-0.16253234
201	0x3ddabadb	0.10680171
202	0xbccb216d	-0.024796212
203	0xbdc9cd3d	-0.09853599
204	0x3d6c5514	0.057698324
205	0x3d81b06a	0.063324764
206	0xbe9052b8	-0.2818811
207	0x3dfa5557	0.122233085
208	0xbd645745	-0.05574729
209	0xbeb00e9e	-0.34386152
210	0xbcd51427	-0.026010586
211	0xbec6df2c	-0.38842142
212	0xbd529fb7	-0.051421847
213	0x39c463ec	0.0003745848
214	0x3bf3e4b6	0.007443036
215	0x3db4a325	0.0882018
216	0xbe398e24	-0.18120629
217	0x3d8e9b43	0.069632076
218	0xbdbae056	-0.0912482
219	0x3d963f4b	0.07336291
220	0x3bae6325	0.0053218775
221	0x3e2530b4	0.1613186
222	0x3e467bed	0.19383211
223	0xbef32485	-0.474888
224	0xbdc04dfe	-0.09389876
225	0xbed27f6f	-0.4111285
226	0x3ced15d2	0.028941069
227	0xbdc8549d	-0.09781764
228	0xbec024c2	-0.37528044
229	0x3e2b460a	0.16725937
230	0x3d013252	0.03154213
231	0xbe8baa86	-0.27278537
232	0xbdcdf5db	-0.10056659
233	0xbd503930	-0.05083579
234	0x3d987fa2	0.07446219
235	0xbe840092	-0.25781685
236	0x3c746512	0.014916675
237	0xbe24c1e6	-0.16089591
238	0xbe063358	-0.13105524
239	0xbe318e0a	-0.1733934
240	0xbc983803	-0.018581396
241	0x3e10f165	0.14154585
242	0x3ccacc94	0.024755754
243	0x3dc64d28	0.09682685
244	0xbe9670d3	-0.29382953
245	0xbdb688cf	-0.08912813
246	0xbd91a9a3	-0.07112434
247	0x3dabaf54	0.083830506
248	0xbe2a456e	-0.16628048
249	0x3d67f40e	0.056629233
250	0xbdc4dcf0	-0.09612453
251	0xbd5878f2	-0.052849717
252	0x3e22cb5b	0.15897886
253	0xbd3a1d3a	-0.04543803
254	0xbe5ea318	-0.21741903
255	0x3c33744a	0.010953018

feature_layer.2.bias f4 [64]
0	0xbe260357	-0.16212212
1	0xbea13b63	-0.3149062
2	0xbe724785	-0.23660095
3	0xbe79e449	-0.2440349
4	0xbdaeb6fd	-0.08530996
5	0x3e505cdc	0.20347923
6	0xbe30dc75	-0.17271598
7	0x3e0b277a	0.13589278
8	0xbe32dcc6	-0.17467031
9	0xbe4fa7e2	-0.20278886
10	0xbe810cba	-0.25205022
11	0x3c40d370	0.011769161
12	0x3e245a62	0.16050103
13	0x3ee911f9	0.45521525
14	0xbda1fc9c	-0.079095095
15	0x3dad4a46	0.08461432
16	0xbcfc4b3d	-0.030797595
17	0xbebbbbe4	-0.36666787
18	0xbe7654b7	-0.24055754
19	0xbe5febd9	-0.21867312
20	0xbd09c185	-0.03363182
21	0xbea2d1fb	-0.31800827
22	0xbd86e5b2	-0.0658678
23	0x3d9025c3	0.070384525
24	0xbde37d1c	-0.11107847
25	0xbc92dfb6	-0.01792894
26	0xbe83936c	-0.2569841
27	0xbe932c87	-0.2874491
28	0xbe04fd6f	-0.12987302
29	0x3e47778f	0.19479202
30	0x3ca19693	0.01972512
31	0xbe3dc380	-0.18531609
32	0xbe8e9854	-0.27850592
33	0xbe9df424	-0.30850327
34	0x3e050cfb	0.12993233
35	0x3b8d7aa3	0.004317598
36	0xbeac87dd	-0.33697405
37	0xbd3c61d5	-0.045991737
38	0xbe089954	-0.1333974
39	0x3e0993a8	0.13435233
40	0x3d1b5e83	0.03793193
41	0x3d277842	0.04088617
42	0xbd061c74	-0.03274198
43	0xbe0f25a5	-0.13979204
44	0x3ea94757	0.3306224
45	0xbdb992a1	-0.0906117
46	0xbd336538	-0.0437977
47	0x3e82a654	0.25517523
48	0x3d87d4ea	0.06632407
49	0x3cbb0eec	0.022834264
50	0xbd4638a5	-0.048393864
51	0xbe44be87	-0.19213305
52	0xba91f04f	-0.001113424
53	0xbd37f378	-0.044909924
54	0xbe664b20	-0.22489595
55	0xbe7febbe	-0.24992272
56	0xbdb0d0bf	-0.08633565
57	0xbe6db857	-0.23214851
58	0xbe1b0b57	-0.15141045
59	0xbdaa519c	-0.08316347
60	0xbe96f2ff	-0.29482266
61	0xbe328594	-0.17433769
62	0x3ca73f02	0.020415787
63	0x3eb3a92e	0.3509001

advantage_layer.0.weight f4 [64, 64]
0	0xbee4cd5a	-0.4468792
1	0x3d21a350	0.039462388
2	0x3e2738b0	0.16330218
3	0x3ddad80d	0.1068574
4	0x3e087db4	0.13329202
5	0xbe66a5a8	-0.2252413
6	0x3d4682e0	0.048464656
7	0xbe9fe03f	-0.31225774
8	0x3e22fead	0.15917464
9	0xbe89667f	-0.2683601
10	0x3dc7f8b3	0.097642325
11	0xbe0ae3ec	-0.13563508
12	0x3d55b76d	0.05217688
13	0xbf115b00	-0.5677948
14	0x3e441b93	0.19151144
15	0xbf1e84f1	-0.619216
16	0x3e209dd5	0.15685208
17	0x3d8b23e0	0.06793952
18	0xbf0ac8ae	-0.5421246
19	0xbdca955b	-0.098917685
20	0xbeb24dba	-0.34824926
21	0xbedac083	-0.42725
22	0x3e9a3800	0.3012085
23	0x3c448e5d	0.011996833
24	0xbda03600	-0.078228
25	0xbf819ac8	-1.012536
26	0x3ea8e456	0.32986706
27	0x3dbbc2bd	0.09168003
28	0x3d4aad8a	0.049481906
29	0x3dca9948	0.09892517
30	0xbb56926f	-0.003274109
31	0x3de78d71	0.11306275
32	0x3da58eb7	0.08083861
33	0xbec410f3	-0.3829418
34	0xbf6d2645	-0.9263652
35	0xbe611323	-0.21979956
36	0x3e045f3b	0.12926953
37	0x3e080fa3	0.13287215
38	0xbdd95e41	-0.10613681
39	0xbeb63154	-0.3558451
40	0x3dc49e26	0.09600477
41	0xbead61b3	-0.338636
42	0x3d1a1969	0.03762189
43	0x3d22715d	0.039658893
44	0xbf3cd4d2	-0.7376224
45	0xbd482462	-0.048862822
46	0x3dcc5954	0.099779755
47	0xbecc1d8a	-0.39866287
48	0xbe8d47aa	-0.27593738
49	0xbdad6d61	-0.08468128
50	0x3d763bc2	0.060115583
51	0x3d8892eb	0.066686474
52	0xbe53654c	-0.2064411
53	0x3e8c7e4e	0.27440113
54	0xbe6cad98	-0.23113096
55	0x3c0ad6ff	0.008474111
56	0xbe7a1ae0	-0.24424314
57	0xbe2b451d	-0.16725583
58	0x3d9e1904	0.07719615
59	0xbf227768	-0.6346345
60	0x3d10f151	0.035386387
61	0x3e854f86	0.26037234
62	0xbcd4422d	-0.025910461
63	0x3d1964cd	0.037449647
64	0x3eb9a7ba	0.36260778
65	0x3df527a4	0.119704515
66	0x3e4250bf	0.18976115
67	0xbe6e21a6	-0.23255023
68	0xbd8e977a	-0.069624856
69	0xbf023d8d	-0.5087517
70	0x3ea26bf3	0.31722984
71	0x3e2fca81	0.17167093
72	0xbc4e2a69	-0.012583354
73	0x3f3cc5dc	0.7373941
74	0x3f032086	0.512215
75	0xbd63acf5	-0.055584867
76	0x3e53585a	0.20639172
77	0xbe33b628	-0.17549956
78	0xbb92bc77	-0.004478033
79	0x3e65cc94	0.22441322
80	0xbdcdc8ae	-0.10048042
81	0x3eb59074	0.3546177
82	0xbf0569a9	-0.5211435
83	0x3e08e5fc	0.13368982
84	0x3d7d99fc	0.06191443
85	0xbf0d1f3b	-0.5512578
86	0x3e97a96e	0.29621452
87	0xbda3fdd1	-0.08007396
88	0xbdcd28a5	-0.10017518
89	0x3e8be70a	0.27324706
90	0x3eb401cd	0.35157624
91	0x3d429a43	0.047510397
92	0xbf0a40ea	-0.540053
93	0xbe2bf396	-0.1679214
94	0x3c346ce7	0.0110122925
95	0x3c4e666d	0.012597662
96	0xbe984e11	-0.2974706
97	0x3e04c15f	0.1296439
98	0xbe6e6bad	-0.23283263
99	0xbf3df877	-0.7420725
100	0xbec9f15d	-0.39441958
101	0x3d20b035	0.039230544
102	0x3e7a64b2	0.24452475
103	0xbf017ab4	-0.50577855
104	0x3ec014b9	0.3751581
105	0xbe0b23b9	-0.13587846
106	0xbe2fdfc4	-0.17175204
107	0xbee934b0	-0.4554801
108	0x3d792858	0.06082949
109	0x3ee8e98c	0.45490682
110	0xbd074522	-0.033024915
111	0xbe40b269	-0.18818058
112	0x3e0e2fa3	0.1388536
113	0xbf002e7e	-0.5007094
114	0x3e03964c	0.12850302
115	0x3d845cdd	0.06463025
116	0x3e0c9d81	0.13731958
117	0x3e84d63a	0.25944692
118	0x3c88679f	0.016650973
119	0x3e408ec1	0.18804456
120	0x3e4eef17	0.20208393
121	0x3d1cbe62	0.0382675
122	0xbc1c8d4c	-0.009555172
123	0x3d294a11	0.0413304
124	0x3dd2d83e	0.10295151
125	0x3e401f83	0.18762021
126	0x3dd6f126	0.10495214
127	0xbd04f840	-0.032463312
128	0xbeff7e14	-0.49900877
129	0xbe511008	-0.20416272
130	0x3ef426dd	0.476859
131	0x3d77b67c	0.060476765
132	0x3e59a7f9	0.21255483
133	0xbf0c7367	-0.5486359
134	0x3e25a7ba	0.16177264
135	0x3debdef0	0.11517131
136	0x3ddd20c0	0.10797262
137	0xbeec371e	-0.461358
138	0x3e17de5e	0.1483092
139	0xbf800084	-1.0000157
140	0x3ea87ca1	0.32907584
141	0xbe02611f	-0.12732361
142	0xbf27e3de	-0.6558207
143	0xbe3f5c56	-0.18687567
144	0xbdf15b76	-0.11785023
145	0xbe6e2858	-0.23257577
146	0xbec00083	-0.3750039
147	0xbefdc165	-0.4956161
148	0x3ea47391	0.3211942
149	0x3edc0add	0.42977038
150	0x3e8e1a02	0.27754217
151	0xbea0bef1	-0.31395677
152	0x3e93b694	0.28850234
153	0x3ea3b3ba	0.31973058
154	0x3ea4d842	0.32196242
155	0x3d857ba7	0.065177254
156	0x3f32002a	0.695315
157	0xbe6f23ad	-0.23353453
158	0xbc30cab1	-0.010790513
159	0xbd2e1a68	-0.04250565
160	0xbe326dd7	-0.17424713
161	0xbe8f4bab	-0.27987418
162	0x3d70e8a3	0.05881561
163	0xbe970db8	-0.29502654
164	0xbd2f3e67	-0.04278412
165	0xbf25e1a3	-0.6479742
166	0x3e956fd8	0.29186893
167	0x3d989280	0.07449818
168	0xbdb6fa6f	-0.08934485
169	0xbf26abc5	-0.6510585
170	0xbf262cc5	-0.6491206
171	0x3e9045a0	0.2817812
172	0xbe92079f	-0.2852144
173	0x3ed1d766	0.40984648
174	0xbeb3bd38	-0.351053
175	0xbe0cfba2	-0.13767865
176	0xbe7fca3a	-0.24979487
177	0xbeb2cadd	-0.34920397
178	0xbd9b79c9	-0.07591588
179	0xbf5b48e5	-0.85658103
180	0xbef77cdd	-0.4833745
181	0xbe2c1b98	-0.16807401
182	0xbed1cedc	-0.40978134
183	0x3ee4db06	0.44698352
184	0x3eaa0744	0.33208668
185	0x3f05322e	0.52029693
186	0xbf1681c0	-0.5879173
187	0xbdf7d878	-0.12101835
188	0xbe5843ee	-0.21119663
189	0xbe8b961f	-0.2726297
190	0x3e68275f	0.22671269
191	0xbf9fff76	-1.2499835
192	0xbe7bc70e	-0.24587652
193	0x3eb8cff3	0.36096153
194	0xbd27795f	-0.040887233
195	0xbdffa413	-0.124824665
196	0x3e222d76	0.15837654
197	0x3d4b7058	0.049667686
198	0x3c64ce14	0.0139651485
199	0x3dac93ea	0.0842665
200	0x3f1189fc	0.5685117
201	0x3ee75336	0.45180672
202	0x3c3738d0	0.011182979
203	0xbe91e687	-0.2849619
204	0xbe87927c	-0.26478946
205	0xbf22c7f9	-0.63586384
206	0x3e548b92	0.20756367
207	0xbf57f660	-0.84360313
208	0xbdcde19d	-0.10052798
209	0x3ddd30d3	0.10800328
210	0xbec3c3e8	-0.38235402
211	0xbeeb3ea4	-0.45946229
212	0xbe9480ad	-0.29004422
213	0x3e0102be	0.12598702
214	0x3cddf104	0.027092464
215	0x3e79836a	0.24366537
216	0x3f0282c7	0.509808
217	0xbe8b14f2	-0.27164418
218	0x3e9477b7	0.28997585
219	0xbe2fec25	-0.17179926
220	0xbeb3a0aa	-0.35083514
221	0xbf04f9ea	-0.5194384
222	0x3d208c27	0.03919616
223	0x3e7c5eda	0.24645558
224	0xbe333b6d	-0.17503138
225	0xbf103fee	-0.5634755
226	0xbf4e9a2b	-0.8070399
227	0x3d8b28ef	0.06794917
228	0xbf4cb136	-0.799579
229	0xbe08a14a	-0.13342777
230	0x3e58cfe3	0.21173052
231	0xbefa7ab5	-0.48921743
232	0x3d0b2b91	0.033977095
233	0xbf1f95a2	-0.62337697
234	0xbd3d9b1a	-0.046290495
235	0x3eb16968	0.3465073
236	0xbeaae51a	-0.33377916
237	0x3e409b2c	0.18809193
238	0xbe432911	-0.19058634
239	0x3d284d4d	0.041089345
240	0xbe6d3685	-0.23165329
241	0xbd829ebb	-0.06377932
242	0xbd76133f	-0.06007695
243	0xbd7a5777	-0.06111857
244	0xbe1d5693	-0.15365057
245	0xbe54cf2d	-0.20782156
246	0x3e602381	0.21888544
247	0x3ed2ef13	0.41198024
248	0x3e868732	0.2627502
249	0xbedfb53b	-0.43692955
250	0xbf55348c	-0.83283305
251	0xbd9ad78e	-0.07560645
252	0x3e58061e	0.21096084
253	0xbe07231e	-0.1319699
254	0x3d01ae5c	0.031660423
255	0xbe642471	-0.22279526

advantage_layer.0.bias f4 [64]
0	0xbd2b8f95	-0.041884977
1	0xbed62b2a	-0.41829807
2	0x3e87c0e2	0.26514345
3	0xbe734b66	-0.23759231
4	0xbe0f42b7	-0.13990293
5	0xbe4774c2	-0.19478133
6	0xbe32dfc5	-0.17468174
7	0xbdf1aee4	-0.11800936
8	0xbd957653	-0.07297959
9	0xbe67407a	-0.2258319
10	0xbe73ed30	-0.23820949
11	0xbe30492e	-0.17215416
12	0xbe1e5b70	-0.15464568
13	0xbbac1a04	-0.0052521247
14	0x3e575b3d	0.21030898
15	0xbdbe5ed0	-0.09295428
16	0xbf0c1d45	-0.5473216
17	0xbdab6bf8	-0.08370203
18	0xbc9022b3	-0.01759467
19	0xbd88c5f3	-0.06678381
20	0xbe19b58f	-0.15010665
21	0x3d7930f7	0.060837712
22	0xbe2cd3c0	-0.16877651
23	0x3d9abf13	0.07555976
24	0xbd49c442	-0.04925943
25	0xbe560bb1	-0.20902897
26	0xbe2a43c0	-0.16627407
27	0xbedbdbca	-0.42941123
28	0xbe24eeef	-0.16106771
29	0xbd4155d4	-0.047200993
30	0xbe06a757	-0.13149773
31	0xbcb8cdc4	-0.022559054
32	0x3e1d68ae	0.15371963
33	0xbe8b39b1	-0.27192453
34	0x3c76ddc0	0.015067518
35	0x3e593908	0.21213162
36	0xbe84c5ed	-0.25932255
37	0xbe1deeda	-0.15423146
38	0xbd8af262	-0.06784512
39	0xbe4f75ce	-0.20259783
40	0xbe45a7ea	-0.19302335
41	0xbe439ea9	-0.19103493
42	0xbea414be	-0.32047075
43	0x3e8be4eb	0.27323088
44	0xbe5ac965	-0.21365888
45	0xbe03d91b	-0.12875788
46	0xbce0d03c	-0.027443044
47	0xbe716999	-0.23575439
48	0xbe2094bf	-0.15681742
49	0xbe0d56e6	-0.1380268
50	0xbe3356dc	-0.17513603
51	0xbdaace91	-0.08340181
52	0xbea23927	-0.3168423
53	0x3d99bfd8	0.075072944
54	0x3e564e5a	0.20928326
55	0xbdac91fe	-0.08426283
56	0xbe992d21	-0.29917243
57	0xbd18a270	-0.037264287
58	0x3c94d895	0.01816968
59	0xbbad248c	-0.0052838977
60	0xbe82fa5d	-0.25581637
61	0xbe7682d0	-0.24073339
62	0xbe2ca09b	-0.16858141
63	0xbe96451f	-0.2934961

advantage_layer.2.weight f4 [4, 64]
0	0x3f370877	0.7149729
1	0xbf650174	-0.8945534
2	0x3f3c46c4	0.7354548
3	0xbe8c9322	-0.27456003
4	0x3f8b2edc	1.0873675
5	0xbf094334	-0.5361817
6	0x3f267a31	0.650302
7	0x3f5d3489	0.8640829
8	0x3f953c01	1.1658937
9	0xbf5620d6	-0.83643854
10	0x3f5ed0bb	0.8703725
11	0x3d9fa690	0.07795441
12	0x3f22d9e0	0.636137
13	0xbfa76163	-1.3076595
14	0xbf8eed29	-1.1166126
15	0x3f0a8d02	0.5412141
16	0xbf46c3bc	-0.77642417
17	0xbe7059e7	-0.23471795
18	0x3ef54d32	0.47910458
19	0x3ec8d589	0.39225414
20	0x3f56cd16	0.83906686
21	0x3e2783d9	0.1635889
22	0xbfa7ebeb	-1.3118871
23	0xbcf181a2	-0.029480759
24	0x3f94510a	1.1587231
25	0x3e741a32	0.23838118
26	0xbec8c75f	-0.39214608
27	0xbf88a111	-1.0674154
28	0xbe24adf2	-0.1608198
29	0xbf806682	-1.0031283
30	0xbf97085c	-1.1799426
31	0xbf572f20	-0.8405628
32	0x3fada7f7	1.3566884
33	0x3ef65b05	0.48116317
34	0x3f661274	0.8987191
35	0x3e888e64	0.26671135
36	0x3f6abf4b	0.9169814
37	0xbf93c42e	-1.1544244
38	0x3ed799fa	0.42109662
39	0x3f5ac4d0	0.8545656
40	0xbfcd14bd	-1.6021954
41	0xbfbc2123	-1.4697613
42	0xbf168ce3	-0.58808726
43	0xbdff3cc7	-0.12462764
44	0xbf838f91	-1.0278188
45	0xbfac1a78	-1.3445578
46	0xbe2ab935	-0.16672213
47	0xbfd4f800	-1.6638184
48	0x3ed505d5	0.41606012
49	0xbf7bbc98	-0.98334646
50	0xbfcac0ec	-1.5840125
51	0xbfd1759c	-1.6364017
52	0xbe935142	-0.28772932
53	0x3d51ad2a	0.051190533
54	0xbddef202	-0.10886003
55	0x3ee2683a	0.44220144
56	0xbdfafbb6	-0.12255041
57	0x3e6e7622	0.23287252
58	0x3fb62bf8	1.4232168
59	0x3f17e356	0.5933126
60	0xbf7d0330	-0.9883299
61	0xbfb7fe2a	-1.437444
62	0xbfa03ee7	-1.2519196
63	0xbfa27b42	-1.2693865
64	0x3ebe2567	0.3713791
65	0x3d1691fb	0.03676031
66	0x3f118d99	0.56856686
67	0x3f31018d	0.6914299
68	0x3eff1e04	0.49827588
69	0x3f6afdad	0.9179333
70	0xbe158cd6	-0.14604506
71	0x3f227aef	0.6346883
72	0x3f701280	0.9377823
73	0x3ee449aa	0.4458745
74	0xbea1244a	-0.31473
75	0x3fa49edc	1.286098
76	0x3e02fc5a	0.12791577
77	0xbf81e1f3	-1.0147079
78	0x3fb47633	1.4098572
79	0x3f08c7ae	0.5342969
80	0xbf1d035d	-0.61333257
81	0xbf039402	-0.51397717
82	0x3e9a5801	0.30145267
83	0x3ebbb54c	0.36661756
84	0xbd2f22d6	-0.04275783
85	0x3d41189c	0.04714261
86	0x3e9eed3e	0.31040376
87	0x3e2d1eef	0.16906331
88	0xbf1f29ad	-0.6217297
89	0x3e9913b2	0.2989784
90	0xbe8b0d76	-0.27158707
91	0x3f53d1b4	0.82741857
92	0x3eec3a65	0.46138301
93	0x3f3ffda5	0.74996406
94	0x3d3b6fdc	0.045760974
95	0x3f633925	0.8875907
96	0xbf2433c1	-0.6414147
97	0x3f3e4a5e	0.74332225
98	0x3e0e4f4a	0.13897434
99	0x3e1d2885	0.15347488
100	0x3f44f8d2	0.7694217
101	0x3e55c4cd	0.20875855
102	0xbe48da2f	-0.1961448
103	0x3f41d28e	0.75711906
104	0x3f7de1d4	0.9917271
105	0x3eead955	0.45868936
106	0x3e59495f	0.21219395
107	0x3d8aae8d	0.06771574
108	0x3e959d26	0.29221457
109	0x3e1ec08c	0.15503138
110	0x3e11a7af	0.14224122
111	0x3e62805c	0.22119278
112	0x3ea527fd	0.3225707
113	0x3b24784c	0.0025096117
114	0x3f4de15c	0.80421996
115	0x3e2f43ff	0.17115782
116	0xbe42b81d	-0.19015546
117	0x3d79e20b	0.061006587
118	0x3e495963	0.19663005
119	0xbf3f5655	-0.7474111
120	0x3f4116f7	0.75425667
121	0xbe80833c	-0.25100124
122	0x3e4e69ed	0.20157595
123	0x3c36d0c0	0.011158168
124	0x3de90b01	0.11379052
125	0x3d8029ea	0.062579945
126	0x3dbeb270	0.09311378
127	0x3e2741d6	0.16333708
128	0xbf9df44f	-1.2340182
129	0x3f0190c3	0.50611514
130	0x3f062ce0	0.52412224
131	0xbed1f74a	-0.4100898
132	0xbf2ef51f	-0.68342775
133	0xbf039913	-0.5140545
134	0x3edee058	0.43530536
135	0xbf05a687	-0.52207226
136	0xbf4fa84d	-0.8111618
137	0x3ef416c8	0.4767363
138	0x3f152a31	0.58267504
139	0xbfa385e5	-1.2775236
140	0x3e86d6c1	0.2633572
141	0x3f0800c6	0.5312618
142	0x3fe00587	1.7501687
143	0xbfa457bc	-1.2839274
144	0x3f95e20b	1.1709608
145	0xbdde0547	-0.1084085
146	0x3ee3410f	0.44385573
147	0xbfb4cbcc	-1.4124694
148	0x3f79677c	0.9742353
149	0xbe6d6445	-0.23182781
150	0x3edde183	0.43336114
151	0xbf693269	-0.91092545
152	0x3e9ee537	0.31034252
153	0x3f19181a	0.598024
154	0x3ed967d5	0.4246203
155	0x3f07dd7d	0.5307234
156	0xbf6d5177	-0.9270243
157	0xbced932a	-0.029000837
158	0x3f9c8ab0	1.2229824
159	0xbe7c3758	-0.24630487
160	0x3fca8e7d	1.5824734
161	0xbe965a7c	-0.2936591
162	0xbfe70716	-1.8049037
163	0xbeddcdef	-0.43321177
164	0xbed80d1b	-0.421975
165	0x3dbadd9b	0.09124299
166	0xbf5b7452	-0.85724366
167	0xbf65e8d9	-0.8980842
168	0x3fb2f343	1.3980488
169	0x3fad99f6	1.356261
170	0x3f2d8db5	0.6779435
171	0xbe240794	-0.16018516
172	0x3ec88e16	0.39170903
173	0x3ea01464	0.31265557
174	0xbf645ce3	-0.89204234
175	0x3f298e4a	0.6623274
176	0xbf71c621	-0.94442946
177	0xbf3ac183	-0.72951525
178	0x3f8a48d0	1.0803471
179	0x3f46197f	0.77382654
180	0x3e74652c	0.23866719
181	0xbe9bcba0	-0.3042879
182	0xbebeb569	-0.3724778
183	0xbf9993d3	-1.1998237
184	0x3fb96abf	1.4485701
185	0x3e89f010	0.26940966
186	0xbfc8415a	-1.5644944
187	0x3f2ee4aa	0.68317664
188	0x3f4a2183	0.78957385
189	0x3f3e48bd	0.7432974
190	0x3f19e132	0.60109246
191	0x3f6108d2	0.87904084
192	0x3f273717	0.65318435
193	0x3f4409f1	0.7657767
194	0xbfa3d2b1	-1.2798673
195	0x3f892eca	1.0717404
196	0xbf621209	-0.8830877
197	0x3f5bb591	0.85823923
198	0xbf63f973	-0.89052504
199	0xbee8f9ba	-0.45503026
200	0xbecd1512	-0.40055138
201	0x3e1ef235	0.15522082
202	0xbf907de2	-1.1288416
203	0x3f9d9f89	1.2314311
204	0xbf80618b	-1.0029768
205	0x3fa6a0d3	1.301783
206	0xbf53c6b9	-0.827251
207	0x3f1ef9f9	0.6210018
208	0x3f3c4cf2	0.7355491
209	0x3f52e746	0.82384145
210	0xbf924364	-1.1426816
211	0x3e56c849	0.2097484
212	0xbfb39bc4	-1.4031911
213	0xbd571512	-0.05251033
214	0x3f36bd3d	0.71382505
215	0x3fb56c86	1.4173744
216	0xbfabe4be	-1.3429182
217	0xbf0965aa	-0.5367075
218	0x3f2271b5	0.63454753
219	0x3e84fb0f	0.25972793
220	0x3f34cb9e	0.70623195
221	0x3f91a786	1.1379249
222	0x3eff05cd	0.49809113
223	0x3f76400f	0.96191496
224	0xbfe41326	-1.7818344
225	0xbf4cc677	-0.79990333
226	0x3f9c226a	1.2198002
227	0xbe17f29f	-0.14838646
228	0xbeb28185	-0.3486444
229	0x3f6c6ba8	0.9235177
230	0x3da0ad7a	0.07845588
231	0xbe99bb60	-0.30025768
232	0x3f84d27f	1.0376738
233	0xbdb2b5e5	-0.087261
234	0x3f05efb4	0.5231888
235	0x3f02db18	0.5111556
236	0x3f23dca7	0.64008564
237	0x3ef47c05	0.4775087
238	0x3f420af7	0.7579798
239	0x3f7a571f	0.97789186
240	0x3eaca182	0.3371697
241	0x4002fe50	2.046772
242	0x3f87f97e	1.0623014
243	0x3f0b50d7	0.54420227
244	0x3e74b937	0.23898779
245	0x3ea6c244	0.32570088
246	0x3edf4c0c	0.43612707
247	0x3f964fe6	1.1743133
248	0xbf44dc51	-0.76898676
249	0x3d955c12	0.07292952
250	0x3f4b701c	0.7946794
251	0xbf82ddca	-1.0223935
252	0x3f0de9ae	0.5543469
253	0x3f6474d4	0.89240766
254	0x3f998a03	1.1995243
255	0x3f31f988	0.6952138

advantage_layer.2.bias f4 [4]
0	0x3dda1f25	0.106504716
1	0xbd45cf93	-0.04829366
2	0x3e49f655	0.19722874
3	0xbdf106ec	-0.11768898

value_layer.0.weight f4 [64, 64]
0	0xbe49df67	-0.19714127
1	0xbd2c7c5a	-0.04211078
2	0x3d9a2098	0.07525748
3	0xbdfe22ef	-0.12409007
4	0xbdc31d91	-0.09527124
5	0x3c375650	0.011190012
6	0x3c56dc72	0.013114082
7	0x3e19caa7	0.15018712
8	0x3dd73ea2	0.10509993
9	0xbeddddf7	-0.43333408
10	0x3c968539	0.018374072
11	0x3cb3e54e	0.021959927
12	0x3e11000a	0.14160171
13	0x3e39f26d	0.18158884
14	0x3e402c4d	0.187669
15	0x3d97ac5c	0.07405922
16	0x3e80b723	0.25139722
17	0xbd714327	-0.058901932
18	0xbe14c69b	-0.14528887
19	0xbee0a4c6	-0.43875712
20	0xbd37bb53	-0.04485638
21	0xbe8915f5	-0.26774564
22	0x3d505c51	0.05086929
23	0xbe5c9a0d	-0.2154314
24	0xbe217b0f	-0.157696
25	0x3cf34a4e	0.029698517
26	0xbdb57c70	-0.08861625
27	0xbd212c9c	-0.039349183
28	0xbeca1617	-0.39469978
29	0x3e0f06cd	0.13967438
30	0xbca16e3e	-0.019705888
31	0xbe5e5f14	-0.21715957
32	0xbedeebc7	-0.4353926
33	0x3cb95f81	0.022628548
34	0xbdd4d03e	-0.103912815
35	0x3da2a5a7	0.07941752
36	0x3ccb7933	0.024838066
37	0xbdd71474	-0.10501948
38	0xbe4984c8	-0.19679558
39	0x3d954b16	0.07289712
40	0x3d4e7795	0.05040701
41	0x3e071bad	0.13194151
42	0x3de5307a	0.11190887
43	0xbdeb7a0a	-0.114978865
44	0x3e16896b	0.14700858
45	0x3be6ffb2	0.007049524
46	0x3d8d18c5	0.0688949
47	0x3e4db44d	0.2008831
48	0xbd7b5ab1	-0.061365787
49	0xbc260d92	-0.010135071
50	0xbdd8dbb9	-0.10588784
51	0x3e0bac56	0.1363996
52	0x3d802d4f	0.06258642
53	0x3c71f392	0.014767544
54	0x3abefc37	0.0014571015
55	0xbe6ac0f0	-0.22925162
56	0xbdcf8e18	-0.10134524
57	0xbd3aa306	-0.045565628
58	0xbcee27da	-0.029071737
59	0xbaff5f05	-0.0019483274
60	0x3dc64afd	0.09682272
61	0xbe0279b2	-0.12741736
62	0x3e2a8ee4	0.16656071
63	0x3cc1a9cb	0.023640534
64	0xbe733a77	-0.23752771
65	0x3e106cac	0.14103955
66	0xbce466cd	-0.02788105
67	0x3d824d2e	0.06362377
68	0xbbc1b3e0	-0.0059113353
69	0x3e346adb	0.17618887
70	0x3f18fbf6	0.5975946
71	0xbe19e7fd	-0.15029903
72	0xbe8dfa1f	-0.2772989
73	0x3e01f50e	0.12691137
74	0x3ec35fc7	0.3815901
75	0xbe2e7079	-0.17035092
76	0x3d073342	0.033007868
77	0xbef2e522	-0.4744044
78	0xbbea53bf	-0.0071510966
79	0xbe086f75	-0.13323767
80	0xbda09e08	-0.07842642
81	0x3e1152bb	0.14191715
82	0x3eab3feb	0.33447203
83	0x3da2b6c6	0.079450175
84	0xbca2509e	-0.019813832
85	0x3e5699e7	0.20957147
86	0xbea120a2	-0.3147021
87	0xbe9723d9	-0.29519537
88	0x3ea70e04	0.3262788
89	0xbe4302f4	-0.19044095
90	0xbf1dc707	-0.61631817
91	0xbf06f5b6	-0.52718675
92	0xbd692c0d	-0.056926776
93	0xbe89565a	-0.26823694
94	0x3dcd9c7e	0.10039614
95	0x3d7985bc	0.060918555
96	0xbdc74288	-0.09729487
97	0x3cae32f4	0.02126453
98	0xbe8a7f83	-0.2705041
99	0xbf1324ba	-0.57477915
100	0xbef4fa93	-0.47847423
101	0xbe932b7b	-0.2874411
102	0xbe66825c	-0.22510666
103	0xbdb920ae	-0.09039436
104	0x3eb208c4	0.34772313
105	0xbe92865a	-0.28618127
106	0x3e0508b1	0.12991597
107	0xbe68c535	-0.22731479
108	0xbd75c035	-0.059997756
109	0x3d3fd448	0.046833307
110	0xbe463fca	-0.19360271
111	0xbc92efa8	-0.017936543
112	0xbe99e53a	-0.30057698
113	0xba110a69	-0.0005532862
114	0x3d693d1d	0.056943048
115	0x3eb9c80d	0.3628544
116	0x3f074737	0.5284304
117	0xbd2b7918	-0.04186353
118	0xbe20a64a	-0.15688434
119	0x3e1efffc	0.15527338
120	0x3e3c8fcf	0.18414234
121	0xbcc19fb2	-0.023635719
122	0x3ae58ce6	0.0017513304
123	0xbcbba56b	-0.022906026
124	0xbdb305ab	-0.087413155
125	0xbefaea7f	-0.4900703
126	0xbe1d86c4	-0.1538344
127	0xbde8ef3d	-0.11373756
128	0xbdcb8b95	-0.099387325
129	0xbef2a489	-0.47391155
130	0x3e1b4159	0.15161647
131	0xbd6fb4ef	-0.05852216
132	0xbdc2d2d0	-0.095128655
133	0xbc78a31e	-0.015175609
134	0x3ed836f9	0.4222944
135	0x3d527993	0.051385473
136	0xbeb1dadd	-0.34737292
137	0x3f2b2257	0.66849273
138	0xbe87ec6b	-0.2654756
139	0xbf169b6f	-0.5883092
140	0x3d5f26e9	0.054480467
141	0xbd938ab2	-0.072041884
142	0xbef29939	-0.47382525
143	0x3d78faa1	0.060785893
144	0x3e85510f	0.26038405
145	0x3e316bd7	0.17326294
146	0x3c819c0e	0.015821483
147	0xbf0a554d	-0.5403641
148	0xbea0f801	-0.31439212
149	0x3dea5a2d	0.11442981
150	0xbea862fe	-0.32888025
151	0x3de018f0	0.109422565
152	0xbe7f75a2	-0.24947217
153	0xbe96b10e	-0.29431957
154	0x3f0959e4	0.5365279
155	0x3ea79566	0.3273117
156	0xbd21cbab	-0.039500874
157	0x3d8b79e4	0.06810358
158	0x3de1177d	0.10990808
159	0xbe295fd4	-0.16540462
160	0xbeeef3d8	-0.46670413
161	0x3ded653c	0.115915745
162	0x3f0bd56f	0.5462255
163	0x3d8f9e7b	0.070126496
164	0x3eb17765	0.34661403
165	0xbf4538ae	-0.7703961
166	0xbe30bb1a	-0.17258874
167	0xbe182b63	-0.148603
168	0x3ebd2234	0.36940157
169	0xbdd693c0	-0.104774
170	0x3d3cf6ce	0.04613381
171	0x3f3337ed	0.7000721
172	0xbdc117fd	-0.094284035
173	0x3e640c06	0.22270212
174	0xbd6c6f0d	-0.057723094
175	0xbf1efa84	-0.62101007
176	0xbeaea9ca	-0.34113914
177	0x3f0f00b5	0.55860454
178	0xbd9e699e	-0.07734989
179	0x3f0cfc85	0.55072814
180	0xbf066e8e	-0.52512443
181	0x3e32b5f6	0.17452225
182	0x3f34a646	0.70566213
183	0x3dad188a	0.08451946
184	0x3d957fa3	0.072997354
185	0x3e1e1218	0.1543659
186	0x3dced427	0.100990586
187	0xbe3118e4	-0.17294651
188	0x3d79c1f7	0.060975995
189	0x3ecf38e9	0.40473107
190	0x3c0541b8	0.008133344
191	0xbd5d5086	-0.05403187
192	0xbea00e1a	-0.3126076
193	0xbf0908b4	-0.53528905
194	0xbe82eebf	-0.25572774
195	0xbde2d82b	-0.11076387
196	0x3e535310	0.20637155
197	0xbebe5ef7	-0.37181827
198	0x3d56f06d	0.05247538
199	0xbd6ebc8f	-0.058285292
200	0x3d06660c	0.032812163
201	0x3e9219f4	0.28535426
202	0x3ef1c277	0.47218677
203	0x3e4d3c4d	0.20042534
204	0x3e48a5e7	0.19594537
205	0xbeb68d39	-0.3565462
206	0xbe38f8b3	-0.18063621
207	0x3e96c3c8	0.29446244
208	0x3d061f41	0.03274465
209	0x3e5bda6a	0.21470037
210	0xbc8bfbd7	-0.01708786
211	0x3c91ab46	0.017781865
212	0x3dd9e376	0.10639088
213	0x3d90246d	0.07038198
214	0xbdab025e	-0.08350061
215	0xbe885745	-0.2662908
216	0xbc1ac730	-0.009446904
217	0xbdd79ca8	-0.10527927
218	0xbdeab157	-0.11459606
219	0x3e11cb8a	0.142378
220	0x3ddcc762	0.10780217
221	0xbefaf7f9	-0.49017313
222	0x3c8fdab9	0.01756035
223	0xbdd22dda	-0.10262652
224	0x3d61953c	0.05507396
225	0x3dc3d488	0.095620215
226	0xbe78e0bf	-0.24304484
227	0xbe5b4063	-0.2141128
228	0x3e96a462	0.2942229
229	0xbc826228	-0.015915945
230	0x3e681626	0.22664699
231	0xbe40eb55	-0.18839772
232	0x3e0e0a7d	0.13871188
233	0xbd0ecc07	-0.034862544
234	0xbec3e52e	-0.38260788
235	0xbf8befdd	-1.0932575
236	0xbd81291e	-0.063066706
237	0x3cfc9431	0.030832382
238	0x3c72a6ac	0.0148102455
239	0xbd5646eb	-0.052313726
240	0xbf01b50a	-0.5066687
241	0xbe8527cc	-0.26006925
242	0x3df79fd1	0.120910294
243	0xbf0933fc	-0.53594947
244	0xbf1c02c4	-0.6094172
245	0xbe999e4c	-0.30003583
246	0xbd9de1dd	-0.077090956
247	0xbda88684	-0.08228782
248	0x3ed82273	0.42213783
249	0xbd0a0322	-0.033694394
250	0x3c5ee0bd	0.0136033865
251	0x3e389c78	0.18028438
252	0xbc4971bd	-0.012295184
253	0xbcaaa781	-0.020831825
254	0x3e52b5c5	0.20577152
255	0xbe8c27c1	-0.2737408

value_layer.0.bias f4 [64]
0	0x3f4f1d07	0.8090367
1	0xbe923b98	-0.2856109
2	0x3dff63ce	0.12470208
3	0xbee783ca	-0.45217735
4	0xbe60081b	-0.21878092
5	0x3f459db7	0.7719378
6	0xbe4314db	-0.19050924
7	0xbeddc153	-0.43311557
8	0xbd0270c6	-0.03184583
9	0xbe636b83	-0.22208981
10	0x3f5542c7	0.8330502
11	0x3f4765a0	0.7788944
12	0x3f36ebdb	0.71453637
13	0x3e18f6d0	0.14937901
14	0xbf05333e	-0.52031314
15	0xbecbf61a	-0.39836198
16	0xbe4a6af6	-0.19767365
17	0xbe5a03a0	-0.21290445
18	0x3ec0aa12	0.37629753
19	0x3ef18cbe	0.4717769
20	0x3f2aa70d	0.6666115
21	0xbe92015d	-0.28516665
22	0xbe20d7bc	-0.15707296
23	0x3e18fe19	0.1494068
24	0xbed1b4b3	-0.40958175
25	0x3ef5a133	0.47974548
26	0xbe98efd8	-0.29870486
27	0xbe919891	-0.2843671
28	0xbe34c855	-0.17654546
29	0x3ebc036f	0.3672137
30	0xbe4052ff	-0.1878166
31	0xbbec06fb	-0.0072029806
32	0x3ea79c15	0.3273627
33	0x3f070781	0.52745825
34	0x3f466908	0.77504015
35	0x3e1ba35c	0.15199035
36	0xbe60a19c	-0.21936649
37	0xbdf553fb	-0.11978909
38	0xbec5e030	-0.38647604
39	0x3f32d99f	0.69863313
40	0xbe508a93	-0.20365362
41	0xbe941e21	-0.28929237
42	0xbdaa3166	-0.08310203
43	0xbe4dba08	-0.20090497
44	0xbe1483d6	-0.14503416
45	0xbe29b904	-0.16574484
46	0xbd329c0b	-0.043605845
47	0xbdc50a34	-0.09621087
48	0xbe86ce75	-0.2632939
49	0x3f126ff0	0.57202053
50	0x3e7a6839	0.2445382
51	0x3f4b2712	0.7935649
52	0xbeed9ba3	-0.46407804
53	0xbe8d740b	-0.27627596
54	0x3f23e818	0.6402602
55	0x3f2ae661	0.6675778
56	0xbf073df9	-0.5282894
57	0x3f4aaebe	0.79172885
58	0xbec67cb1	-0.38767007
59	0xbda5d8e3	-0.080980085
60	0x3f3eddb5	0.7455705
61	0xbb8c01de	-0.0042726835
62	0x3ec92224	0.3928386
63	0x3f22c248	0.635777

value_layer.2.weight f4 [1, 64]
0	0x3eab631e	0.33474058
1	0x3f26ad2e	0.65108
2	0x3ec1a977	0.37824604
3	0xbf7a9466	-0.9788269
4	0xbf972d57	-1.1810712
5	0x3e9091e8	0.28236318
6	0xbfb1f7f2	-1.3903792
7	0xbfa5f577	-1.2965535
8	0xbe09ccfb	-0.134571
9	0xbf56d67e	-0.8392104
10	0x3ea78cde	0.3272466
11	0x3e9c4fcd	0.30529633
12	0x3e5bda3d	0.2146997
13	0x3e8caef9	0.27477244
14	0xbf202c43	-0.6256754
15	0xbf8736af	-1.0563563
16	0x3f8d9004	1.1059575
17	0xbd36f321	-0.04466546
18	0x3e989f31	0.29808953
19	0x3e919ee0	0.28441525
20	0x3e22c637	0.15895925
21	0xbfad44b7	-1.3536595
22	0xbfa9a504	-1.3253484
23	0x3f11f378	0.5701213
24	0xbfc34bd8	-1.5257521
25	0x3e7a8e93	0.2446845
26	0xbf72dce2	-0.9486829
27	0xbf85dba6	-1.0457656
28	0x3d55d831	0.05220813
29	0x3e9d0aa5	0.30672184
30	0xbfcc5a73	-1.5965103
31	0x3e7b617e	0.24548909
32	0x3eac1242	0.3360768
33	0x3e2fab2c	0.1715514
34	0x3e7634f1	0.24043633
35	0x3eeb52f7	0.45961735
36	0xbf8a6400	-1.0811768
37	0xbfc6a2b3	-1.5518402
38	0xbf93ed5b	-1.155681
39	0x3e5ce0d6	0.21570143
40	0xbf202f24	-0.6257193
41	0xbf170642	-0.58993924
42	0xbf897738	-1.0739508
43	0xbf8b1cdf	-1.0868186
44	0xbf3c56df	-0.73570055
45	0xbfa701a9	-1.3047382
46	0xbf9b3278	-1.2124777
47	0xbfbdb6b2	-1.4821379
48	0xbf9da47a	-1.2315819
49	0x3db498f9	0.0881824
50	0x3e8aae1d	0.27085963
51	0x3e9f2acd	0.31087342
52	0xbf59f5a4	-0.8514044
53	0xbf755174	-0.9582741
54	0x3e8eef6a	0.27917033
55	0x3e490dd1	0.19634177
56	0xbefdf43c	-0.496004
57	0x3ea2bfb6	0.3178689
58	0xbf3a9776	-0.7288736
59	0x3ee5f9e5	0.44917217
60	0x3e7d9d6e	0.24767086
61	0xbf7567bd	-0.9586142
62	0x3f07c3bf	0.5303306
63	0x3e164373	0.14674167
