notebooks/colab/2023-02-04-11-20-48_model_checkpoint.pth (torch_old, 62907 bytes, 11 tensors)

feature_layer.0.weight f4 [64, 37]
000000 00 c7 09 be a0 94 96 bd 51 db a7 3e 86 2b 8c 3e
       -0.13454819 -0.07352567 0.32784513 0.27376956
000010 44 89 58 3e d4 ea 1e 3d e7 42 56 3e 46 2b d5 3d
       0.21146113 0.03879817 0.20923959 0.104086444
000020 21 4a 7b be c0 f6 32 bf 18 33 47 be be 2c bf 3c
       -0.24539997 -0.6990776 -0.19453084 0.023336764
000030 b6 29 50 3e 77 63 9a 3e 08 be 8e 3e 3d b4 ba 3e
       0.20328411 0.3015401 0.27879357 0.36465636
000040 03 20 6c bf 39 61 9a be bf 99 eb be e7 c9 b9 bf
       -0.92236346 -0.301523 -0.46015736 -1.4514741
000050 ce 85 25 3e 4b 0c 22 be 25 90 8d 3d f5 e1 a8 3d
       0.16164324 -0.15825002 0.06912259 0.08246223
000060 b7 84 bd bb eb 18 e5 3d ff 7f 44 3e 83 9c 29 be
       -0.005783643 0.11186393 0.19189452 -0.1656361
000070 bb 9d 99 bd 2a 01 25 be 56 a5 1f 3d dc 82 15 be
       -0.07500788 -0.16113725 0.038976036 -0.146007
000080 42 50 18 bd 17 45 26 bd fd 29 3a 3e 81 ce df bc
       -0.037185915 -0.040593233 0.1818008 -0.027320148
000090 39 8b 0a bc 0b b6 3c 3c 83 84 68 bb a6 53 74 3d
       -0.008456045 0.011518012 -0.0035479374 0.059650086
0000a0 23 ee 61 3e 40 7b 00 be 6a 44 03 3e 3f 19 22 3e
       0.22063498 -0.12547016 0.12819067 0.15829943
0000b0 f7 97 81 3e cc 53 82 bc d1 44 e1 bc 4f 81 d7 bd
       0.25311252 -0.015909098 -0.027498635 -0.105227105
0000c0 fe 35 c7 3d 98 90 82 3c bf e4 b8 be b1 ab 8f be
       0.09727095 0.015938088 -0.3611202 -0.28060678
0000d0 fe df e9 3d de 03 51 3e d4 bd 01 bb 18 6f 2f bb
       0.11419676 0.20411631 -0.0019796984 -0.0026769098
0000e0 c9 93 9b 3c 77 4f 00 3e 17 49 13 3e d0 d9 22 3d
       0.018991368 0.12530313 0.1438335 0.039758503
0000f0 34 5b 9d 3d e5 c9 97 be 09 6e 07 3f ab e4 42 bf
       0.07683411 -0.2964622 0.52902275 -0.7613017
000100 6e 7b dd be fa c0 06 be 65 24 92 bf ba 96 a9 bb
       -0.43258232 -0.13159552 -1.1417357 -0.0051754387
000110 e0 55 40 bd a1 bd dc 3d ba 6a 8c 3e bf 98 e5 3e
       -0.046956897 0.10778356 0.27425176 0.448431
000120 c6 83 09 be 03 a7 fa bc f8 d5 4a 3d b2 ca 97 bd
       -0.13429174 -0.030597216 0.049520463 -0.07411708
000130 eb 39 0f 3d 9a 2c a9 3e 32 e4 f0 3e 72 df f2 bc
       0.034967344 0.3304184 0.470491 -0.029647563
000140 80 9a 4c bd dc e0 84 3d 47 3f 86 be 11 f3 8c 3e
       -0.04995203 0.06488201 -0.26220152 0.27529195
000150 b1 f7 3c 3d 2f 33 26 bd 26 d4 0e bd 7c e2 91 3d
       0.046134654 -0.040576156 -0.03487029 0.071232766
000160 2a 53 4f 3b 2f 80 cf bd e9 5a 37 bd 11 62 ec 3d
       0.0031635263 -0.10131871 -0.044764433 0.11542142
000170 db 37 cf 3d fd d1 f0 3e f9 7c 5a be b5 5b 85 bd
       0.101180755 0.47035208 -0.21336736 -0.06511632
000180 0f 80 f3 3d 43 6f 93 3e a6 95 45 3f 53 57 9f 3c
       0.118896596 0.28795823 0.7718147 0.01945082
000190 79 99 55 be c3 b7 1e be f1 d2 9b 3d 68 7a 0b 3f
       -0.20859326 -0.15499787 0.07608593 0.5448365
0001a0 dc 45 36 3d 19 e5 04 3d b4 d2 18 3e c3 8d 01 be
       0.044500217 0.032445047 0.14924127 -0.12651734
0001b0 2e d5 f7 3e 21 47 c6 3c 45 66 29 3c 7e d9 be 3c
       0.4840483 0.024203839 0.010339324 0.023297068
0001c0 64 36 3f 3e 36 08 33 bd ec 63 0e 3e 40 43 dd 3e
       0.18673092 -0.043709002 0.13905305 0.4321537
0001d0 72 25 34 3e 2e f1 8c bb 3c 20 86 be 1e 2b 03 be
       0.17592409 -0.004301212 -0.26196468 -0.12809417
0001e0 2d ea df 3c a8 c8 b5 3d 27 ec 36 3d ff c6 99 3d
       0.027333343 0.08876163 0.044658806 0.075086586
0001f0 55 c1 42 bd 13 f6 85 3c f8 d2 87 3e 0e fa 31 be
       -0.047547657 0.016352689 0.26528144 -0.17380545
000200 66 a6 1d 3d 3c 77 09 3d 45 8c 7b be 64 be 39 3e
       0.038488768 0.033560976 -0.24565227 0.18139035
000210 cd 3c 04 bd 6f ce dd bc 7f c0 4a be 08 06 40 bf
       -0.032284547 -0.027075974 -0.19799994 -0.750092
000220 42 78 94 be 01 a7 a2 3d 00 30 41 3e ae 34 d9 3d
       -0.28998 0.0794201 0.18865967 0.10605751
000230 34 4e 5a 3e 4d 04 03 bd 21 d3 2a bb 9c 7e 78 3e
       0.21318895 -0.031986523 -0.0026065784 0.24267048
000240 25 2b 95 3e 5b 8f e1 3e 2b dd bd 3c 4d e1 a3 bc
       0.2913448 0.44054684 0.02317675 -0.020004893
000250 16 05 10 3f b9 ca 14 be 78 76 25 be f5 dc 97 be
       0.5625776 -0.14530458 -0.16158473 -0.29660764
000260 c6 2d d9 bf 07 79 9f be 43 03 83 3e 9f 4b 7e 3e
       -1.6967094 -0.31147024 0.25588426 0.24833535
000270 04 be 28 bd 47 da d5 3d f5 f5 5d 3d 5d ca 13 ba
       -0.041196838 0.10442024 0.05418964 -0.00056377595
000280 0d e5 eb bd 79 d6 8f be 1d 68 6d 3e 2d 1c 0e be
       -0.11518297 -0.28093317 0.23184247 -0.13877936
000290 a5 4a 20 3d c1 07 10 3d 38 ec da bc 4b cd 8d 3e
       0.039133687 0.035163645 -0.026723966 0.2769569
0002a0 b2 20 aa bc 20 6b 2c 3e ac 69 8c 3d f7 50 18 3c
       -0.020767543 0.1683774 0.06856093 0.009296647
0002b0 45 dc 46 3e b6 7d 6c 3d ad 09 b8 3d ad 11 06 be
       0.19419964 0.057737075 0.089862205 -0.1309268
0002c0 0d 9a 1d bb 09 62 10 be fa 75 ff 3d 1b 73 d0 3d
       -0.002404812 -0.14099897 0.12473674 0.101782046
0002d0 5b 2e 7a bc 50 c0 3b be 86 38 7c be b5 1a 74 3d
       -0.015269841 -0.1833508 -0.24630937 0.059595782
0002e0 b1 53 df 3c 8f 7a eb 3d 22 20 ed 3d df bc 22 3b
       0.027261587 0.114979856 0.115783945 0.0024831814
0002f0 c1 85 01 be 89 59 0f bd fb 5b 28 3e e5 2c 87 3d
       -0.1264868 -0.034997497 0.16441338 0.0660036
000300 b5 fc 2a 3e 35 e1 aa 3d 48 3e b7 3e e9 98 7c bd
       0.16697963 0.08343736 0.35789704 -0.061669264
000310 d5 93 8c 3d 77 de b8 bd b6 ef 19 3e de 67 9b 3e
       0.06864134 -0.09026807 0.15032849 0.30352682
000320 1c a1 b6 3d 59 ea 12 3d d3 64 3b 3e 67 54 a4 bc
       0.08917448 0.035868023 0.1830018 -0.020059777
000330 4a 0c b2 bd da 89 b7 3e d4 83 d0 be 3f ee a4 bd
       -0.0869375 0.3584736 -0.40725577 -0.08053254
000340 1c df 02 bf 99 c4 0c c0 e0 cb 21 3d 54 92 43 3d
       -0.5112169 -2.1994994 0.03950107 0.04774697
000350 03 9f 03 3d 7c 93 49 3d 14 ee 23 3e 44 ab e5 3c
       0.032134067 0.049212918 0.16008788 0.028035767
000360 a0 8c 95 3d 94 a2 80 bd 19 26 29 be af bb 30 bd
       0.07302213 -0.06281009 -0.1651844 -0.04314774
000370 a7 d8 b4 bb db b0 02 3b b8 1a bd be 0a 77 d3 3b
       -0.005518991 0.001994184 -0.36934447 0.0064533995
000380 50 a9 2c 3d ff 5c 60 bc ec ee 7b 3d c5 cb 11 3c
       0.042153656 -0.013694047 0.06150715 0.00889868
000390 d0 c4 57 bf 21 38 eb 3e 58 82 1e bf 1e a6 10 c0
       -0.8428469 0.4594126 -0.6191764 -2.260139
0003a0 7e 6b 5f bd 0c b1 9c bd e2 c9 33 be 98 f4 c5 be
       -0.054545872 -0.076509565 -0.17557481 -0.38663173
0003b0 86 26 7c bf 7f 79 4e 3c a1 06 c5 bc 45 98 90 3d
       -0.9849628 0.012602209 -0.024051012 0.07060293
0003c0 a1 1a 00 bf 0d 9d c4 be d4 6e de 3c 6e 39 37 3e
       -0.5004063 -0.3840107 0.027152456 0.17893001
0003d0 05 a9 a1 be f0 86 a1 be 65 a1 af be 99 6e 5d be
       -0.31574264 -0.31548262 -0.34302822 -0.21624221
0003e0 97 02 86 3b f6 56 5f bc e9 dc 53 be 78 ac 08 c0
       0.004089664 -0.013631573 -0.2068974 -2.1355267
0003f0 0a 55 0c 3e ab a9 69 be e5 f4 4b bd e9 22 93 be
       0.13704315 -0.2281863 -0.049794096 -0.28737572

feature_layer.0.bias f4 [64]
000000 3d b7 b0 bd 22 3f d9 bd 21 eb 10 3e 27 1c f1 3c
       -0.086287 -0.10607745 0.14152195 0.02943237
000010 54 40 8b bd ef 1a e0 3d b4 7b 18 3e 1b d5 6d 3d
       -0.06799379 0.10942637 0.14890939 0.05806456
000020 14 58 cd 3d 83 0c b7 bd e6 24 78 bd d7 ff 62 bd
       0.10026565 -0.08937933 -0.060582064 -0.05541977
000030 27 9f 25 3e fd 39 a7 3d 5b de 27 be 6f d0 c2 3b
       0.16173993 0.08165357 -0.16393416 0.0059452574
000040 c3 82 09 3e 21 a2 2d be 7b ff d1 bd 14 f0 7a be
       0.13428788 -0.16956379 -0.10253807 -0.24505645
000050 80 69 e0 bd aa 39 d7 bb 34 e1 32 3d 41 8c e9 bb
       -0.109576225 -0.0065681534 0.0436718 -0.0071273153
000060 8e c8 30 bd 79 2f 59 bc b6 bd f3 bc bc b9 94 bd
       -0.043160014 -0.013255947 -0.029753547 -0.072619885
000070 cf 61 97 3d dd 82 97 bd 0d e9 58 be b0 c4 01 3e
       0.073917024 -0.07398007 -0.21182652 0.12672687
000080 f0 c6 67 be c4 c7 a2 bc a2 27 14 be 6b 37 a0 bd
       -0.22634482 -0.019870646 -0.14468244 -0.0782307
000090 06 20 80 3d cf 3f 42 3d 06 84 82 3c 08 55 f5 3d
       0.06256108 0.047424134 0.015932094 0.11979109
0000a0 78 d0 ad 3d be a5 93 be 23 e3 da bb d8 b9 24 3e
       0.08487028 -0.2883739 -0.006679909 0.16086519
0000b0 99 ee 59 be 21 a5 b4 3d e3 36 b5 3c 50 8b ee bd
       -0.21282424 0.08820558 0.022120899 -0.116476655
0000c0 a5 8b 9a 3d c0 96 42 bc 3a c9 49 be e7 90 a0 3d
       0.07546166 -0.011876762 -0.19705668 0.07840138
0000d0 4d 1b 0e 3e 5a 77 b9 3d 86 b6 69 3b b4 9a 58 be
       0.13877602 0.09055968 0.003566177 -0.21152765
0000e0 9b f1 5d bd 7a 5d c2 bd 39 64 4d 3d 84 b9 d3 3d
       -0.05418549 -0.094904855 0.050144408 0.10338119
0000f0 bd d7 7a 3c 4b 4b 4e 3d 5f b4 9c bc b2 79 1e be
       0.015310225 0.050364774 -0.019128976 -0.1547611

feature_layer.2.weight f4 [64, 64]
000000 5a c7 b9 bd 49 5a 81 be 55 09 47 be e1 72 b7 be
       -0.090712264 -0.25264195 -0.19437154 -0.35829833
000010 82 a5 da be 7c 35 e2 3d c5 7d 84 3e 0b 2a ba 3d
       -0.42704397 0.110453576 0.25877205 0.0909005
000020 23 d5 3f bd 63 8f 76 be d1 b4 f0 3d 92 8a c6 3c
       -0.046834122 -0.24078135 0.11753238 0.024235997
000030 e8 17 b8 3e 9b c4 80 bf 66 3e 5b be 10 e5 bf 3c
       0.3595574 -1.0059999 -0.21410522 0.023424655
000040 9c b5 ef be 64 7c c4 be d0 ce 66 be b4 16 10 3e
       -0.46818244 -0.38376153 -0.2253983 0.1407116
000050 64 b1 68 be 13 d5 f2 be 7c ec d7 be 7e 22 ac 3e
       -0.22723919 -0.47428188 -0.4217261 0.33620065
000060 d5 5f 30 be 63 ce 20 be 56 90 a7 3e f1 11 5c bd
       -0.17224057 -0.1570373 0.32727307 -0.053728048
000070 93 df 08 3e 04 b8 e2 be 0d 82 62 be c7 e3 00 bd
       0.13366537 -0.44281018 -0.22119923 -0.031467225
000080 62 76 fe 3d ea 4e 4a be de 1e a3 3e 7e 2a 93 3e
       0.124249235 -0.19756666 0.31859487 0.28743356
000090 c6 07 33 be 78 1e 8c 3e 94 f0 86 3c 1e 08 49 bd
       -0.17483434 0.27366996 0.016472138 -0.049080007
0000a0 8c 21 55 bf 6e e0 2e bf 95 2b 37 3e f1 83 82 bd
       -0.83254313 -0.683112 0.17887719 -0.06372822
0000b0 72 b8 9c 3e 17 ec a7 be a4 8a 5a be c6 80 90 be
       0.3060947 -0.3279731 -0.2134195 -0.28223246
0000c0 d6 96 15 be 3d e4 01 3e 3e 69 ab be ec 6b 79 3d
       -0.1460832 0.12684722 -0.3347873 0.060893938
0000d0 04 85 c9 be f5 5b d9 be a5 b3 00 be 11 93 1a 3d
       -0.39359295 -0.4245297 -0.12568529 0.03773791
0000e0 ad 5b b2 bc 37 81 eb 3e f5 bf 41 bf da 2e cb be
       -0.02177223 0.4599702 -0.7568353 -0.39684182
0000f0 61 77 ff be d3 22 1e be 98 1d a4 bd f2 02 92 be
       -0.49895766 -0.15442972 -0.08013457 -0.28517872
000100 95 00 0c 3d b5 d9 6b be cb 1f d7 bd 4c 32 d7 be
       0.034180243 -0.23032267 -0.10504111 -0.4203056
000110 12 6f 8b 3c d4 b2 4b be 8d 99 62 bd d4 66 57 3e
       0.017020736 -0.19892436 -0.05532222 0.2103532
000120 a2 79 e3 bd c0 b7 17 be 63 37 94 bc c1 23 9c be
       -0.11107184 -0.14816189 -0.018092817 -0.30496028
000130 b6 38 07 3e c6 a8 47 bd 69 54 1f bf 05 a1 3a bf
       0.13205227 -0.04874494 -0.62238175 -0.72901946
000140 74 26 bf 3d 96 06 e8 bc 61 8e 5f be 94 9b 75 3d
       0.09333506 -0.028323453 -0.21831657 0.059962824
000150 06 09 d2 bd ae 44 68 be 3b 39 e9 bd c2 df ae bd
       -0.10255627 -0.22682449 -0.11387869 -0.08538772
000160 8d 40 25 be fd 5f d8 3d 87 b1 ef 3c e3 d7 3e bc
       -0.16137905 0.10565183 0.029259456 -0.011648151
000170 4e 4d b7 be 70 d7 2b 3d c0 10 42 bd 2c 51 ef bb
       -0.35801166 0.041953504 -0.047379255 -0.0073033776
000180 6b 56 28 bd cb 04 cb 3d dd 2d e8 bd 52 fb 79 bd
       -0.04109804 0.099130236 -0.11336873 -0.061030693
000190 f7 23 4e 3d 01 71 f9 bd 83 73 f8 3d 6e fc d3 be
       0.050327267 -0.12179757 0.12131407 -0.41403526
0001a0 1d 76 ce 3d 45 1a e7 be 67 b7 e1 bd bf ba 4a be
       0.10081122 -0.4513723 -0.11021309 -0.197978
0001b0 95 ce 69 3e e9 91 88 3c 9f 9d 98 bd 58 c0 b1 be
       0.22832711 0.016671138 -0.07451939 -0.3471706
0001c0 8f cb 52 be f5 8a 2e be 7d 61 45 be 2d b7 a2 be
       -0.20585464 -0.17045195 -0.1927547 -0.31780377
0001d0 0b 06 98 bc 5a 5a ac 3c 25 3c 32 be 43 08 c0 be
       -0.018557569 0.021039177 -0.17405756 -0.37506303
0001e0 28 b0 ef bd f0 95 30 be 1d 83 4e 3d cd 5a 81 be
       -0.11703521 -0.17244697 0.050418008 -0.25264588
0001f0 8d ae 01 3e 96 1f 27 be 88 0b 1b 3d a1 38 67 bc
       0.12664242 -0.16320643 0.037852794 -0.0141126225
000200 51 84 81 3e 1b 0a ed be 35 4a b6 bd 44 dd 1c 3e
       0.25296262 -0.46296772 -0.089008726 0.15318781
000210 e9 72 38 3e ed 5c bf 3d 83 da b4 3e cd 04 73 be
       0.18012585 0.09343896 0.3532296 -0.237323
000220 5d a1 89 3e 3d c1 dd be 2e ec 77 be a2 d9 8d be
       0.26880923 -0.43311492 -0.24211189 -0.27705103
000230 85 a9 bd 3b 12 56 ea bd c5 4c 85 3e 79 d3 d1 bd
       0.0057880306 -0.11442198 0.26035133 -0.10245413
000240 03 a9 e0 be 7f cd 0f be 83 38 dd bd b7 d7 1f bd
       -0.43878946 -0.14043234 -0.108017944 -0.03902408
000250 1e 7b cd be a3 99 36 be 6e 8e 28 3c 8b 85 52 3e
       -0.40132993 -0.17832045 0.010287864 0.20558755
000260 95 d4 7f bc 96 1a c0 bd 61 ff 73 bf 8a 44 0d 3d
       -0.015614648 -0.09380071 -0.9531155 0.034489192
000270 7b 34 20 bf 88 ad 56 3c 94 5c 6e 3d 8f 57 3d 3c
       -0.6258008 0.0131028965 0.058193758 0.01155652
000280 d2 6d 28 3d 4f c3 8d 3d 52 40 c0 3d 7a 1b 3f be
       0.041120358 0.06922018 0.09387268 -0.18662825
000290 93 32 47 be 3c 50 a4 be 70 e8 3f bd a5 f6 cb 3d
       -0.19452886 -0.32092464 -0.04685253 0.09959153
0002a0 b4 8b 87 be 2e f3 d2 3e 75 e0 7f 3e bf 98 93 3d
       -0.26473773 0.41201156 0.24987967 0.072068684
0002b0 b8 b1 04 be 89 b6 7d be 92 b3 7c 3e 81 d7 a1 39
       -0.1295842 -0.24776663 0.24677876 0.00030868876
0002c0 b0 80 e6 3d 9f 5c 09 bf 5f fc 16 bf 6a d2 ff be
       0.11255014 -0.53656954 -0.5897884 -0.4996522
0002d0 ef 30 8a be a1 0d d6 bd 88 22 a5 3e 4d e8 a2 3c
       -0.26990458 -0.10451818 0.32252908 0.01988616
0002e0 4d ec 3a bd 56 7f b6 be 80 a7 a7 bd 60 df 96 3d
       -0.04563551 -0.35644025 -0.08186245 0.07366824
0002f0 ca d5 1f bc 96 d4 59 3e 78 76 b7 3d 89 67 2f 3e
       -0.009755561 0.21272501 0.08958143 0.1712934
000300 f0 b7 1c bf 89 11 ef 3d ae e3 da 3d 77 74 66 3e
       -0.61218166 0.116732664 0.10687958 0.22505365
000310 af 66 94 be ca 4e a7 be ba 85 12 3e dd 45 ec 3d
       -0.2898459 -0.326773 0.14308825 0.11536763
000320 a8 23 8c bf a4 b0 d4 be 18 9e d3 3d 86 57 f8 be
       -1.0948381 -0.41541016 0.10332888 -0.48504275
000330 02 91 a2 bf f1 a6 95 bc 8f af a6 be 9c a0 46 3e
       -1.2700503 -0.01826808 -0.32555816 0.19397205
000340 a4 57 78 be ed 99 3d 3d 77 7e 8f bd fe e9 31 bf
       -0.24252182 0.046289373 -0.07006543 -0.6949767
000350 34 37 48 bb 18 ff 7e bd a0 5e 68 bf 8d b1 33 be
       -0.0030550482 -0.062254995 -0.90769386 -0.17548199
000360 a9 e9 42 3e ce 33 db bd eb 38 32 bf cc cc 05 3e
       0.19034447 -0.1070324 -0.696181 0.13066405
000370 87 7f 15 3e b6 df e6 bd 2a da ca 3e 4f 13 53 3c
       0.14599429 -0.11273138 0.3961957 0.0128830215
000380 bc 98 76 bd bc cd 13 be 50 31 1f be 28 05 13 bf
       -0.060204253 -0.1443395 -0.15546155 -0.5742974
000390 de c1 58 be 3c fe 2e be cb 67 c2 3e 00 26 af be
       -0.21167704 -0.1708917 0.37969813 -0.3420868
0003a0 97 75 55 bd 5c fe 95 be b7 56 95 be 29 74 2f bf
       -0.052114096 -0.29295623 -0.2916772 -0.6853662
0003b0 66 a7 26 3e ed dd 37 be fa f4 03 3c 30 f8 15 be
       0.16274795 -0.17955752 0.008054012 -0.14645457
0003c0 9c 89 4d bf 18 a1 89 be 9b 8d 75 bd 41 b8 a0 3e
       -0.802881 -0.26880717 -0.0599495 0.31390575
0003d0 84 99 92 3e 49 63 31 3d 5e 06 0b bf 03 4e 63 3d
       0.28632748 0.043307576 -0.5430659 0.05549432
0003e0 4a c9 55 3e b7 2b ba 3c aa 78 92 be 95 b1 5a be
       0.20877567 0.022725923 -0.28607684 -0.21356805
0003f0 16 52 cc be 72 7e 36 bd b9 a4 b0 be ce ed 20 be
       -0.39906377 -0.04455418 -0.34500673 -0.15715715

feature_layer.2.bias f4 [64]
000000 4b 53 5e bd bc b4 98 bd 1d 66 e1 bd 0d 61 1f be
       -0.054278653 -0.07456347 -0.11005805 -0.15564366
000010 06 d3 77 bd ff 30 60 bc a8 0e 83 3b 13 45 2b 3e
       -0.060503982 -0.013683557 0.00399955 0.16725568
000020 0c 52 fa 3d e2 13 43 be 79 cd 4d bd f9 2d 08 3d
       0.122226804 -0.19050553 -0.050244782 0.033246968
000030 d6 48 20 3e bd 62 2f 3e af 33 f9 bd c0 b7 15 bc
       0.15652785 0.1712751 -0.12168061 -0.009138048
000040 4e b2 c8 bc c5 9c 07 bd 05 fc 4c bd 4d 64 84 3d
       -0.024499085 -0.03310849 -0.050045032 0.06464443
000050 88 ad 4d 3e c7 a8 16 3d 33 67 bd 3d 98 9b 06 3d
       0.20085728 0.036782052 0.09248199 0.03286323
000060 1a 9e 13 be a6 84 ba 3d df f0 cf bd de 02 c1 bd
       -0.1441578 0.09107332 -0.101533644 -0.09424375
000070 66 46 c1 bd 9c e9 92 bd 6a 75 13 3e fd a4 06 be
       -0.094372556 -0.07173464 0.14400259 -0.13148876
000080 32 a4 08 3d 31 66 74 bc 57 d0 1e 3d 56 a0 08 3c
       0.033359714 -0.014916942 0.038772907 0.008339008
000090 46 95 66 bd 09 49 4b 3e d4 29 02 3c 61 59 57 3c
       -0.056294702 0.1985208 0.007944543 0.013143868
0000a0 82 c8 15 3e 94 45 c1 bb 50 fa b1 3d 0d 38 ee 3d
       0.14627269 -0.005898187 0.086903214 0.116317846
0000b0 54 7f 1f 3e e5 ea b9 bd e4 f5 bc bd 44 d6 5a be
       0.15575916 -0.09078006 -0.092265874 -0.21370798
0000c0 92 df 86 3d d5 c1 4e bd a2 48 33 3a a7 5f 44 bd
       0.065856114 -0.05047782 0.0006839131 -0.047942784
0000d0 b0 d1 01 3d d0 13 2f be 59 60 4c be a7 4f 12 bd
       0.031694114 -0.17097402 -0.19958629 -0.035720494
0000e0 4a 87 c0 bd 3b cd 98 3d bc 2d 4e be 6b 4e 14 bc
       -0.09400804 0.074610196 -0.20134634 -0.009051899
0000f0 0d 5f 29 be 82 e9 cd 3d 04 dd a0 3d 92 ab af 3d
       -0.16540165 0.10054304 0.078546554 0.08577646

advantage_layer.0.weight f4 [64, 64]
000000 a1 0c 95 be 5e a8 aa be 0e 1d 58 3e f4 31 9f be
       -0.29111198 -0.3333158 0.21104833 -0.310928
000010 50 f0 ef 3c 31 c3 b8 bd bf bd 6f 3e 81 02 e6 bd
       0.029289395 -0.09021605 0.23412226 -0.11230946
000020 72 15 3a 3e 1c 56 56 3d da 4c 96 be 7f 2e 37 be
       0.18172243 0.052328214 -0.29355508 -0.1788883
000030 a9 83 c8 3d 36 a5 e6 bd 91 31 5c 3e 1c f1 8b bd
       0.09790737 -0.1126198 0.21503283 -0.06833097
000040 c0 b3 fb 3c 4e 32 a2 3e ac 20 ee be b9 74 16 3e
       0.03072536 0.31679004 -0.46509302 0.14692964
000050 4a 98 9e 3d 1f a8 02 bf 99 6d fd 3d ca db 7c 3d
       0.077438906 -0.5103778 0.1237442 0.061733045
000060 cf 7e 3f 3e 4c d8 21 be 3d fa 8f 3e 44 6e 67 be
       0.18700717 -0.15805167 0.28120604 -0.22600657
000070 ff 58 58 3d 59 8b cc 3d 9c e0 98 3e 25 25 b7 3d
       0.05281925 0.09987516 0.29858863 0.08942632
000080 f0 5d f0 bd c5 90 27 3d 0c 25 0d bf a5 86 dc bd
       -0.11736667 0.040909547 -0.55134654 -0.10767869
000090 58 a2 0f be 9d 19 77 be ff 24 9f be 15 6d 42 3e
       -0.14026773 -0.24130864 -0.31082913 0.18986924
0000a0 02 a5 9c bc 6b 53 3d 3d 81 34 eb 3d 00 18 3b be
       -0.01912165 0.04622213 0.11484624 -0.18270874
0000b0 10 2d 1e 3e e6 99 02 3e d5 3a d9 bd 38 69 1a 3f
       0.15446877 0.1275402 -0.106069244 0.603168
0000c0 3f 5b b6 3d 8f 32 ab 3e 7c 6c af be 8b a0 b7 3d
       0.089041226 0.3343701 -0.34262455 0.08966168
0000d0 e3 e5 30 be 0d 60 5c be 27 0f c0 bc 1a c2 d6 be
       -0.17275195 -0.21521015 -0.023444725 -0.41944963
0000e0 21 85 9c bd f6 2d c9 3e 20 b9 12 bd 64 da 61 3d
       -0.0764258 0.39292878 -0.03582108 0.055139914
0000f0 ac 8e fd 3d 49 61 31 3c 30 6b a3 be 41 b5 ba 3d
       0.12380728 0.010826417 -0.31917715 0.09116603
000100 fe 72 bf 3e 6c c0 02 3e 22 b3 05 3d e5 0f c6 3e
       0.3739242 0.12768716 0.032641537 0.38684002
000110 67 2c 94 3d 29 24 7d 3e c0 57 d0 bd f9 c0 33 3e
       0.072350316 0.24720825 -0.10172987 0.17554082
000120 59 f0 1e 3d cb e6 c2 bd 48 0f f3 bd d6 17 18 be
       0.038803432 -0.095166765 -0.11868149 -0.14852843
000130 5b 7b 68 be 88 01 a5 be ef 90 87 bd 07 ef 16 be
       -0.22703306 -0.3222773 -0.06619441 -0.14739619
000140 e2 1f 25 be 4c 16 56 bd 77 b9 7e 3d c4 bf b6 be
       -0.16125444 -0.052267358 0.06218859 -0.3569318
000150 4f 76 2d be c9 ea 77 3e e3 44 c6 be 7d 32 5b be
       -0.16939662 0.24210657 -0.3872443 -0.21405979
000160 03 58 a5 be 87 6f 8e bd d9 5a b6 be 4a fc a4 3e
       -0.3229371 -0.06954866 -0.35616186 0.3222373
000170 8e 99 bf 3d fd ad 03 3f 8e 4b e7 3e 13 e4 57 3c
       0.0935546 0.5143736 0.4517483 0.013176936
000180 4f 2b b6 3d b0 2a 8b be 79 6a c7 3e 6d 42 29 3e
       0.08894979 -0.27181005 0.3894842 0.16529246
000190 7a 2b 1c 3e 73 b8 19 bf ed 54 3b 3e 50 fc 62 bd
       0.1525096 -0.6004707 0.18294115 -0.055416405
0001a0 9b c0 81 3e 04 85 aa bc df 20 ad be 10 9a 7d be
       0.2534226 -0.02081538 -0.3381414 -0.24765801
0001b0 04 64 20 3e 3c da 11 3c b3 9b a6 be c2 79 13 3d
       0.15663153 0.008902129 -0.32540664 0.03600479
0001c0 b9 d5 43 3d 65 8d 10 bf 9d 27 b8 3e 47 65 87 bd
       0.047811244 -0.5646575 0.35967723 -0.06611114
0001d0 38 ee b0 bc 1c 1f bb 3e 4a e3 0f 3e 79 d8 63 3e
       -0.021597967 0.36547172 0.14051548 0.22250547
0001e0 6b 09 ba 3c 56 90 4a bc f3 3c 97 3d dc ab d3 bb
       0.022709569 -0.012363514 0.07384672 -0.006459696
0001f0 1f f7 19 be c9 66 6d 3e b0 a7 f6 be b8 8b 9d 3e
       -0.15035675 0.2318374 -0.4817481 0.3077066
000200 d1 76 1b bf ec 4a fb 3c b4 dd ea 3c c8 78 33 bd
       -0.60728174 0.030675374 0.02867017 -0.043816358
000210 44 97 45 3e f0 99 62 3e e0 06 8f 3d d3 50 f7 bd
       0.19295985 0.22129035 0.06983733 -0.12075963
000220 15 77 5c 3e 5c ef de 3d 42 38 e2 3d 07 cb 58 be
       0.21529801 0.10885498 0.110458866 -0.21171199
000230 01 71 3c 3c ad 92 8c 3d ac b7 64 3d e5 5c ca bc
       0.011501552 0.06863914 0.055839226 -0.024702499
000240 94 fe be 3e ce 1b 6c be ae 18 c3 3d 9a 01 a1 be
       0.37303603 -0.23057482 0.09526192 -0.31446534
000250 0c 94 8e bd 1d 99 ac 3e cb 84 ac bd 97 78 ec 3d
       -0.069618315 0.33710566 -0.08423766 0.11546438
000260 e5 d0 c1 3d 19 82 1f be 90 ed 49 be 6a d9 07 3c
       0.094636716 -0.15576972 -0.19719529 0.008291582
000270 63 5e 62 bd 5a ec 29 3e 4e 62 3f 3e 5f 29 fe 3e
       -0.055265795 0.16594067 0.18689844 0.4964094
000280 76 94 b7 3c 9c 11 c6 3d 2e 3a 76 be 99 d2 cc 3d
       0.022409659 0.096713275 -0.24045631 0.10001106
000290 0d 5b ac be 86 28 47 be 67 b6 d3 be e1 35 03 bd
       -0.33663216 -0.19449052 -0.413501 -0.032033805
0002a0 0a c5 89 be 12 4c 09 3d fd 70 5e bd 80 c9 ef 3d
       -0.2690814 0.033519812 -0.054306973 0.11708355
0002b0 b8 51 d2 bc 31 f9 71 bd 15 4e 7e 3d 3f 09 d9 3e
       -0.025673732 -0.059075538 0.062086184 0.42389867
0002c0 1e a0 a2 bd 04 f9 c6 3e c3 24 31 3e 19 47 5f be
       -0.07940696 0.3886186 0.1729918 -0.21804465
0002d0 c2 9c 11 3e 3a a8 b0 bd 6f 72 76 be 3a 9e 9b 3e
       0.14219955 -0.08625837 -0.2406709 0.30394155
0002e0 dd 56 54 3d c2 a8 d3 3d b4 95 0c bf 2f 5f c9 bd
       0.05184065 0.103349224 -0.5491593 -0.09832608
0002f0 06 64 ed 3d 07 20 ac be 40 e2 a1 3e b2 58 99 be
       0.115913436 -0.33618185 0.31617928 -0.29950482
000300 cd d4 9e bd 43 25 28 3e 14 a2 ca 3c 4e dc ae 3d
       -0.07755432 0.16420464 0.024735488 0.085381135
000310 aa a4 4c 3f 73 22 3e 3e 2f 4e e9 bc 23 b7 22 3e
       0.7993876 0.18567829 -0.028479664 0.15890174
000320 60 8a 43 bc ed 26 2d 3d da 1c 12 bf ae 55 db bd
       -0.011934847 0.04227345 -0.57075274 -0.107097015
000330 94 cb 32 3e 80 11 6b be 78 7e ef 3d 8b 5b e6 3d
       0.17460471 -0.22955894 0.11694044 0.11247929
000340 7d b0 0a bd e6 11 ad 3e 6b c3 71 3e af b2 8a bd
       -0.03385972 0.33802718 0.23609702 -0.067723624
000350 eb d4 6c 3d d2 2b 12 3e 85 9f df 3e 1b a9 5c 3d
       0.057820242 0.14274529 0.4367639 0.05387221
000360 b0 94 54 3d 58 03 24 3c c7 d9 3c be 60 2b 96 3d
       0.051899612 0.010010563 -0.1844245 0.07332492
000370 11 35 7c 3e 19 a1 ab bd 0f 22 e9 3c b7 bc e5 3e
       0.24629618 -0.08380336 0.028458623 0.4487054
000380 e2 cf 4e bc ed ce ed 3d fc eb 77 3d 94 c1 b3 3d
       -0.012622805 0.116117336 0.060527787 0.087771565
000390 2d 2f aa 3e 30 fb 58 be 7f 2c b7 be 03 0e 49 be
       0.33239117 -0.2118957 -0.35776135 -0.19634251
0003a0 c1 b1 2b be 31 47 41 3e 6f 16 ac bd ae 25 57 bc
       -0.16767026 0.18874814 -0.08402716 -0.013131542
0003b0 c1 25 6c 3d 76 56 7a be 25 89 a4 bd 93 df b2 3d
       0.057653192 -0.24447045 -0.08033971 0.0873405
0003c0 32 7d 07 3e 09 08 0f 3d 19 3c 80 3e d2 90 e8 be
       0.13231352 0.034919772 0.2504585 -0.4542299
0003d0 49 7a af 3e 7c 4f 3c 3e 30 f3 62 3d 5f 6f 8b bd
       0.34272984 0.18389696 0.055407703 -0.06808352
0003e0 30 5f ca 3c 6d 0f bf be f0 c5 50 3e 83 b8 da bd
       0.024703592 -0.37316456 0.20388007 -0.10679724
0003f0 ad 59 a0 3d 71 ae c8 be e6 20 3d 3e 4e 2d 8d 3e
       0.07829604 -0.39195588 0.18469581 0.27573627

advantage_layer.0.bias f4 [64]
000000 80 dd 14 3e 06 fd 79 bb 6d a1 2f 3e 00 17 e9 3d
       0.1453762 -0.0038145198 0.17151423 0.1138134
000010 6a f8 c6 bc 0a 90 ed bd 44 67 cf bd 1b f8 33 be
       -0.024288375 -0.11599739 -0.10127118 -0.17575113
000020 81 36 b5 3d 7c 31 36 be 87 5a 28 be 00 c4 7b bd
       0.088482864 -0.17792314 -0.16440783 -0.061466217
000030 45 35 7c bd a9 ff a7 bd 3a 54 7a bd 0e 8b 22 bd
       -0.06157424 -0.0820306 -0.06111548 -0.039683394
000040 a9 19 55 be 60 b9 ce bc 9d 39 17 3d 26 a8 b0 3d
       -0.2081057 -0.025234878 0.03692018 0.08625822
000050 19 34 96 bd 88 36 5d bd c3 d2 d1 be e2 f0 e9 bd
       -0.073341556 -0.054007083 -0.4098111 -0.11422898
000060 dc 9b e4 3d a8 2d 6d b8 2e 22 d7 bd bf 69 8c be
       0.1116254 -5.6547724e-05 -0.10504566 -0.27424428
000070 70 af 02 3e a3 c8 90 3d ce 46 94 bc 24 3c 40 bb
       0.12762237 0.070695184 -0.018100169 -0.0029332722
000080 37 34 6f 3e fd d8 c3 bd 94 4f 0a 3e f3 f0 2e bd
       0.23359762 -0.095628716 0.13506919 -0.042710256
000090 0a 91 98 3c 08 6a f3 bc 7f 7d 3d be fd 84 3e be
       0.018623848 -0.029713646 -0.18504904 -0.18605419
0000a0 01 22 85 be 0b 28 29 3e 6b eb 20 be 6a 8d 5d bd
       -0.26002505 0.16519181 -0.15714805 -0.05408994
0000b0 bc 74 a5 bd 02 07 fe 3b 44 e9 9c 3d 12 bc b9 3d
       -0.08078906 0.0077523002 0.076616794 0.09069075
0000c0 b7 47 2d be 1f 23 8a be df 9e 13 be a9 07 42 3d
       -0.16921888 -0.2697992 -0.14416073 0.047370587
0000d0 46 18 a1 bd 49 53 87 be 00 71 db 3c 66 9c 4e bd
       -0.07865958 -0.2643073 0.026787281 -0.050442122
0000e0 3a 09 da 3b 68 0b 88 bd 5e 6c d8 3c 73 c1 c5 3c
       0.006653932 -0.066428006 0.026418861 0.024140095
0000f0 93 cf 5e be 95 23 88 bd c9 3b a8 3d a9 a9 2d be
       -0.21758871 -0.06647412 0.08214528 -0.16959251

advantage_layer.2.weight f4 [4, 64]
000000 c7 af 50 3e af e7 20 bf c9 25 ef 3d 3b 64 43 3e
       0.20379554 -0.6285352 0.11677129 0.19081204
000010 2e 10 f0 3e 0b 5b 9b bd 1a 05 27 bc c7 08 c9 3e
       0.46887344 -0.075857244 -0.010194087 0.3926451
000020 51 36 92 bf 91 15 91 bf 41 36 12 3f 90 e3 33 3d
       -1.1422826 -1.1334707 0.57114035 0.043918192
000030 21 ca 88 be ad 7d a6 bf 1a 58 e5 3e 1f 63 93 3e
       -0.26716712 -1.3007103 0.4479378 0.2878656
000040 52 fe 7a be b2 e9 81 be 41 48 b5 3e 57 8a 66 3e
       -0.24511078 -0.25373608 0.35406688 0.2251371
000050 bf 30 ba be 09 9b 80 3e 26 d2 60 bf 77 a4 31 bf
       -0.36365315 0.25118282 -0.8782066 -0.6939158
000060 77 e7 5a 3e 3b 99 26 3e 61 4e c8 3e 3f bb 29 3e
       0.2137736 0.1626939 0.39122298 0.16575335
000070 18 6e 78 3e 72 78 64 3e 32 7d bb be c1 35 99 be
       0.24260747 0.22311571 -0.36618954 -0.29923823
000080 9b 33 c7 3c f6 79 f4 3d 77 7e 02 3e c1 3a ea be
       0.0243166 0.11937325 0.12743555 -0.4574795
000090 74 43 23 3e b2 83 d5 3e 8f 1a 53 be db 73 d3 3d
       0.159437 0.41702038 -0.206156 0.10324832
0000a0 42 92 89 bd f9 f8 40 3e a6 6e 63 bf 3d 80 00 3f
       -0.067173496 0.18844976 -0.8884071 0.50195676
0000b0 7c f8 f6 bd 8f c7 8b bf 24 87 db be f8 76 38 bd
       -0.120591134 -1.0920275 -0.42876542 -0.045035332
0000c0 c7 32 e2 be f0 50 ec be f4 95 1f 3d ff a7 4c bf
       -0.44179365 -0.461555 0.038961366 -0.7994384
0000d0 e3 60 89 be c7 c6 d7 bf 3f a4 b6 3d 67 40 a1 be
       -0.2683173 -1.6857537 0.08918046 -0.31494448
0000e0 46 d0 01 bf 7b 04 54 3f da f8 5b bf 00 bb 86 3e
       -0.50708425 0.82819337 -0.8592659 0.26314545
0000f0 1c bc 0f bf 90 51 02 3e 8d 74 26 3e 47 11 ee 3e
       -0.5614641 0.12726426 0.16255398 0.46497557
000100 13 d7 9b bc e6 77 87 3e 93 52 21 be 0e c0 6e 3e
       -0.019023454 0.26458663 -0.15754156 0.2331545
000110 1b 4a ab 3e a2 17 8c 3d d2 eb 6d 3e 44 53 50 3f
       0.33454975 0.06840445 0.2323449 0.81377053
000120 83 8f 19 3e d2 47 56 3f 0c 87 cd be c0 37 75 3e
       0.14996152 0.8370334 -0.40142095 0.23947048
000130 1b a8 9d be e8 3a 8c 3d cc d5 73 3e 8b 27 05 3d
       -0.30792317 0.06847173 0.23812026 0.032508414
000140 e7 e3 8a be ff 2c 8a bd 4b 78 ea be 7b 53 0f 3e
       -0.27127 -0.067468636 -0.457949 0.13996689
000150 1c f9 14 bc d8 7c 12 3d 2e 60 c5 3e 96 df 44 bd
       -0.009092595 0.03576359 0.38549942 -0.04806479
000160 ad 4c db bd 4c ba 73 bc dd f1 ea be 17 03 13 3f
       -0.10707984 -0.01487596 -0.45887652 0.5742659
000170 3c 02 8b bd 6c 4f 37 3b 56 91 e0 3d 2b cb 28 3c
       -0.067875355 0.0027970923 0.10965221 0.010302345
000180 d9 03 97 3e fe 91 58 3e 85 5f 49 3e 37 e4 03 3f
       0.29495123 0.21149442 0.19665344 0.51520103
000190 44 6f 7a 3e 56 14 10 be 78 50 7d 3e 78 21 19 3e
       0.24456507 -0.14070258 0.24737728 0.14954174
0001a0 ef f3 09 be 56 8c 4f be d8 e8 2f 3e 94 20 c3 be
       -0.1347196 -0.20268378 0.17178667 -0.38110793
0001b0 5d ac 12 3e 59 03 97 3d 32 c7 0f 3e 39 5f 4f bd
       0.14323564 0.073736854 0.1404083 -0.05062792
0001c0 a0 35 a7 be 8d a1 e7 3e 9c 7d df bc 12 87 24 3f
       -0.326581 0.4524044 -0.027281575 0.642686
0001d0 7a 2d c9 bd 03 54 2c 3f 13 a5 8f 3e e4 58 36 be
       -0.09823127 0.6731569 0.2805563 -0.17807347
0001e0 1e 1c f8 bd 5d f4 9b be 15 28 50 3e cf e9 fd 3d
       -0.12114738 -0.30459872 0.2032779 0.12398111
0001f0 c1 ac 0b 3e 07 ab 87 be 39 a9 09 3e d2 21 0d be
       0.13640119 -0.2649767 0.1344346 -0.13782433
000200 c0 68 23 be 8a 65 19 3f 65 2f 46 be de f9 29 bd
       -0.15957928 0.5992056 -0.19354017 -0.041498058
000210 1a b5 51 bf c1 de 07 3b f9 c8 2b 3f a7 db c2 3e
       -0.81916964 0.0020732137 0.67103535 0.38058206
000220 56 f2 6f 3f ca 12 42 3e 5a 46 85 be bd 74 3b bf
       0.9372915 0.1895248 -0.26030236 -0.73225003
000230 2b 5c d1 3e 08 0a 1c 3f 93 c5 5c 3e be 76 f8 be
       0.4089063 0.60952806 0.21559744 -0.48528093
000240 cf 73 7e 3e 17 7a 38 3f 06 5c 6c 3f 77 28 82 be
       0.24848865 0.72061294 0.92327917 -0.25421497
000250 87 23 8f 3e ea e6 97 3e 52 a8 2e 3f 36 48 3f bd
       0.27956793 0.2966836 0.68225586 -0.046699725
000260 f7 10 ba 3d 3b da d4 3e 28 30 5a be 1a c6 fd 3e
       0.09085267 0.41572747 -0.21307433 0.49565202
000270 0f 24 fb be a1 37 ab be 36 f3 06 bf c6 be f1 3d
       -0.49050948 -0.3344088 -0.5271486 0.11803965
000280 df 72 00 3f bf 3d b5 3e 51 dc dd bd 11 11 8b 3e
       0.5017528 0.3539867 -0.10833038 0.27161458
000290 d9 8b 0b bf 4b cd 41 bf 84 ae 12 be 9b 98 80 3e
       -0.54510266 -0.7570388 -0.14324385 0.2511643
0002a0 af 2f 68 3e ec ed 38 3e 25 b5 ed 3e f3 85 b2 be
       0.2267444 0.1805951 0.46427265 -0.3486782
0002b0 ad a2 a2 be 1c 5f 85 3e 06 45 8a be ac 9b 02 3f
       -0.31764737 0.26049125 -0.27005786 0.51018786
0002c0 1c a3 db 3e cc a5 9d be db e9 8e 3c 53 ae 99 3f
       0.4289788 -0.30790555 0.017445495 1.2006325
0002d0 de 42 fd 3d d0 d0 7a 3f e2 a5 04 bf 29 ec 8f bd
       0.123662695 0.9797487 -0.5181562 -0.07027466
0002e0 f9 bf 94 3f f1 54 31 3f e0 99 ba 3e 11 4a d1 3e
       1.1621085 0.69270235 0.36445522 0.4087682
0002f0 f8 7b 20 3f 94 76 15 bf a8 2e 4b bf 2a 71 32 3f
       0.6268916 -0.5838406 -0.79368067 0.69703925
000300 ab 75 93 3e 74 95 cd bd cd 58 b7 3d ff 8f 5b be
       0.2880071 -0.100382715 0.08952484 -0.21441649
000310 0b f7 97 bd 4b ff 97 3d 9d 72 4c bf 49 b4 96 bf
       -0.074201666 0.0742174 -0.79862386 -1.1773769
000320 85 51 76 3f 19 41 ab 3c 8d e8 49 bf b2 e8 49 3f
       0.9621814 0.020905064 -0.7887047 0.7887069
000330 46 71 a1 3e 7f 64 fc 3e f7 e7 2c bf aa 01 ed bd
       0.31531733 0.49295422 -0.6754145 -0.11572583
000340 7d 7c c0 3e 02 9e e8 be b4 36 59 bf c3 63 33 be
       0.37594977 -0.4543305 -0.84849095 -0.17518525
000350 bc cf 9f 3e 88 5e 38 bf 6d 72 a6 be f7 6d ee 3e
       0.31213176 -0.72019243 -0.32509175 0.46568272
000360 c4 fd 5d be 85 32 14 bf c8 b9 b6 3e f6 3e 5e bf
       -0.21678835 -0.57889587 0.35688615 -0.8681482
000370 b9 a6 99 3e fc cc 2d bd 51 22 15 3f a1 cd 2d 3e
       0.30010012 -0.042431816 0.5825549 0.16972972
000380 be f9 07 bf c3 3a 7f bf c6 30 2f be bd c1 89 be
       -0.5311545 -0.9969904 -0.1710845 -0.26905623
000390 2b 7a a0 3e a5 f4 bb 3e 6e ee 25 3f 8d 3b 22 bf
       0.31343207 0.36710086 0.6481694 -0.6337212
0003a0 86 44 41 bb 04 ee 0e be 48 b2 db 3e 79 e5 18 3e
       -0.0029490306 -0.13957983 0.42909455 0.14931287
0003b0 5f 47 f6 3e cd 9a ff 3e 07 73 1e 3f 40 37 0f bf
       0.48101327 0.4992279 0.6189427 -0.5594368
0003c0 dd de a0 3e 14 f5 c6 3e 2f 30 ad bb f6 31 42 bf
       0.3142003 0.38858855 -0.005285285 -0.75857484
0003d0 2f 39 3d 3e 2f c2 28 3f ec ca 86 3e 00 8c 36 3f
       0.18478845 0.659213 0.26326692 0.71307373
0003e0 6d de 3c bf c6 ba 23 bf 01 b4 64 3f bd 12 ff be
       -0.73776895 -0.6395687 0.89337164 -0.49818984
0003f0 49 39 04 bd 72 e9 5a 3e 3e 36 b2 3e 02 58 dc bf
       -0.032281194 0.21378115 0.34807009 -1.7214358

advantage_layer.2.bias f4 [4]
000000 60 d2 c2 3c 32 d3 8a bd e1 0a b8 3c f6 42 de 3d
       0.023781955 -0.067785636 0.022466125 0.108526155

value_layer.0.weight f4 [64, 64]
000000 41 18 60 bd 6c 90 ac bd d4 5d 81 3d 5b c1 90 3c
       -0.05471063 -0.08425984 0.063167244 0.017670324
000010 f2 ae 82 3e 4c 8b 87 be cb d1 e0 be f0 9b 22 3e
       0.25524098 -0.26473463 -0.4391006 0.15879798
000020 74 50 db be 70 d5 d2 be d2 84 6d bd 8a 69 f3 bd
       -0.42834818 -0.41178465 -0.057987995 -0.11885364
000030 0c 0a 64 3e 5c 77 23 3e 0e 01 3f 3e b5 b5 01 bc
       0.22269458 0.159635 0.18652746 -0.0079168575
000040 30 a9 38 bb c0 67 64 3e 84 c0 17 bf c7 8b 08 be
       -0.0028177015 0.22305202 -0.5927813 -0.13334571
000050 c7 da 09 be aa f0 77 3d 77 2e a0 3e 26 2a 08 bc
       -0.13462363 0.06053225 0.3128545 -0.00831083
000060 f9 fb 49 3d 83 e3 1f 3e 8e 6f 62 bd ab f6 f2 bd
       0.049312565 0.15614133 -0.055282168 -0.118634544
000070 1a d6 4d 3d 85 21 dd 3d 6b 3c dc 3c 22 63 b8 bc
       0.05025301 0.10797409 0.026884278 -0.022508208
000080 32 68 04 be 43 d3 51 3e 3d d6 bc bd 5e 7b 4b bd
       -0.12930372 0.20490746 -0.0922055 -0.0496782
000090 c8 56 73 bd 2f b6 0a 3e 24 28 8f be 92 60 3e 3d
       -0.059408933 0.1354606 -0.27960312 0.046478815
0000a0 95 02 21 3e 7a 97 7f be 23 00 85 be 42 6d c7 3c
       0.15723641 -0.24960127 -0.25976667 0.02434409
0000b0 68 bd 6d 3d 19 a4 27 3e a0 fc fa bd b5 6c f0 3d
       0.05804196 0.16371192 -0.12255216 0.11739484
0000c0 bc 85 c6 be 30 ed 11 be 49 70 ad bd 7f 72 b4 3d
       -0.38773906 -0.14250636 -0.08468682 0.08810901
0000d0 92 04 84 3d 7b 8c 11 bd 56 64 77 3e 9e 62 d0 3d
       0.06446184 -0.035534363 0.24159369 0.1017506
0000e0 78 10 14 3e 34 b4 59 bd d9 b9 06 be c0 2e b6 bd
       0.14459407 -0.05315037 -0.13156833 -0.088956356
0000f0 52 49 8d be f6 64 dd bd 20 6b 00 3e 21 a8 04 be
       -0.27595 -0.108102724 0.12540865 -0.12954761
000100 d7 df 9e be 14 b7 a3 bd d6 0b c1 bd f5 b2 57 be
       -0.3103015 -0.07993904 -0.09426086 -0.2106436
000110 94 91 3f 3d 2f 31 7a bd 46 1c 98 3e 95 f3 92 bd
       0.046769693 -0.06108206 0.2970907 -0.07175366
000120 b3 66 9a 3d a1 c5 d2 3c 69 9e 36 3e b0 af 4d 3e
       0.075391196 0.025729002 0.17833866 0.2008655
000130 48 a0 77 be 5d c2 77 bd 3e 93 10 3e d4 e4 1d 3e
       -0.24182236 -0.060488094 0.14118668 0.15419322
000140 48 65 10 be fe a5 c1 3d 92 ce 0c 3f 94 2c c1 3d
       -0.14101136 0.094554886 0.550027 0.09432331
000150 6d 3f 6a 3d 1f 90 63 bc 44 b6 22 bd 66 1f 7d be
       0.057189394 -0.013889342 -0.039724603 -0.24719009
000160 98 e5 03 3e 65 71 ed 3d 6e 36 9f be 5c 22 d5 be
       0.12880552 0.11593894 -0.31096214 -0.41627777
000170 b3 44 45 3d c5 05 b9 bc a5 97 18 be 1c d4 e4 3d
       0.04816122 -0.022585759 -0.14901598 0.11173269
000180 34 1f 38 bc 1c 6a 64 be ac ec a5 bd fd 14 4f 3e
       -0.011237908 -0.22306103 -0.08101782 0.2022285
000190 a4 72 26 be 78 a2 c1 bd 02 92 a5 be 17 6d 52 3e
       -0.1625467 -0.094548166 -0.32337958 0.20549427
0001a0 76 fb ff be 30 8e b5 3d 92 67 1b 3c f6 79 a7 be
       -0.49996537 0.08865011 0.009485142 -0.32710236
0001b0 95 73 63 be 6d 7c 40 3e 08 2e 12 bf 0e 9f 03 be
       -0.2221206 0.18797465 -0.5710149 -0.12853643
0001c0 42 39 1a 3e 5b 7d b2 bd 12 34 eb 3d 94 a3 27 bd
       0.15060905 -0.08715316 0.11484541 -0.040927485
0001d0 74 08 44 be 6c d9 37 3e 47 d5 8e bd aa 74 8a bd
       -0.1914385 0.17954034 -0.06974273 -0.06760533
0001e0 25 d5 2f 3e 38 0b 20 3e 31 6f a0 bc 0b 09 a5 bc
       0.17171152 0.1562928 -0.01958427 -0.020145914
0001f0 da b9 52 3d 2e 81 28 3e 26 79 41 3e 60 49 6e 3d
       0.051446773 0.16455528 0.1889387 0.058175445
000200 9e cd 38 be 16 a3 1d be fa ef 0a bc a9 13 8d 3d
       -0.18047187 -0.15394244 -0.008480066 0.068885155
000210 78 20 fd bd ce be 7c be d5 fe 67 3e 63 62 43 3e
       -0.123597085 -0.24682161 0.22655804 0.190805
000220 9e 79 93 bd 23 70 e4 3d 40 7e 14 3e a3 5a 07 3e
       -0.07200931 0.11154201 0.14501286 0.13218169
000230 bd b0 18 3d 14 38 40 bd 8a 09 27 3c 11 3e 3c be
       0.037277926 -0.04692848 0.010195145 -0.18383051
000240 bf 05 c2 3c 67 86 97 bd e0 a4 06 3e 5e a2 80 3c
       0.02368438 -0.07398682 0.13148832 0.015702423
000250 85 e4 fe 3d a2 72 08 3c 38 0b 3a 3d 3d db 39 3e
       0.124459304 0.008328112 0.045420855 0.18150039
000260 90 10 0b bd 74 ee b7 bd 70 f8 3c 3d ee b3 24 3d
       -0.033951342 -0.08981028 0.046135366 0.040210657
000270 e2 02 c9 bc 0e 73 7f bd 74 a8 9f 3c 54 f9 4f be
       -0.024537507 -0.062365584 0.019489504 -0.20309955
000280 e1 55 04 3d ef 6f fe 3d 59 9f 09 3d 64 77 20 3d
       0.032308463 0.124236934 0.03359923 0.03917636
000290 a4 17 46 3c 25 85 2e bd a4 15 9f bd 0c ef ae 3d
       0.012090597 -0.042607445 -0.077677995 0.08541688
0002a0 52 1b ce bc 33 0d 8e bd e5 37 ca 3b 44 8e fe 3c
       -0.025159512 -0.06936111 0.006171214 0.031073697
0002b0 d3 d2 33 bd 05 fd 04 3d 6b d1 a7 bd 13 55 1c bd
       -0.04390223 0.03246786 -0.0819424 -0.03816707
0002c0 69 64 4f 3d d3 ea e1 3d d4 2e 0b bb a6 19 3b be
       0.050632868 0.11031117 -0.0021237629 -0.18271503
0002d0 5b a3 ee bd e6 4b 0d be 67 01 4a 3e f9 8e b8 3d
       -0.11652251 -0.13798484 0.19727097 0.09011645
0002e0 a0 93 cd 3d 25 0e 0c 3e f2 3a d9 3d 4f 45 41 3e
       0.10037923 0.1367727 0.10606946 0.18874095
0002f0 83 42 9b be 4a 89 fe 3d 6f 84 d7 3d 71 68 65 bc
       -0.30324182 0.124285296 0.105233066 -0.014001952
000300 03 d3 d1 3d d6 86 8a be 58 db b7 3d 67 52 14 3f
       0.102453254 -0.27055997 0.089773834 0.57938236
000310 65 00 8e 3e 27 0f 93 3d a1 a5 88 be 4f f8 1d be
       0.27734676 0.071806245 -0.26688865 -0.15426753
000320 18 3e d8 3d 19 6b 5a 3e 1c 63 0c 3c c4 b2 7a 3e
       0.105587184 0.21329917 0.008568551 0.24482256
000330 8e 1b ae bb 67 4d 3e be 08 aa 63 bd 99 5c 56 3e
       -0.0053133434 -0.18584214 -0.055582076 0.2093376
000340 da b8 74 be 7b 92 70 3d 81 f1 d6 be 72 0b 17 3c
       -0.2389864 0.058733445 -0.41981128 0.009219037
000350 fa 14 e3 be 90 47 36 be 9d 77 56 be 3c 82 65 be
       -0.4435194 -0.17800736 -0.20944066 -0.22412962
000360 38 81 c3 3d c7 f5 b2 3b 88 cc 96 3d 1c 87 ca be
       0.09546131 0.005461428 0.0736323 -0.39556205
000370 f2 1a a1 3d 92 99 a5 bd 19 cf e3 3d c1 97 8b 3d
       0.078664675 -0.08085932 0.11123485 0.06816054
000380 ba 47 07 be 08 8c f2 3c 9a 77 1a bf 23 a2 1e be
       -0.13210955 0.029607788 -0.6033875 -0.15491538
000390 eb fe 81 bd 09 77 68 be 3e ad 96 3e 16 1b 97 bc
       -0.0634745 -0.22701658 0.29429048 -0.018445533
0003a0 3b 80 88 be d1 94 86 3e f8 fd d9 bd 85 a8 a7 bd
       -0.26660332 0.26285413 -0.10644144 -0.081864394
0003b0 47 16 0b bf 8a 24 25 be e4 59 6e 3d 59 47 15 3e
       -0.5433087 -0.1612722 0.058191195 0.14577998
0003c0 5a 4c 47 3e 19 c6 65 be a2 0e f4 3c 1d bd 55 3e
       0.1946272 -0.2243885 0.029792134 0.20872922
0003d0 b7 8a 0c bd aa 00 0f be d0 1f 08 bd 15 29 3b 3f
       -0.034311976 -0.13965097 -0.033233464 0.7310956
0003e0 a2 72 95 3d a5 19 c1 bb 00 28 74 bb 53 a7 93 3d
       0.07297255 -0.0058929496 -0.0037255287 0.07209649
0003f0 6c 1b 4c 3e a6 38 ee 3d 9d bc af bd bc 9e 19 3f
       0.19932336 0.116318986 -0.08580897 0.60007834

value_layer.0.bias f4 [64]
000000 91 11 d8 3e cf 63 03 3e 46 46 fb 3e 82 2e c3 be
       0.42200902 0.12831043 0.49077052 -0.3812142
000010 16 51 a7 bd 13 66 ff 3e af d8 30 3a cd 7f be 3e
       -0.08169763 0.49882564 0.00067461556 0.3720688
000020 48 88 81 be c2 26 85 be 0d 5f fd 3e 62 12 02 3f
       -0.25299287 -0.26006132 0.4948658 0.508093
000030 dd d3 79 3e 52 01 18 3e ca 81 2c be 36 89 95 be
       0.24397226 0.14844254 -0.16846386 -0.29206246
000040 78 56 25 be 98 7d ba be 37 a8 c6 bc 2c c0 eb 3e
       -0.16146266 -0.36423945 -0.024250133 0.46045053
000050 ea 42 d2 3e 62 95 57 be 03 0c 16 bd f0 fa 2c be
       0.41066676 -0.21053079 -0.03663255 -0.168926
000060 d3 95 ac be e4 5f ba bd 1d 9e 87 be 49 1a 1c be
       -0.33708057 -0.09100321 -0.26487818 -0.15244402
000070 8b 9c 2d be 37 13 a7 3e 73 38 f3 bd a7 44 37 bc
       -0.16954248 0.32631847 -0.11876001 -0.011185802
000080 b1 ab 0d 3f 06 b6 db 3c e9 2f e8 3e c5 65 ee 3e
       0.55340105 0.026820194 0.45349053 0.4656202
000090 b2 9f 54 be 60 5b 05 be a8 84 fa bd 81 4f 69 3e
       -0.20764044 -0.13023138 -0.122323334 0.22784235
0000a0 dd 84 8e be 06 3c 92 3c 1d a4 f4 3e 91 cb 00 be
       -0.27835742 0.017850887 0.47781458 -0.12577654
0000b0 03 fd 61 bd ff 44 82 be f8 58 b3 bd 38 19 58 be
       -0.05517293 -0.25443265 -0.08757204 -0.2110337
0000c0 54 04 d6 3e 6e 51 c2 3e a1 ea 2e 3e ef 0a 04 3f
       0.41800177 0.3795275 0.17081691 0.51579183
0000d0 4d f2 5d be cf 8d 9c be 0c f4 29 bb 61 05 2a 3e
       -0.21674462 -0.3057694 -0.0025932817 0.16603614
0000e0 78 e1 2c be 34 73 02 3f a8 d7 d6 be b9 52 5f 3c
       -0.16882885 0.50957036 -0.41961408 0.013630562
0000f0 f8 7f f9 3e b8 83 00 be 23 72 46 3e 98 e9 96 3e
       0.48730445 -0.12550247 0.19379477 0.29475093

value_layer.2.weight f4 [1, 64]
000000 19 77 ba 3e ca 6b 0b 3f b6 f6 35 3e dc 6d 8a bf
       0.3641899 0.5446135 0.17769894 -1.0814776
000010 9c 67 2b bf 87 df 63 3e 40 93 73 bf a3 14 8c 3e
       -0.6695497 0.22253238 -0.9514656 0.27359495
000020 5b 35 d7 be 1e 8d 2f bf 40 72 92 3e 07 a6 62 3e
       -0.42032894 -0.685747 0.2860279 0.22133647
000030 88 27 93 3e f3 7b d7 3e 1e b7 f0 be be ab 3d bf
       0.28741097 0.42086753 -0.47014707 -0.7409018
000040 ac 5a 0c 3b da 3e 0b bf 15 a4 bf 3e b7 b4 37 3e
       0.002141635 -0.5439278 0.37429872 0.17940031
000050 5e 17 07 3e 9e 88 84 bf 4f a1 93 bf e0 5c 43 3f
       0.13192508 -1.0354192 -1.1533602 0.7631359
000060 23 a9 e6 be 48 9a 67 3f fe 22 f0 be e9 b0 1a bf
       -0.45050916 0.9046979 -0.46901697 -0.60426193
000070 8a 06 8f 3d 41 5a b6 3e c4 c9 5d bf 0b 86 a7 3f
       0.06983669 0.35615733 -0.86635995 1.3087782
000080 b6 77 b4 3e 27 b4 6e 3d f2 3d 37 3e f3 29 20 3e
       0.35247582 0.058277275 0.17894724 0.15641002
000090 11 66 85 bf 9d e2 80 bf 35 a1 b4 3c 12 a7 19 3f
       -1.0421773 -1.0069157 0.022049526 0.60020554
0000a0 7f 26 0a bf 4c 52 88 bf 9e d5 40 3e 1c 57 63 bf
       -0.5396499 -1.0650115 0.18831488 -0.88804793
0000b0 3d cb 81 bf 7a bf 91 bf f7 0d 65 bf ca 85 8b bf
       -1.0140148 -1.1386559 -0.89474434 -1.0900204
0000c0 d5 ec 50 3e a8 e4 ca 3d c2 fa ba 3e 44 da 74 3e
       0.20402844 0.09906894 0.36519438 0.23911387
0000d0 3f 8a ed be e8 f9 c6 be eb 43 26 3f d5 33 da 3e
       -0.46394536 -0.38862538 0.64947385 0.4261767
0000e0 d8 3e 29 bf 44 8d 78 3e ee 29 03 bf 1d 90 8d 3e
       -0.66111517 0.24272639 -0.51235855 0.27649012
0000f0 6d ff 3f 3e 64 fa 83 bf 77 29 63 3e 0a 08 17 3e
       0.18749781 -1.0310788 0.22183786 0.1474916
