notebooks/final/2023-02-07-10-47-06_model_checkpoint.pth (torch, 20375 bytes, 6 tensors)

layers.0.weight f4 [64, 4]
0	0x3e797873	0.24362354
1	0x3e9787a4	0.29595673
2	0x3eeac223	0.4585124
3	0x3e7f725d	0.2494597
4	0xbea0eb36	-0.31429452
5	0xbe80d29a	-0.25160676
6	0x3f789a9f	0.97110933
7	0xbdc4809f	-0.09594845
8	0x3c813fdf	0.015777526
9	0xbd572792	-0.05252797
10	0x3ff33b8f	1.9002551
11	0x3d23f483	0.040028106
12	0xbe372310	-0.17884469
13	0x3cacd3b9	0.021097051
14	0x3e85b3bd	0.26113692
15	0x3eb9921d	0.36244288
16	0xbecb3f8b	-0.39696917
17	0xbea96973	-0.33088264
18	0xbf118a65	-0.568518
19	0xbe80b962	-0.25141436
20	0x3efa19e3	0.48847875
21	0xbeb85d93	-0.3600889
22	0x3fc97bd2	1.5740912
23	0xbd4fae41	-0.05070329
24	0x3f1bd949	0.60878426
25	0xbf1926d8	-0.59824896
26	0xbf6d4077	-0.9267649
27	0x3e990f4e	0.2989449
28	0xbd89a08d	-0.06720076
29	0xbe83a205	-0.2570955
30	0xbf8e47c4	-1.1115651
31	0xbe2a47b8	-0.16628921
32	0x3cdb1d55	0.026747385
33	0x3e1e3548	0.15450013
34	0xbfc6ecd9	-1.554103
35	0xbe23af79	-0.15984906
36	0x3ec1377d	0.37737647
37	0x3ea5d5ee	0.32389778
38	0xbd91a483	-0.07111456
39	0x3e35ec4c	0.17765921
40	0x3ec11bb2	0.37716442
41	0xbef3064e	-0.47465748
42	0xbf671dc3	-0.9027979
43	0xbeb8a440	-0.36062813
44	0x3e46ca57	0.19413124
45	0x3d307b7a	0.043086506
46	0xbf9152eb	-1.135343
47	0xbddb85a9	-0.10718853
48	0xbf5222a6	-0.8208412
49	0xbec0c6c0	-0.37651634
50	0xbea9ed8e	-0.33189052
51	0xbe52e194	-0.20593864
52	0x3e653276	0.2238253
53	0x3d6b4d02	0.057446487
54	0xbe88e5f2	-0.26737934
55	0x3cc77fca	0.024352927
56	0xbf08188d	-0.5316246
57	0xbdffddaf	-0.12493455
58	0x3f475563	0.77864665
59	0x3ce9b299	0.028527545
60	0xbdb1a3de	-0.08673833
61	0x3e4c97b5	0.19979747
62	0x3f812116	1.0088222
63	0xbddd0df5	-0.10793678
64	0xbf1728a7	-0.59046406
65	0x3e83de81	0.25755695
66	0xbf4796fb	-0.7796475
67	0xbcfdf079	-0.030998455
68	0x3e8d5f16	0.27611607
69	0x3d6d1d0a	0.057889022
70	0xbeeada50	-0.45869684
71	0x3e09d549	0.13460268
72	0x3e4ae0c3	0.19812302
73	0xbdfd389a	-0.123643115
74	0xbe283e6f	-0.16430067
75	0xbd1b8381	-0.03796721
76	0x3d5d594c	0.05404024
77	0x3e1d3c55	0.15355046
78	0x400c0252	2.1876416
79	0xb9ef9551	-0.00045696882
80	0xbed3e13b	-0.41382775
81	0x3e47a0b1	0.19494893
82	0x3dc6d1b1	0.09707964
83	0x3e145e6f	0.14489149
84	0xbf138d8f	-0.57637876
85	0x3e809241	0.25111583
86	0xbf4e2025	-0.805178
87	0x3e514c28	0.20439208
88	0xbe34bc66	-0.17649993
89	0xbe034cfb	-0.12822334
90	0xbecab357	-0.3958995
91	0xbe52a4c5	-0.20570667
92	0x3e812ab2	0.25227886
93	0x3e71bb16	0.23606524
94	0xbfb11f5b	-1.3837694
95	0x3d913654	0.070904404
96	0xbe9f560f	-0.31120345
97	0x3cd5b80c	0.026088737
98	0xbe881616	-0.2657935
99	0xbb013d43	-0.0019720353
100	0xbe99a98f	-0.30012175
101	0xbeb4a23b	-0.35280022
102	0xbfd24b65	-1.6429259
103	0xbe9ff2ca	-0.3123992
104	0x3e5c49c0	0.21512508
105	0xbd123b72	-0.035701223
106	0xbf2777b8	-0.6541705
107	0xbca45344	-0.020059235
108	0x3ebbf5e9	0.36711052
109	0x3ec6f0d3	0.3885561
110	0x40044e67	2.0672853
111	0x3f0bece1	0.54658324
112	0xbc5a91f4	-0.013340462
113	0x3dde1fd9	0.10845918
114	0x400844e6	2.1292052
115	0x3d36b6c8	0.044607908
116	0x3d645152	0.055741616
117	0xbe335308	-0.17512143
118	0xbf83cbbe	-1.0296552
119	0xbe0d7e84	-0.13817793
120	0x3f273bfe	0.65325916
121	0x3e43dafd	0.19126506
122	0xbf791fcf	-0.9731416
123	0xbe8a8eec	-0.27062166
124	0x3eab3fa3	0.33446988
125	0xbe23ea68	-0.16007388
126	0x3f519928	0.8187432
127	0xbc90d485	-0.017679462
128	0xbe6909bf	-0.22757624
129	0x3e8d8087	0.2763712
130	0x3f9168a6	1.1360061
131	0x3e5bb6d3	0.2145646
132	0x3eac3dca	0.3364089
133	0xbe2af900	-0.16696548
134	0xbf88c2ec	-1.0684485
135	0xbe1faa95	-0.15592416
136	0xbcb0ab92	-0.021566186
137	0x3e139361	0.1441169
138	0xbfeef4b8	-1.8668432
139	0xbd8fa0d6	-0.07013099
140	0x3de4cac5	0.11171488
141	0x3e03e3bb	0.12879841
142	0x3fd785bd	1.6837689
143	0x3f03e5d9	0.51522595
144	0xbf0a7886	-0.54090154
145	0x3ed024d8	0.4065311
146	0x3edc441e	0.4302072
147	0x3e90ee06	0.28306597
148	0x3ed17fd9	0.40917853
149	0xbe8cea8a	-0.2752269
150	0xbf41f8fa	-0.75770533
151	0xbe8ba2dd	-0.27272692
152	0xbecef1a7	-0.4041874
153	0xbecc932f	-0.39956042
154	0x3fc5094d	1.5393463
155	0x3e68363c	0.22676939
156	0x3f534f90	0.8254328
157	0x3cf9d477	0.030496819
158	0xbf3dc2a3	-0.7412512
159	0xbe48d385	-0.19611938
160	0xbdd0648e	-0.10175429
161	0xbf11c86e	-0.56946456
162	0x3fdfecc2	1.7494128
163	0xbea3f5a4	-0.32023346
164	0xbe40937f	-0.18806265
165	0x3ddd5758	0.10807675
166	0xbeba542b	-0.3639234
167	0x3e10141d	0.14070173
168	0xbda3e8ae	-0.080033645
169	0x3e9de834	0.3084122
170	0xbf3524a2	-0.7075902
171	0xbd42e2f3	-0.047579717
172	0xbea3dc88	-0.3200419
173	0x3ea27066	0.31726378
174	0xbf4fd71b	-0.811876
175	0x3e73df46	0.23815641
176	0xbe993ff0	-0.29931593
177	0xbdcbf9df	-0.099597685
178	0xbea7592c	-0.3268522
179	0xbd9bfa67	-0.0761612
180	0xbec610bc	-0.38684642
181	0x3dc56e55	0.09640185
182	0x3f13f528	0.57795954
183	0x3c9f1bd1	0.019422444
184	0x3e29cb49	0.16581453
185	0x3ecbba20	0.3979044
186	0x3f750da3	0.95723933
187	0x3e862a50	0.26204157
188	0xbf09a12a	-0.5376154
189	0xbe370e96	-0.17876658
190	0x3f48f892	0.7850429
191	0x3e4de475	0.2010668
192	0x3ec5a849	0.38604954
193	0x3c7cfb84	0.015440825
194	0x3fee923a	1.8638375
195	0x3dfbf90b	0.123033606
196	0xbdba6235	-0.09100763
197	0x3e71b87c	0.23605531
198	0xbfbbad92	-1.4662344
199	0xbd9e96f9	-0.077436395
200	0xbe654b20	-0.22391939
201	0x3e22842c	0.15870732
202	0x3f25148f	0.64484495
203	0x3e0c717d	0.13715167
204	0x3de61c47	0.11235862
205	0x3c6a6c63	0.014308068
206	0x3f602215	0.87552005
207	0x3e908177	0.28223774
208	0xbf336cb4	-0.7008774
209	0xbf13a02c	-0.5766628
210	0x3f58716a	0.84548056
211	0xbd7e6768	-0.062110335
212	0xbd0ae90f	-0.03391367
213	0xbe2aa7e2	-0.16665605
214	0xbf89b85c	-1.0759387
215	0xbe12ca15	-0.143349
216	0xbe01af9b	-0.12664644
217	0xbdb4c888	-0.08827311
218	0xbf564195	-0.8369382
219	0xbdbc833b	-0.09204718
220	0xbd9a0b0e	-0.0752164
221	0x3d202eed	0.039107252
222	0xbec2a70b	-0.3801807
223	0x3db533ca	0.088477686
224	0x3d6c8656	0.0577453
225	0x3e57c888	0.2107259
226	0x3fc611ce	1.5474184
227	0x3f234d21	0.63789564
228	0x3eeb8f6a	0.46007854
229	0x3ee1d40f	0.441071
230	0xbf0dc27e	-0.55374897
231	0x3e765397	0.24055324
232	0xbe2b3115	-0.16717942
233	0xbe35b21f	-0.17743729
234	0xc0033de9	-2.0506537
235	0xbeab4222	-0.33448893
236	0xbeff9cdd	-0.49924365
237	0x3ed39eb0	0.41332006
238	0xbf253b2c	-0.64543414
239	0x3e02a326	0.12757549
240	0xbe442a4d	-0.19156761
241	0xbea36408	-0.31912255
242	0xbfdd85db	-1.7306474
243	0xbebaf825	-0.36517444
244	0x3ec35fe3	0.38159093
245	0xbe615500	-0.22005081
246	0xbf8192da	-1.012294
247	0xbe558486	-0.20851335
248	0xbe0aa609	-0.135399
249	0xbda2d931	-0.07951582
250	0xbfb38dfc	-1.4027705
251	0xbe6f8544	-0.2339068
252	0x3e0ee6c8	0.13955224
253	0x3dd9c419	0.10633106
254	0xbf6f7e71	-0.9355231
255	0x3ea905ca	0.3301223

layers.0.bias f4 [64]
0	0xbbf17764	-0.007368969
1	0x3edff6f1	0.4374309
2	0x3ef3152d	0.47477093
3	0x3f48bb94	0.7841122
4	0xbf71fbb8	-0.9452472
5	0x3dc71f1a	0.09722729
6	0xbe91fff4	-0.2851559
7	0x3edb2d92	0.42808205
8	0xbe9ae033	-0.30249175
9	0xbeb77206	-0.3582918
10	0x3e8e0904	0.27741253
11	0x3f2b980f	0.670289
12	0xbea7807c	-0.32715213
13	0x3f294d90	0.66133976
14	0x3f0b567b	0.54428834
15	0x3f2bb668	0.67075205
16	0x3c52c30f	0.012863888
17	0x3f44316a	0.766379
18	0x3ef5a592	0.47977883
19	0x3f30f068	0.6911683
20	0xbf1728cd	-0.5904663
21	0x3e878a7f	0.26472852
22	0xbf05eb73	-0.5231239
23	0xbf005a1b	-0.5013749
24	0xbf2e9e52	-0.6821033
25	0xbe660f80	-0.2246685
26	0x3f1986cb	0.599713
27	0x3ee151be	0.44007677
28	0x3ee6c321	0.45070747
29	0x3ebb35de	0.36564535
30	0xbeff453e	-0.49857515
31	0x3f331ecc	0.6996887
32	0x3f0ce1b8	0.5503192
33	0x3f1154d9	0.5677009
34	0xbf3e7a28	-0.74405146
35	0xbe52b496	-0.205767
36	0xbeb7d107	-0.35901663
37	0xbea4ad5e	-0.3216352
38	0xbec565b0	-0.38554144
39	0xbe72d6a5	-0.23714693
40	0x3ee57ea4	0.44823182
41	0x3f03159c	0.5120485
42	0x3f442a33	0.7662689
43	0x3f422ef6	0.75852907
44	0xbf39a8c8	-0.72523165
45	0xbf09775d	-0.5369776
46	0xbedd9e82	-0.43284994
47	0x3ed2df83	0.4118615
48	0x3eeffe18	0.46873546
49	0xbec077b4	-0.37591326
50	0xbedcaea8	-0.43102002
51	0xbec23804	-0.37933362
52	0x3e7f9918	0.24960744
53	0x3f00189a	0.5003754
54	0x3f13642f	0.57574743
55	0xbeabc0fa	-0.33545667
56	0xbd8d279c	-0.068923205
57	0xbeeb8ae7	-0.46004412
58	0xbf3b4f41	-0.73167807
59	0x3f3bda5f	0.7338008
60	0xbea00df4	-0.31260645
61	0x3f0d527e	0.55204
62	0x3f20e860	0.62854576
63	0x3e384a77	0.17997156

layers.2.weight f4 [64, 64]
0	0x3df4d7f0	0.11955249
1	0xbd9c2ffa	-0.07626338
2	0xbdb66b28	-0.08907157
3	0x3d6fe0c0	0.058563948
4	0xbdf40fa0	-0.11917043
5	0xbd8bc938	-0.06825489
6	0xbdb9d0e8	-0.09073049
7	0x3c2a08f0	0.010378107
8	0x3d8107d8	0.06300324
9	0xbdba7b60	-0.09105563
10	0x3cafb078	0.021446452
11	0xbbde0ca0	-0.0067764074
12	0x3d9873c2	0.07443954
13	0xbd95e60e	-0.0731927
14	0xbdcd34cc	-0.10019836
15	0xbd42385c	-0.04741703
16	0x3df7c4c4	0.12098077
17	0xbbf59540	-0.0074945986
18	0xbdaafb70	-0.08348739
19	0xbdf13988	-0.11778551
20	0x3dd9e4e2	0.10639359
21	0x3de65480	0.11246586
22	0x3db1a058	0.08673161
23	0xbc04d440	-0.008107245
24	0xbd483684	-0.048880115
25	0xbdf595f8	-0.11991495
26	0xbdce23da	-0.10065432
27	0xbd6c0a14	-0.0576268
28	0xbdaff052	-0.08590759
29	0xbde21f20	-0.11041093
30	0x3d37ca94	0.044870928
31	0x3d6e2e40	0.058149576
32	0xbdae492a	-0.08510049
33	0xbde7fcca	-0.113275126
34	0x3dcc6500	0.09980202
35	0xbd7a1890	-0.06105858
36	0xbd378af8	-0.044810265
37	0xbd707e80	-0.05871439
38	0xbdb38262	-0.08765103
39	0xbddf4252	-0.109013215
40	0x3bba4760	0.005684778
41	0x3d26d58c	0.040730998
42	0xbdee7dda	-0.11645098
43	0xbded45e8	-0.11585599
44	0x3dc57780	0.096419334
45	0x3d82788a	0.06370647
46	0xbdced71c	-0.100996226
47	0x3d0c2fc8	0.034225255
48	0x3d731190	0.05934292
49	0xbda04982	-0.078265205
50	0x3d734070	0.059387624
51	0xbd621d30	-0.055203617
52	0x3c344580	0.011002898
53	0xbd331398	-0.043719858
54	0x3d4c548c	0.049885318
55	0xbdff1a58	-0.124561965
56	0xbd9c9624	-0.076458246
57	0xbd0559a8	-0.032556206
58	0x3dddb7f2	0.108261004
59	0xbd84e7be	-0.06489514
60	0x3d85f556	0.06540935
61	0x3c3dac30	0.011576697
62	0x3dc2ade2	0.09505822
63	0x3ce831a8	0.02834399
64	0xbdc59d8f	-0.096491925
65	0xbe857b8c	-0.2607082
66	0x3a3c34b5	0.0007179485
67	0xbe80047a	-0.25003415
68	0x3fe2c911	1.7717611
69	0x3f23d141	0.6399117
70	0xbed01ec7	-0.4064848
71	0xbf951d8e	-1.1649644
72	0x3e6fd40f	0.23420738
73	0x3de9b21b	0.11410924
74	0x3f081192	0.5315181
75	0xbf1e3732	-0.6180297
76	0x3f9fd159	1.2485763
77	0xbe3f120b	-0.18659227
78	0xbb8fea48	-0.004391942
79	0xbced0479	-0.028932797
80	0x3f03abbf	0.5143394
81	0xbeaece9a	-0.34142
82	0xbe5677fc	-0.20944208
83	0xbd87a84a	-0.066238955
84	0x3fca4cd3	1.5804695
85	0xbfb8988d	-1.4421555
86	0x3fb35eb9	1.4013282
87	0xbef65284	-0.4810983
88	0x409a2f4a	4.8182726
89	0x3e0f3d3c	0.13988203
90	0xbe96783e	-0.29388613
91	0x3f5b08d8	0.8556037
92	0xbc17b0db	-0.009258474
93	0xbed7dbe4	-0.4215995
94	0x3ec8b404	0.3919984
95	0xbee5d5f8	-0.44889808
96	0x3d684b95	0.056712706
97	0xbfa757ad	-1.3073632
98	0xbe01e581	-0.12685205
99	0x3e5c0720	0.21487093
100	0x3f3780cc	0.71680903
101	0xbb1c93d4	-0.0023891823
102	0x3f1afea1	0.6054478
103	0x3e8575b5	0.26066366
104	0x3eadb8c3	0.33930025
105	0xbc9780f6	-0.01849411
106	0xbdcf5a52	-0.10124649
107	0xbea18866	-0.31549376
108	0x4088eee1	4.27916
109	0xbda65258	-0.081211746
110	0x3dfe0447	0.124031596
111	0x3e7b05d2	0.24513939
112	0x3f0f0c4b	0.5587813
113	0xbe825a61	-0.2545958
114	0x3fa56fe0	1.2924767
115	0x3e753cb8	0.23948944
116	0x3f120521	0.57039076
117	0xbf182651	-0.59433466
118	0xbf116c41	-0.5680581
119	0xbb37aa01	-0.0028024914
120	0x3e8c5d73	0.27415046
121	0x3f15b711	0.5848246
122	0x4024137d	2.5636895
123	0xbf273d3d	-0.6532782
124	0x3fac63b5	1.3467928
125	0xbf938b4b	-1.1526884
126	0xbf4eaa58	-0.80728674
127	0xbdaced86	-0.084437415
128	0x3ea69228	0.32533383
129	0x3e2b29de	0.1671519
130	0x3ea98973	0.33112678
131	0x3ec42928	0.3831265
132	0xbfbf27f3	-1.4934067
133	0xbb0853da	-0.0020801933
134	0x3c758d4d	0.014987302
135	0x3d97a726	0.07404928
136	0x3d51ecbd	0.05125116
137	0xbe3794fb	-0.17927925
138	0x3d794c20	0.060863614
139	0x3e81bca3	0.2533923
140	0xbdd56b67	-0.10420876
141	0x3e7fc6c2	0.24978164
142	0x3eaa1b14	0.33223784
143	0x3e91c77a	0.284725
144	0x3d304753	0.04303677
145	0x3e962c9f	0.29330918
146	0x3df081c5	0.117435016
147	0x3e8d8526	0.27640647
148	0xbf84f2bb	-1.0386575
149	0x3d97ba7b	0.07408615
150	0xbf2f9957	-0.68593353
151	0xbef387be	-0.475645
152	0xc0796005	-3.8964856
153	0xbde2881f	-0.11061119
154	0x3ece543f	0.4029865
155	0x3dc4dfc6	0.09612994
156	0x3e933db5	0.28758016
157	0x3e24fa0c	0.1611101
158	0xbe80d57f	-0.25162885
159	0x3e3fa018	0.18713415
160	0x3e45e2e3	0.19324832
161	0x3eac8b4a	0.3370002
162	0x3c34ebff	0.011042594
163	0xbe18ea54	-0.14933139
164	0xbed7d672	-0.42155796
165	0xbdc66d5f	-0.0968883
166	0x3c89cfdc	0.016822748
167	0xbcbbf978	-0.022946104
168	0x3dabd2bc	0.08389804
169	0x3edae601	0.42753604
170	0x3e831b7e	0.25606912
171	0x3ee2fa35	0.44331518
172	0xc091821e	-4.5471334
173	0x3e62f6e0	0.22164488
174	0xbe07ef9b	-0.13274996
175	0x3c3377fa	0.010953898
176	0x3e92001d	0.2851571
177	0xbea8a621	-0.32939246
178	0xbf43c816	-0.7647718
179	0xbe80419f	-0.25050065
180	0x3d971b78	0.07378286
181	0x3ee06a80	0.43831253
182	0x3ed1c1d1	0.40968183
183	0x3d0b69e5	0.034036536
184	0xbd4263ca	-0.047458448
185	0xbf3e58e9	-0.74354416
186	0xc024dfe7	-2.576166
187	0x3e0dc47a	0.13844481
188	0xbd1bb70e	-0.03801637
189	0x3efb4aeb	0.49080595
190	0x3ea6c91a	0.32575303
191	0x3e1a31e6	0.15058097
192	0x3e71140f	0.23542808
193	0x3e87ce00	0.26524353
194	0x3ea05ac7	0.31319258
195	0x3e951c91	0.29123357
196	0xbfc0319a	-1.5015137
197	0xbd83742c	-0.064186424
198	0xbd8529cd	-0.065021135
199	0x3dccbd80	0.09997082
200	0xbe25d450	-0.16194272
201	0xbe58a73b	-0.21157543
202	0x3de2501d	0.11050437
203	0x3eacce52	0.3375116
204	0xbe168445	-0.14698894
205	0x3ea1ab41	0.3157597
206	0x3e3c557f	0.18391989
207	0x3e8b820d	0.27247658
208	0xbdc7689d	-0.0973675
209	0x3ecad41a	0.39614946
210	0x3e204457	0.1565107
211	0x3e6b3543	0.22969536
212	0xbefe6f38	-0.49694228
213	0x3cabfe03	0.020995146
214	0xbf1805fe	-0.59384143
215	0xbebdeea4	-0.3709613
216	0xc06985e4	-3.648797
217	0xbdda315b	-0.10653945
218	0x3e9a2e31	0.30113366
219	0x3dce9d48	0.10088593
220	0x3e829760	0.25506115
221	0x3e94bd1b	0.29050526
222	0xbe2f9283	-0.17145734
223	0x3e21140a	0.157303
224	0x3e8bc0df	0.27295586
225	0x3ebcbdae	0.36863464
226	0x3e62d9a7	0.2215334
227	0x3cf51607	0.02991773
228	0xbdf8012e	-0.121096
229	0xbe7b1b9f	-0.24522255
230	0xbcbc1b31	-0.022962185
231	0xbbcf4714	-0.006325612
232	0x3dfab700	0.12241936
233	0x3e72e996	0.23721918
234	0x3ea64d79	0.32480982
235	0x3e4890a4	0.19586426
236	0xc0922943	-4.567537
237	0xbe686fdb	-0.2269892
238	0xbe025afb	-0.12730019
239	0x3e8e574c	0.27800977
240	0xbb9e1970	-0.0048248097
241	0xbe885491	-0.2662702
242	0xbefc23d8	-0.49246097
243	0xbe79175f	-0.24325322
244	0xbca47473	-0.020075059
245	0x3e6c664c	0.23085898
246	0x3e983b23	0.29732618
247	0x3d3afc6e	0.045650892
248	0x3d99018e	0.07471
249	0xbf46b52d	-0.776202
250	0xc0395f12	-2.8964276
251	0x3eb20d88	0.3477595
252	0xbe0c4dba	-0.13701525
253	0x3eb70b47	0.3575079
254	0x3de5fd6a	0.112299755
255	0x3c1dc103	0.009628537

layers.2.bias f4 [64]
0	0xbdf277c6	-0.11839251
1	0xbdf94c1d	-0.121727206
2	0x3edd903b	0.43274102
3	0x3eaa8700	0.33306122
4	0x3ebc4031	0.36767724
5	0xbd858419	-0.06519336
6	0x3c61d73d	0.013784227
7	0x3f05843a	0.52154887
8	0xbe01b770	-0.12667632
9	0xbce9349f	-0.028467475
10	0xbe0221dc	-0.12708229
11	0x3e23e9d9	0.16007175
12	0x3b54d7d2	0.0032477272
13	0xbda85772	-0.08219804
14	0xbe681085	-0.22662552
15	0x3eae32c1	0.34023097
16	0xbdcd25ab	-0.1001695
17	0xbdff0175	-0.1245145
18	0x3ea5b8f6	0.32367676
19	0x3eccdecb	0.40013728
20	0x3efc0cfa	0.4922865
21	0x3ea3e5a3	0.32011136
22	0x3da31c8f	0.079644315
23	0x3ecc6836	0.39923257
24	0x3f09813a	0.5371281
25	0x3d07eec3	0.033186685
26	0x3eb1e6b7	0.34746334
27	0xbdcad146	-0.09903197
28	0xbdc77221	-0.09738565
29	0x3ebb9903	0.36640176
30	0xbc37d8e4	-0.011221144
31	0xbd69d42e	-0.057087116
32	0xbdbacfd9	-0.09121675
33	0x3f0d9f20	0.5532093
34	0x3bea5be0	0.0071520656
35	0xbda42d07	-0.08016401
36	0x3d904474	0.070443064
37	0x3d9814f9	0.07425875
38	0x3f0a831c	0.5410631
39	0xbda8f758	-0.08250302
40	0x3ef223ba	0.47292882
41	0xbbb34756	-0.0054711504
42	0x3ea11617	0.31462166
43	0x3ea0b0b7	0.31384823
44	0xbe231660	-0.15926504
45	0x3eb87fde	0.36035055
46	0x3f09e5b3	0.5386612
47	0x3f02a202	0.51028454
48	0x3da82916	0.082109615
49	0x3ec98484	0.39358914
50	0xbebfef3d	-0.37487212
51	0xbbad23c0	-0.0052838027
52	0xbe0a3457	-0.13496529
53	0x3edcac1e	0.43100065
54	0xbacd39d6	-0.0015657495
55	0xbbaafa14	-0.0052178
56	0x3edc93ec	0.43081605
57	0xbdecb242	-0.115574375
58	0x3eb5ac86	0.35483187
59	0x3f0678ac	0.5252788
60	0x3de1e004	0.11029056
61	0x3c6ead26	0.014567649
62	0x3ec5ffc6	0.38671702
63	0x3ea14623	0.31498823

layers.4.weight f4 [2, 64]
0	0x3c8b1820	0.016979277
1	0xc0716e3a	-3.7723527
2	0x3ee254ee	0.4420542
3	0x3eac9c65	0.3371307
4	0x3eb7f3c6	0.35928172
5	0xbdfccaec	-0.12343392
6	0xbcf42f6e	-0.029807772
7	0x3f00a12c	0.5024593
8	0xbd0bddec	-0.034147188
9	0x3c1f9cf4	0.00974201
10	0x3eee7560	0.46573925
11	0x3e2feec7	0.1718093
12	0xbd765948	-0.06014374
13	0xbf40f0a5	-0.75367194
14	0xbfae5878	-1.3620749
15	0x3ecf0d6c	0.40439928
16	0xbdff0152	-0.12451424
17	0xbf2d9814	-0.6781018
18	0x3e723c45	0.23655804
19	0x3ed17c5f	0.409152
20	0x3eb322cb	0.34987482
21	0x3ec27028	0.37976193
22	0xbd7800f8	-0.0605478
23	0x3eddd242	0.43324476
24	0x3edae046	0.42749232
25	0x3c8a249d	0.016863162
26	0x3e8c59da	0.274123
27	0xbf9f6b99	-1.2454711
28	0xc085294c	-4.161291
29	0x3e93e725	0.28887287
30	0xbd16dec9	-0.03683356
31	0xbd3132f7	-0.043261494
32	0xc0568604	-3.3519297
33	0x3ec0afc8	0.3763411
34	0xbd98edd4	-0.07467237
35	0xbfce85e8	-1.6134615
36	0xbb948d29	-0.004533429
37	0xbcadff40	-0.021239877
38	0x3ed80fde	0.42199606
39	0xbd94bff8	-0.07263178
40	0x3eebcda9	0.46055344
41	0xbfe7f831	-1.8122617
42	0x3ed1df16	0.40990514
43	0x3e9e752b	0.30948767
44	0x3d16ddf3	0.03683276
45	0x3ed6e883	0.41974267
46	0x3f003f24	0.50096345
47	0x3efaf000	0.4901123
48	0xbf215e5a	-0.63034594
49	0x3edf8b0a	0.43660766
50	0xc00ad918	-2.1695004
51	0x3dc8607a	0.097840264
52	0xbd8694bd	-0.06571338
53	0x3ea4b88c	0.32172048
54	0xc05c553e	-3.4427028
55	0xbd2b575f	-0.04183137
56	0x3e97aa5d	0.29622164
57	0xbfbe8421	-1.4884073
58	0x3eaef914	0.34174407
59	0x3ec8be30	0.39207602
60	0x3e855ab9	0.26045778
61	0xbe0886e2	-0.13332704
62	0x3ea2707b	0.3172644
63	0x3ea0de1b	0.31419453
64	0x3d1adfc8	0.03781107
65	0xc026a3c7	-2.6037462
66	0x3eb36f4d	0.35045853
67	0x3ec4b1e2	0.38416964
68	0x3ec70bd8	0.38876224
69	0xbda30f12	-0.07961859
70	0x3b98dc67	0.004664946
71	0x3eda5ca5	0.42648807
72	0x3d07b3d7	0.033130493
73	0xbe12ab6b	-0.14323203
74	0x3f1b1308	0.60575914
75	0x3e9daece	0.30797428
76	0xbc4fd36a	-0.012684682
77	0xbfd3241e	-1.6495397
78	0xbf9e8ade	-1.2386129
79	0x3eb0051a	0.34378892
80	0x3dc3bc3c	0.09557387
81	0xbf9e8413	-1.2384056
82	0x3ebcc95d	0.36872378
83	0x3ec0f522	0.37687021
84	0x3ebf0edf	0.37316033
85	0x3ed5eb22	0.41780955
86	0xbdaa7dfe	-0.08324812
87	0x3eb29e8f	0.34886596
88	0x3ef57588	0.47941232
89	0xbd89fc09	-0.06737525
90	0x3ed45c00	0.4147644
91	0xbf7bc31e	-0.983446
92	0xc05ab84e	-3.417499
93	0x3ed186e2	0.4092322
94	0xbd465543	-0.048421156
95	0x3cbafd87	0.02282597
96	0xc06fc8f5	-3.7466404
97	0x3ebb7d71	0.36619142
98	0xbba66ca0	-0.005078867
99	0xbf99ab52	-1.2005408
100	0xbcd1cedd	-0.025611335
101	0xbddd19d4	-0.10795942
102	0x3f1214bf	0.57062906
103	0xbd95e656	-0.07319324
104	0x3ed0eb80	0.40804672
105	0xbff276fa	-1.8942559
106	0x3e96614f	0.29371116
107	0x3ece44fc	0.40287006
108	0xbda4c132	-0.080446616
109	0x3ec5a432	0.38601834
110	0x3f025525	0.5091117
111	0x3ed93652	0.42424256
112	0xbf8ae170	-1.0850048
113	0x3eac644e	0.33670276
114	0xc020815c	-2.5078955
115	0xbd0a0908	-0.03370002
116	0x3d958ecd	0.07302628
117	0x3eb02c37	0.34408733
118	0xbff77a35	-1.933417
119	0xbd909f91	-0.07061685
120	0x3ea10c8c	0.31454885
121	0xbf00b0b4	-0.5026963
122	0x3ef38895	0.4756514
123	0x3ea6e2d4	0.3259493
124	0xbc47ed05	-0.012202506
125	0x3d768b71	0.060191575
126	0x3ec5b5fc	0.38615406
127	0x3ecb5ce2	0.397193

layers.4.bias f4 [2]
0	0x3ef8b471	0.48575166
1	0x3eb0deff	0.34545133
