notebooks/final/2023-02-03-16-05-32_model_checkpoint.pth (torch, 57217 bytes, 11 tensors)

feature_layer.0.weight f4 [64, 8]
000000 9a 8b 16 3f 2f e6 b5 3c b6 8e 03 3f ee 25 c6 3e
       0.58806765 0.022204487 0.51389635 0.38700813
000010 53 8f f2 3d b1 97 80 3e d1 44 36 3e df 55 05 be
       0.11843743 0.2511573 0.17799689 -0.13021038
000020 5f 49 a9 3d d2 28 23 bd 22 d1 fe 3e e7 d1 b1 3d
       0.082659476 -0.03983385 0.4976893 0.08682614
000030 f1 8c 9e be af fd 5c be 57 82 7a 3e 73 26 f2 3e
       -0.30966905 -0.21581148 0.24463783 0.4729496
000040 0f f5 a7 be 1c 8a a6 be 48 cb e9 3d 88 e3 db be
       -0.32804152 -0.32527244 0.11415726 -0.4294703
000050 08 a0 4b 3f 2c f0 5c bf dc 09 49 3e fb 2e d0 bd
       0.79541063 -0.86303973 0.19632667 -0.10165211
000060 dc ca a3 be 72 9c 16 bf ba 2f 01 3f 9f 63 81 3e
       -0.31990707 -0.58832467 0.5046345 0.25271317
000070 0f 63 af be 02 e7 ce be 9f 9b 9b be c3 39 49 bf
       -0.34255263 -0.4041062 -0.30392167 -0.7860376
000080 b4 34 90 be dc d7 b4 3e f5 88 91 3e 10 a0 83 be
       -0.2816521 0.35320938 0.28424802 -0.25708055
000090 c9 f8 29 3f 91 0d 4f 3e 8d ab 8d bf 6c cb 6b 3e
       0.6639524 0.20220019 -1.1067978 0.23026818
0000a0 7f 1f fe 3d fa 6a e0 bf 5f a1 17 3f 2c 25 3a 3f
       0.12408351 -1.7532647 0.5923061 0.7271297
0000b0 1f 19 c7 3e f1 71 d4 3e 3e e3 ad be 67 f4 96 3e
       0.38886353 0.4149318 -0.33962435 0.2948334
0000c0 5f 64 52 bc 9c de cb be f1 b9 bd bd 59 21 42 bf
       -0.012841313 -0.39818275 -0.09263981 -0.75832134
0000d0 22 e5 ae 3e c0 75 80 3d ad e9 01 be 7c 8f aa 3e
       0.3415919 0.06272459 -0.12686796 0.33312595
0000e0 50 3b 04 be 1a dc 61 bd db 28 06 3e d2 e7 92 3d
       -0.12913251 -0.055141546 0.13101523 0.071731225
0000f0 2b b0 86 bd 59 da 2e 3f 20 a3 e0 3e 9d 4a 0f bf
       -0.0657657 0.6830192 0.43874454 -0.55973226
000100 9d ca 92 be 17 6a a7 3d 61 bf 0a bf 69 4a 80 3d
       -0.28670207 0.08174532 -0.5419827 0.062641926
000110 f0 b7 45 3f dd d4 e5 3e f0 12 20 3e 5e 90 48 3e
       0.7723379 0.44888964 0.15632224 0.19586322
000120 b9 40 c2 3e e5 bf f9 3c b7 76 04 be cb 30 4f 3d
       0.37940004 0.03048701 -0.12935911 0.050583642
000130 06 5e c9 3d 30 70 c8 3e ef 2b 37 3f 2f a3 b6 be
       0.09832387 0.39148092 0.7155141 -0.35671374
000140 a0 2d f2 3c 20 22 cc be 33 f8 17 bf 15 d4 02 3f
       0.029562771 -0.39869785 -0.59363097 0.5110486
000150 49 3b 59 3e d8 a8 8f be 40 45 6d 3d 62 0f 00 3f
       0.21214022 -0.28058505 0.05792737 0.5002347
000160 c1 1b a8 be 2c 1b 9b be 5a 7d 62 bd d4 a3 12 3e
       -0.32833675 -0.30294168 -0.055295326 0.14320308
000170 c5 12 26 3f 2e 84 11 3f f1 98 98 bd 71 02 45 3e
       0.6487239 0.56842315 -0.07451046 0.19239213
000180 b3 48 13 3d 9b ea 82 3d c4 2c 08 be f9 fa b3 bb
       0.035958003 0.06392404 -0.13298327 -0.0054925648
000190 b0 89 88 be 48 57 e9 be af eb 59 be 20 74 02 3f
       -0.26667547 -0.45574403 -0.21281312 0.5095844
0001a0 83 7d dc 3c 90 99 8d bd 6b e0 a8 3c a2 4d f1 bc
       0.026915317 -0.06914055 0.020614823 -0.029455964
0001b0 15 20 9f 3f 6d 79 86 3e ae b5 06 3f 0d 6b 17 bb
       1.2431666 0.26264516 0.5262097 -0.0023104579
0001c0 eb 04 c1 3d bf fe b3 3d 63 ea 53 3e cc ca c2 3d
       0.09424766 0.08788823 0.2069488 0.09511337
0001d0 27 ba e4 be 86 bc 12 bf 0b 31 87 bf 00 01 a3 3e
       -0.44673273 -0.57318914 -1.0561842 0.318367
0001e0 02 5b b6 bd 47 86 64 3e 54 f7 80 3e 4b 04 9f 3c
       -0.08904077 0.22316848 0.25188696 0.019411227
0001f0 4b 97 ba 3f da 7c 06 bc 71 4b 91 3e 65 7e 7b 3e
       1.4577421 -0.008208478 0.2837787 0.24559934
000200 9a 90 d8 be ba b5 88 3c af 67 f1 be 81 df c4 3e
       -0.42297822 0.016688216 -0.47149417 0.3845177
000210 ad 5d 24 3f d8 f3 5b 3e 77 a3 8d be a4 e1 14 bf
       0.6420544 0.21479738 -0.27663776 -0.581568
000220 5b 74 c4 bd b6 ec ab 3e cd 35 b1 be 7e df 42 3e
       -0.095925055 0.33579034 -0.3461136 0.19030568
000230 b4 a5 36 3f c5 be 25 3e 09 a8 9f 3d d8 87 20 3e
       0.7134659 0.16186054 0.07795722 0.1567682
000240 48 88 ea 3d 09 2a c3 3e 2d e2 5b be 30 9d b3 be
       0.11451775 0.38118008 -0.21472998 -0.35080862
000250 24 b2 3c 3f 83 25 a4 be d8 81 0b 3d 50 5f 7b 3e
       0.7370932 -0.3205987 0.034059376 0.24548078
000260 85 67 5e be d4 aa cd bf 2f 85 a3 3b 7d e0 82 bc
       -0.21719177 -1.6067758 0.004990242 -0.015976185
000270 ea 2d 82 3e a4 71 44 be e4 8f 86 3e 8c e1 36 be
       0.25425655 -0.19183975 0.26281655 -0.17859477
000280 0a ef 17 be 3e 1e 6d be d1 ce 36 3e c2 8a 52 bf
       -0.1483728 -0.23156068 0.17852332 -0.8224298
000290 63 8b 2d be 87 6b 2b be 2a 60 41 be 20 58 94 3e
       -0.16947703 -0.16740237 -0.1888434 0.28973484
0002a0 39 43 00 3e 13 0e 17 3e 43 14 88 be 9c e3 78 bb
       0.12525643 0.14751463 -0.26577958 -0.0037977463
0002b0 39 d4 f7 be 92 81 70 3f c6 b1 03 bf 46 05 ee 3e
       -0.484041 0.9394771 -0.51443136 0.46488398
0002c0 2d ae bc bd 3f 5e 0b bd 89 1e 27 3f 5e 0b 32 bf
       -0.09212909 -0.034025427 0.6528097 -0.69548595
0002d0 2b a0 7a bf 5f b9 5d 3e a1 04 89 3e 19 8f b2 be
       -0.97900647 0.21652745 0.26761344 -0.348748
0002e0 88 5e 18 be 94 b6 f5 3e d8 e0 f4 3e a4 54 c8 be
       -0.14879811 0.4799086 0.47827792 -0.39127076
0002f0 84 ec cb be 9e 7d c3 be b2 32 8f bd f1 e8 bf bd
       -0.39828885 -0.38181776 -0.06992091 -0.09370602
000300 80 8e 71 3e bc 47 2a 3d 4e c7 74 3f ff be c0 be
       0.23589516 0.041572317 0.95616615 -0.37645718
000310 53 7a 22 bf 97 d8 ac 3e b7 b1 8b be 15 f1 c2 3e
       -0.634679 0.33758995 -0.27284023 0.38074556
000320 1b 32 3c 3d 0c ca 83 3e 06 eb 50 3f 02 a2 16 bf
       0.04594622 0.25740087 0.8160862 -0.58840954
000330 b2 5c 02 3f 6c 3c 50 bd 11 5c eb bb d0 c7 13 3e
       0.5092269 -0.050838873 -0.007182606 0.14431691
000340 50 4e bb bd 93 61 55 be 9a 9f 83 3e 93 5e 01 bf
       -0.09145796 -0.20838003 0.25707704 -0.50534934
000350 49 27 3d 3f 02 af 9e be c6 2a 6f be 87 5c 00 3e
       0.7388807 -0.30992895 -0.2335616 0.12535296
000360 52 66 a9 3e 26 67 07 be c2 11 87 bf 54 da 9e 3e
       0.33085877 -0.13222942 -1.0552294 0.31025946
000370 67 f6 01 3d ac 1e b5 be 07 81 dd be 5f ed 7f 3e
       0.03172913 -0.35374963 -0.43262503 0.24992894
000380 72 1e 55 3e 61 2b 85 3e f0 e8 45 3f 3a fa 0e 3f
       0.20812395 0.26009658 0.7730856 0.55850565
000390 af 64 bb 3c f9 56 41 3f e0 a9 c6 3d 4b d6 06 bd
       0.022875158 0.75523335 0.0970037 -0.03291921
0003a0 0f 46 8f be 81 44 99 bd e6 85 06 bf 0f ed ef be
       -0.27983138 -0.07483769 -0.5254806 -0.4686055
0003b0 31 80 a8 bf cb f9 6a 3f 40 9e bc be a7 31 8f bf
       -1.3164121 0.91787404 -0.36839485 -1.1187028
0003c0 5d 94 4c bf e2 71 18 bf 38 ed 99 be ea e6 8f be
       -0.79913884 -0.5954877 -0.30063796 -0.2810586
0003d0 d9 e1 b9 3e 18 90 10 bc 90 81 9e 3c a3 75 40 3c
       0.3630512 -0.008823417 0.01934889 0.011746797
0003e0 32 c8 2b 3d 21 80 36 be 62 f4 e7 be 07 41 da be
       0.041938968 -0.17822315 -0.45303637 -0.42627737
0003f0 55 87 ec 3e cf b9 35 3f f1 f7 0d 3e 1a e0 99 bf
       0.46197 0.70986646 0.13864113 -1.2021515

feature_layer.0.bias f4 [64]
000000 7d cc 4e 3e 0d 54 a1 3d 3c bd c9 3d fd 57 9e be
       0.20195194 0.078773595 0.09850547 -0.30926505
000010 39 ea 69 3e a4 e2 03 3e b2 8f bb be 21 e4 8c 3e
       0.22843255 0.12879425 -0.36633068 0.275178
000020 9b 2e 12 be 27 1b be 3c e6 c7 63 3e 3c dd 98 3e
       -0.14275591 0.023206307 0.22244224 0.29856288
000030 7d 44 8b 3c ae 6e 36 3e f5 8a 45 be 1a f8 46 3e
       0.017000431 0.17815658 -0.19291289 0.1943058
000040 40 4e cb be 9d cc 93 3e 3f 39 8f be 40 89 2e 3e
       -0.39708138 0.28867045 -0.27973363 0.17044544
000050 83 20 69 3e 3d ea 83 3e 5b 7b be 3e 20 d0 71 3e
       0.22766308 0.25764647 0.37203488 0.2361455
000060 4e 1f 4f 3e 11 9b 19 3e fd 0e 67 3e a9 df c8 3e
       0.20226786 0.1500056 0.22564311 0.3923314
000070 b1 ef 42 3e b4 7d bf 3e cf d4 90 bd 65 9d 84 be
       0.19036748 0.3740059 -0.0707184 -0.25901332
000080 fa c7 88 3e 30 5b b6 3e f8 a2 2c 3e 89 b9 83 bd
       0.2671507 0.35616446 0.16859043 -0.064318724
000090 36 38 5a bd ef 5b ca 3d ee f5 a8 bd c2 17 83 3c
       -0.053276263 0.09880816 -0.08250032 0.01600254
0000a0 5c 1d c7 be e8 a7 2c bd 1f d3 6d 3e c0 7c 51 be
       -0.38889587 -0.042152315 0.23225068 -0.20457745
0000b0 fc cf 4b 3d 9d 69 75 bd 03 02 1a 3e 31 1d 74 3e
       0.049758896 -0.059915174 0.1503983 0.2383926
0000c0 be 4d 1c be 84 4c 04 3e a7 ec f2 3d 6c 51 5b bd
       -0.15264031 0.12919813 0.11861544 -0.053544447
0000d0 ae b8 5e 3d c0 41 85 be 6d 52 8c be 03 d3 a8 3e
       0.054375343 -0.26026726 -0.27406636 0.3297349
0000e0 bd 27 27 3e c0 6a b6 3e 0d 43 4b 3c 6d a2 a2 3e
       0.16323753 0.3562832 0.012406123 0.31764546
0000f0 ac 4b c5 3d cc df 95 3e be cf 08 be 27 73 4c 3d
       0.09633574 0.29272306 -0.13360497 0.049914505

feature_layer.2.weight f4 [64, 64]
000000 39 13 d8 bc b8 2c 53 bf c3 81 2a be e0 08 95 bd
       -0.026376354 -0.8249011 -0.16651063 -0.072770834
000010 93 a0 8a 3d 3e 84 99 be 0b 60 e3 3d 27 3a b8 bc
       0.06768908 -0.29983705 0.11102303 -0.022488667
000020 4b 86 03 3e 7a 78 de 3d 6a 5f ba 3d e7 51 2e bc
       0.12844197 0.10862823 0.0910023 -0.010639644
000030 99 bb 70 bf 4a 26 68 3e 56 34 38 3f fc b6 dc 3e
       -0.9403625 0.22670856 0.7195486 0.43108356
000040 a4 cb 24 be b6 3a c0 3d f8 67 c4 3e 28 e8 91 3e
       -0.16093308 0.09386198 0.38360572 0.28497434
000050 21 d2 fb bc 18 ca 2a bb 5b 85 1c bf 0d 24 1a be
       -0.030739846 -0.0026060399 -0.61140984 -0.15052815
000060 90 19 4e be 46 39 a9 3d 5a a6 7a 3e ea c1 72 3d
       -0.20126939 0.08262877 0.2447752 0.059266962
000070 4e c9 a8 bd 4c a3 2c bf b6 9a 03 bf f6 89 ac 3e
       -0.08241521 -0.6743667 -0.51407945 0.33699006
000080 9d 2c aa 3d 0b 07 6d be c0 ee 78 bd 69 ac fc 3c
       0.083092906 -0.23147218 -0.060774565 0.03084393
000090 52 cc b7 3e 14 86 a9 3e d0 44 a8 bd b7 a0 bb bd
       0.35898072 0.33110106 -0.0821625 -0.09161513
0000a0 af 99 c2 3e 04 57 3b 3e f9 27 b0 3e 19 d7 2d 3e
       0.38007876 0.18294913 0.34405497 0.16976584
0000b0 b5 fb 8e bf 2b 46 a9 3d 07 27 02 3f 66 24 a6 3c
       -1.1170565 0.082653366 0.508408 0.020281028
0000c0 8b a6 0a 3e 77 df 34 3d f0 80 94 3e 9a c3 df be
       0.13540094 0.044158425 0.29004622 -0.4370392
0000d0 7f 0f 2d bc 65 5c 56 be 61 fd 51 3e 02 3a 48 3e
       -0.010562777 -0.20933683 0.20506813 0.19553378
0000e0 a9 af 36 bf 25 97 60 3e c9 6a cf be 57 bc 41 3d
       -0.71361786 0.21932657 -0.40511158 0.047298755
0000f0 4e b1 c3 bd d2 ac ca bd a0 b3 6d 3e c6 2a 47 bd
       -0.095553026 -0.09896244 0.23213053 -0.048624776
000100 9c 89 89 3d e8 55 fa bd 26 e3 d9 3d fc be f4 bd
       0.067157 -0.122234166 0.10639028 -0.1195049
000110 00 5c 10 3d c9 d3 a7 ba 52 d8 a1 bd d9 ed 2c bc
       0.035243988 -0.0012804206 -0.07902588 -0.010554754
000120 c8 02 6f bc 37 3a f9 3c f4 08 fb bc 41 7c fd bd
       -0.014588065 0.030423267 -0.030643918 -0.12377215
000130 58 0a 33 3d bb f3 b9 3d 3a fd aa bd 02 34 3e bd
       0.043711036 0.09079691 -0.083490804 -0.046436317
000140 e4 06 b8 bd 76 3c c4 bd 40 14 dc 3b f0 e8 76 3c
       -0.08985689 -0.095818445 0.006716281 0.015070185
000150 7f 53 f1 bd e4 76 28 3d 98 96 b7 bd e2 71 d4 bd
       -0.11783504 0.041129008 -0.0896427 -0.10373284
000160 ea e7 c2 3d 2b 7b a4 bc f8 5f d6 bd 10 49 fc bd
       0.0951689 -0.020078262 -0.10467523 -0.12318623
000170 f1 b9 81 bc 88 0a b0 3d a0 d9 d2 3b 3d 73 a7 3c
       -0.015835734 0.08595759 0.0064346343 0.020440692
000180 ea af da bd 21 b5 93 bd 38 df ac bd 4c 4e a7 bd
       -0.10678084 -0.07212282 -0.08441013 -0.08169231
000190 5c 9e c7 3d 46 5c f1 3d 2d e0 be bd 66 37 7d 3d
       0.097470015 0.11785178 -0.09320102 0.06182041
0001a0 10 97 81 bc c8 f3 d7 bc 69 80 96 bd 5a 82 95 3d
       -0.015819103 -0.026361361 -0.07348711 0.07300253
0001b0 f8 78 e2 bd c3 ea e5 bd da de ce 3d 76 98 c8 bc
       -0.11058229 -0.11226418 0.10101099 -0.024486762
0001c0 f4 c5 f0 3b df d1 18 be ae 85 1c 3c 3c 41 a6 bd
       0.0073478166 -0.1492381 0.009553356 -0.08117911
0001d0 e9 ea 96 3d 5c d9 67 3d c0 c4 88 bb e7 6a 3f bd
       0.07369024 0.056603774 -0.004173845 -0.04673281
0001e0 d0 94 20 3d 65 1c c6 bd ee 80 de bd 48 54 00 bd
       0.03920442 -0.096733846 -0.10864435 -0.031330377
0001f0 84 12 14 bd 5a d2 e6 3c 14 e7 83 bd 27 0c 74 bd
       -0.03615047 0.028176475 -0.06440559 -0.059581902
000200 5a 7d 9e bb 36 80 48 3e 80 d4 1e 3e 36 74 6c 3e
       -0.0048367204 0.19580159 0.1551075 0.23091206
000210 72 7a 59 bc 0f fb 84 bd f3 34 ee 3e e8 cc d6 3d
       -0.013273822 -0.06493198 0.46524772 0.104883015
000220 46 bb 28 3e 98 fa 22 be 36 83 17 3e 10 ec dc 3d
       0.16477689 -0.15915906 0.14796147 0.10787213
000230 a7 d4 a4 3e 67 db 5a bd de 94 0c 3e d9 b5 36 be
       0.3219349 -0.053431895 0.13728663 -0.17842807
000240 c4 69 d6 3e 73 e8 1c 3d 2e 89 4b 3d 68 a2 a3 bd
       0.41877568 0.03830762 0.04969137 -0.07989961
000250 b9 fe b1 3d 1c 6d 86 3e d0 9f 04 be 80 d0 4f 3d
       0.086911626 0.2625512 -0.12951589 0.05073595
000260 f3 87 ad bc 5b 86 da bd 64 69 46 3d b1 7f bf 3e
       -0.02118299 -0.106701575 0.048440352 0.37402108
000270 c4 19 87 bd 6b b3 7c bd df 06 3e 3e f6 e4 34 bd
       -0.06596711 -0.061694544 0.18557309 -0.044163667
000280 5e 01 fb 3d 0f 88 b3 3d de 73 6a bd 7f 52 7e 3d
       0.1225612 0.087661855 -0.057239406 0.062090393
000290 3b 9c 44 3e fd 18 a4 be bd 78 9f bc 9e 0f 63 bd
       0.19200222 -0.32050315 -0.019466752 -0.055434816
0002a0 59 c9 d6 bd 5c 37 59 3f cd 6d 18 bd f3 2e 44 3e
       -0.10487623 0.84850097 -0.03721409 0.19158535
0002b0 3d 3e e8 3e 01 0d 19 bc f3 94 ae 3d cf 12 50 3d
       0.45359984 -0.009341479 0.085245036 0.050799187
0002c0 19 f3 1d be 9e e5 17 be 35 bb 94 be 23 91 4c 3e
       -0.15424766 -0.14833686 -0.29049078 0.1997724
0002d0 b2 9c 2c 3d c3 4a 56 be 27 2e 2a bd 6b 14 8e 3c
       0.042141624 -0.20926957 -0.04154792 0.01734372
0002e0 aa 76 9e 3e c1 b6 a1 3c 8f 86 14 be ae 41 b1 3e
       0.30949908 0.019740464 -0.14504455 0.34620422
0002f0 71 e5 67 bd ad aa a8 3e 1b 5f 07 3d 04 c3 7a be
       -0.056615297 0.32942715 0.033049684 -0.24488455
000300 ff 7d ae bd c8 e6 4f be 2a e8 53 3e 99 cc 5a be
       -0.085201256 -0.2030288 0.20694032 -0.2136711
000310 32 69 8b 3e f7 b0 5b 3e 65 f0 40 bf 37 27 f9 bd
       0.27228695 0.21454225 -0.7536681 -0.12165683
000320 16 11 ca bd e4 50 43 be c7 e1 49 3e 98 0e 95 3b
       -0.0986654 -0.19073826 0.19715033 0.004548859
000330 79 fa 40 be 4f 67 73 3e a0 e8 8e be b5 40 3f bc
       -0.18845548 0.23769878 -0.27911854 -0.011673142
000340 c2 49 02 bf 84 29 0d 3e 48 86 41 3e 9c 19 2c 3e
       -0.50893795 0.13785368 0.1889888 0.16806644
000350 a0 5e 8b bd f1 fa 4c 3e be 29 d2 bd 65 a1 12 3d
       -0.06805158 0.20017602 -0.10261868 0.03579845
000360 6f e6 6b be 25 42 7e 3d 89 c1 99 3c ba 01 79 3e
       -0.23037122 0.0620748 0.018769043 0.24317065
000370 de 5f f9 bd 4c f1 95 3e 37 cb 9f be 8a 22 4b bb
       -0.12176488 0.29285657 -0.31209728 -0.0030995929
000380 e4 98 e1 bc ec 9d 0d bd 07 86 0d 3e d5 d3 54 be
       -0.027538724 -0.034574434 0.13820659 -0.20783933
000390 1d 77 21 3e f3 2c a8 3b 0f 65 d6 be c5 b7 57 be
       0.15768094 0.0051323115 -0.41873977 -0.21066196
0003a0 cd 6c 41 3e 7f 15 c0 be 69 11 53 3d b6 80 05 3f
       0.1888916 -0.375164 0.051530275 0.5214952
0003b0 2c b0 87 be 35 45 97 3e 44 46 b4 3d d7 c1 2f be
       -0.26501596 0.29544988 0.088024646 -0.17163788
0003c0 a1 2e 41 be b8 9e 0b bd 9d 50 e5 3d db d0 32 3e
       -0.18865444 -0.034086913 0.111970164 0.17462485
0003d0 26 4c cc be e2 d7 8c 3d 6a 22 f3 3e c8 b4 53 3e
       -0.39901847 0.06877114 0.47487193 0.20674431
0003e0 32 ea 38 be e8 0e 1a 3e cd 8f 8b 3e 21 16 61 3e
       -0.18058088 0.15044749 0.2725815 0.21981098
0003f0 26 23 f7 3d ce 4c 2e 3d 0f 2d 07 bd 6d 44 05 3e
       0.12067251 0.042553715 -0.033001956 0.13014384

feature_layer.2.bias f4 [64]
000000 d2 3b 71 3d b4 9b d6 bd 22 7f 0a 3e c9 05 f9 3d
       0.05889494 -0.10478917 0.1352506 0.121593066
000010 dc fa 1f bd 97 fa bc 3d cd 1e be 3d f8 cc d7 3d
       -0.039057598 0.09227484 0.092832185 0.105371416
000020 09 9d 86 3d 6a ae 17 3d e6 96 0e 3e 67 90 cd 3b
       0.06572921 0.03703157 0.1392475 0.0062733176
000030 af b6 5e 3d 8e f3 55 bd 0c a8 35 3e 13 60 9a bc
       0.05437344 -0.052234225 0.17739886 -0.01884464
000040 ab dc 80 3d 45 80 a5 3d 56 3c 66 bb 53 1a 35 bd
       0.06292089 0.08081106 -0.0035131178 -0.044214558
000050 6c 88 95 3d 6d 1c 42 3d 7b 93 5e 3e d9 eb 4e 3e
       0.07301411 0.04739039 0.21735947 0.20207156
000060 8a 60 c9 3c a1 ea db 3b 35 d2 fe 3d f8 87 18 3e
       0.024582166 0.0067113196 0.124424376 0.14895618
000070 d0 ac d6 bd 97 4a 8c 3d 0b 9f 80 bd be a0 8c 3d
       -0.1048218 0.068501644 -0.06280335 0.06866597
000080 5d 02 05 3e de 61 dd 3d b9 3f a0 3d 53 78 1f 3e
       0.12989183 0.10809682 0.07824654 0.15573244
000090 77 8e c2 3d 5c 18 d7 3d a9 ee b7 3d 17 3d 2f bd
       0.09499829 0.10502693 0.08981068 -0.04278287
0000a0 7e 73 85 3d e1 3f b8 bd c3 cf a3 bd df 5e c4 3c
       0.06516169 -0.08996559 -0.07998612 0.02397102
0000b0 c1 73 6b bd d1 3a 07 3e 57 d5 20 3e 46 f2 85 3e
       -0.05748344 0.1320603 0.15706383 0.26161402
0000c0 47 62 c0 3d 8d 11 b5 3d 5b 2d 35 3e f3 bf 37 3e
       0.09393745 0.08841238 0.17693083 0.17944317
0000d0 d3 ca 1e 3e 0b a1 32 bd b1 15 d0 3d 09 43 2b 3d
       0.15507059 -0.043610614 0.10160387 0.041811977
0000e0 ac 49 ee bd d8 a6 04 be 4f 7f 0f 3c 40 c9 33 3d
       -0.116351455 -0.12954271 0.00875838 0.0438931
0000f0 1d 95 00 bc 98 26 f3 3d c2 fe c2 bd 00 5a d7 3d
       -0.007848051 0.118725955 -0.095212474 0.10515213

advantage_layer.0.weight f4 [64, 64]
000000 14 b8 17 3e 29 f6 1b 3c 1f 56 96 3e e9 54 b9 bd
       0.14816314 0.009519138 0.2936258 -0.090493985
000010 81 f5 a0 3d 15 35 26 be 4e 03 04 be f4 9e 3c 3e
       0.07859326 -0.16231187 -0.12891886 0.18420011
000020 40 9b 9a bc 5c 75 85 3e 61 d1 d3 3c 4b b6 c8 3e
       -0.018872857 0.260661 0.025856676 0.39201578
000030 31 3a 30 be 88 d2 5f 3d ef 2f 71 3d 57 8b 18 3d
       -0.17209698 0.054644138 0.058883604 0.03724226
000040 32 de 93 3e bc a5 f6 bd 60 60 8c 3d 99 7d 59 bd
       0.2888046 -0.1204333 0.068543196 -0.053098295
000050 3a 0f ff bd 36 fb c0 3e d5 ef 37 be c6 4d 6b bd
       -0.12454076 0.3769166 -0.17962582 -0.057447217
000060 d5 be c9 3d 3d 21 a8 3d 5a 36 90 bc 58 16 51 be
       0.098508514 0.08209465 -0.017604042 -0.2041868
000070 20 66 99 3c da 11 03 be 66 24 86 bc 09 af c5 3d
       0.018725455 -0.12799779 -0.016374778 0.09652526
000080 1b 35 7a 3d 74 7c fa bd dc af 09 bf 6f 12 85 bd
       0.0610858 -0.12230769 -0.53783965 -0.064976566
000090 96 b1 83 3c 1b e3 92 bd 06 9a b1 3d b7 6f 83 3e
       0.01607589 -0.07172223 0.08671956 0.2567117
0000a0 92 ae 51 bd 0a ad 0a 3e 34 0f 8c 3e 91 66 dd bd
       -0.051191874 0.13542572 0.2735535 -0.108105786
0000b0 08 76 a1 3e eb 91 8b 3d ed 19 84 bd 23 c7 c0 be
       0.31535363 0.06814941 -0.064502575 -0.3765193
0000c0 ba 0e 80 3d ed 5e 80 3d 95 a1 d5 be 1a 21 b2 3d
       0.06252809 0.06268106 -0.4172484 0.0869772
0000d0 b8 99 75 3e 32 df 6d 3e 8f ad 19 be 64 fe 03 be
       0.2398442 0.23229674 -0.15007614 -0.12890011
0000e0 22 30 2f bf 4b 34 21 bf bf 75 a3 3e f5 30 8e 3e
       -0.6843282 -0.6297042 0.3192577 0.27771726
0000f0 96 ec 09 3e 5f c4 93 3e d3 45 8e bd 67 03 72 be
       0.13469157 0.28860757 -0.06946912 -0.2363411
000100 b3 bd 7c be 7a d1 e1 bb 5f 0d a0 3e 55 a1 41 3b
       -0.2468174 -0.0068914266 0.312602 0.0029545624
000110 29 e0 12 3d eb 0c 85 be 3c fa 36 3e 9b 4d cb 3d
       0.035858307 -0.25986418 0.17868894 0.099269114
000120 50 97 00 be fa 5c 20 3e 44 e2 0c 3e 59 8a 11 3e
       -0.12557721 0.15660468 0.13758188 0.14212932
000130 1b 90 01 bf b3 24 d5 bd 3f a5 38 be 62 11 71 bd
       -0.5061051 -0.104073904 -0.18031786 -0.05885447
000140 1c fc 1b bd 96 51 80 bd 4b 30 4f 3c a2 17 fa 3d
       -0.038082227 -0.06265561 0.012645791 0.12211539
000150 46 50 9c be 03 aa c9 be b6 ff 69 bd 1b 59 90 3e
       -0.30529994 -0.3938752 -0.05712863 0.28192982
000160 28 ee 10 be c7 5e 1a 3e 14 bf ce 3d bc 1f dd 3d
       -0.1415335 0.15075217 0.10095039 0.107970685
000170 68 f4 ce bc e7 ac 3c 3e 56 a2 a9 bd f0 b1 f0 3e
       -0.025263026 0.18425332 -0.08282916 0.47010756
000180 56 42 1e be 7e ce 83 be ec 63 de bc ea 13 53 3c
       -0.15454993 -0.2574348 -0.027147256 0.012883166
000190 79 d2 6c 3d 61 4d 78 be 15 c8 37 3e 84 a6 7f ba
       0.05781791 -0.24248268 0.17947419 -0.0009752291
0001a0 ae 59 3f 3d d6 d4 29 be 62 fb 8f 3d ca 70 1a bf
       0.046716385 -0.16585097 0.07030369 -0.6032835
0001b0 77 56 20 3e b1 43 70 3e 48 66 17 be b7 93 3c be
       0.15657984 0.23463322 -0.14785111 -0.18415724
0001c0 3f f6 58 3d 2b 9d 1b be 21 35 e1 bd b8 d9 28 3d
       0.052969214 -0.15196674 -0.10996462 0.041223258
0001d0 ce 3b 24 3d 7f 61 ca 3b 50 cf 8b 3c 68 a5 64 bd
       0.040096097 0.006176173 0.017066628 -0.055821806
0001e0 38 4a ce be 24 63 1e 3f 48 4c d2 3d d7 43 21 3e
       -0.40291 0.61870027 0.10268456 0.15748535
0001f0 3e 68 18 3d 2b 48 fa bc 54 59 35 3d d3 c4 44 be
       0.037208788 -0.03055199 0.044274643 -0.19215707
000200 b6 e9 95 bd 94 20 b9 bc 25 00 19 3d ca a4 59 bd
       -0.073199674 -0.022598542 0.037353653 -0.05313567
000210 6c a1 91 bd 7b be df be a8 c8 ca bd ab 7d 2e bd
       -0.07110867 -0.43700013 -0.099015534 -0.042600315
000220 70 38 29 bc ff aa 04 be 65 95 84 3e 8d 07 95 3e
       -0.010328397 -0.12955855 0.2589523 0.29107323
000230 24 56 ed 3e 2e 26 1b bc 66 28 af bd 29 1e da bb
       0.46354783 -0.009469552 -0.08552627 -0.0066564274
000240 bf 0c 04 3e c4 ed 07 3e ed 39 c0 be 75 88 7e 3e
       0.12895487 0.13274294 -0.37544194 0.24856742
000250 c2 7d 16 3e 12 37 23 3e f6 94 d0 3d e0 c6 96 bd
       0.1469641 0.15938976 0.10184662 -0.07362151
000260 9f 00 4d be 77 40 42 be 7d fe 7f be 3c 8d 5d 3e
       -0.20019768 -0.18969904 -0.24999423 0.21635908
000270 be be a8 bd e3 18 94 3c 8b 39 f4 3d b4 54 1d 3e
       -0.08239506 0.018078273 0.11925038 0.15364343
000280 1f 0b 18 be 37 45 cf be bf fc 0e bf 81 ab 33 3e
       -0.14847992 -0.40482494 -0.5585441 0.17545892
000290 42 62 2e 3d 28 5a 9e be 62 40 a1 be d6 8d ff 3d
       0.042574175 -0.3092816 -0.31494433 0.12478225
0002a0 c4 37 d0 bd 9d 8a cf bd a1 fc b0 3c d1 be d6 3e
       -0.101668864 -0.1013386 0.021604838 0.41942456
0002b0 10 82 a7 3e 9b 27 85 3e 39 8e 4c be 9d 65 e0 be
       0.32716417 0.2600678 -0.19976129 -0.43827525
0002c0 1e 50 19 3c 1b cd cc bd 3c ac 2f be 16 f2 26 3f
       0.00935748 -0.10000058 -0.17155546 0.65213144
0002d0 59 f7 14 3e 61 71 78 bd cd b1 3e 3c 02 28 73 be
       0.1454748 -0.060655 0.011639071 -0.2374573
0002e0 d3 29 27 3f d1 5a 0c bf 55 db 43 3e c3 86 51 be
       0.65298194 -0.54826075 0.19126637 -0.20461564
0002f0 dc a9 0b bf 30 d2 e2 bc e4 c6 46 3d 19 16 ee be
       -0.5455606 -0.027688116 0.04852952 -0.46501234
000300 54 89 29 bf 0c 39 94 bd 2c d7 f3 3e b2 a6 c4 3d
       -0.6622517 -0.07237443 0.476251 0.09602107
000310 f9 39 01 3e 0e 24 ae be 22 2a d4 bc 46 6b 9b bb
       0.12619771 -0.34011883 -0.025898997 -0.0047430126
000320 d8 7e e6 3d 31 f4 fa bc 6e bf 06 be c4 3c 80 3e
       0.11254662 -0.030634018 -0.13158962 0.2504636
000330 24 c2 d7 bd 04 cd 68 bd 25 25 aa 3e ad bf 59 3d
       -0.10535076 -0.056836143 0.33231464 0.053161312
000340 53 9c 73 3e fb 22 14 be c6 d4 7c 3e 87 2e 25 be
       0.23790102 -0.14466469 0.24690542 -0.1613103
000350 31 05 f5 bd be 08 04 3f f6 e1 dc b9 0f 88 9c 3e
       -0.11963881 0.5157584 -0.00042130024 0.30572554
000360 e3 b5 a9 3d 67 40 61 3d 51 b3 2e 3e 90 59 5e be
       0.08286645 0.05499306 0.17060591 -0.21713853
000370 d8 8d ec bd f5 ae 5d 3e b4 1f d1 bd 68 d4 cf bd
       -0.11550492 0.21648772 -0.10211125 -0.10147935
000380 00 98 8e 3d a4 87 59 be ae e4 4f bf c4 f3 d3 be
       0.069625854 -0.21243149 -0.8120831 -0.41396916
000390 76 69 9b 3e 91 65 01 3d 05 de d2 3c b9 84 57 3e
       0.30353898 0.031591002 0.025740633 0.21046723
0003a0 d3 b0 2f bd 72 40 9f bd 48 c5 22 3e bd b6 43 be
       -0.042893242 -0.07775964 0.1589557 -0.19112678
0003b0 30 19 81 bd 4f 58 9f 3c 67 7b ab 3e 00 44 91 be
       -0.06303632 0.019451289 0.33492586 -0.28372192
0003c0 f6 f5 73 3d b9 d7 82 bd 5f dc 3e be 96 ef fb 3e
       0.05956074 -0.06388802 -0.18638752 0.49206227
0003d0 34 32 eb 3d fc 8c d7 3e 6e b2 10 bd 42 0e d7 3d
       0.11484185 0.4209975 -0.035326414 0.10500766
0003e0 db d6 43 be 12 66 0b bf 06 77 25 be d1 43 15 be
       -0.1912493 -0.5445262 -0.16158685 -0.14576651
0003f0 e4 f4 db bd af f5 cb 3e 1f 21 b9 bc d5 44 3a be
       -0.107400686 0.3983588 -0.022598801 -0.1819032

advantage_layer.0.bias f4 [64]
000000 80 16 b5 bd 1a cb b5 bd b6 21 84 be 7d 44 09 3e
       -0.08842182 -0.08876629 -0.2580697 0.13405032
000010 30 8f 3e 3d 5a 17 c2 3d 00 4b 09 be 4a d5 fc 3d
       0.046523273 0.0947711 -0.13407516 0.12345369
000020 ba b4 3a 3e 1c 40 36 3e 3b 39 8a 3d 9c 06 9a 3c
       0.18233004 0.17797893 0.06749197 0.01880198
000030 a2 d2 a8 bd c9 10 b8 bd ea 49 de 3d 34 de 44 bd
       -0.082433 -0.089875765 0.10853942 -0.048063472
000040 04 4a ce 3b ca 4d f8 3c a6 39 97 3d 73 d5 0a 3e
       0.0062954444 0.03031053 0.073840424 0.13557987
000050 24 af 31 3c c1 42 2a 3e f7 54 68 bd f6 7e 1e be
       0.010844979 0.16627027 -0.056721654 -0.15478119
000060 60 a7 81 3e 47 4a c7 3d f1 c0 b2 bd 91 a1 ec bd
       0.2532301 0.09730964 -0.08728207 -0.11554254
000070 fe 48 fb 3d 45 9d fd 3d 68 66 f3 3d ad 27 33 bd
       0.122697815 0.123835124 0.11884767 -0.04373901
000080 09 f5 1e 3e eb e6 74 3c a9 ba ae bc 9a 9b 0c 3e
       0.15523161 0.014947633 -0.02132924 0.13731232
000090 11 9f a4 3d 1b f5 1b bc 64 d3 a4 3d 93 0c 8b 3c
       0.08038152 -0.009518887 0.08048132 0.01697377
0000a0 69 f8 20 3e e4 ac 43 bd 5a 0f f3 3d d2 fb 84 3d
       0.15719761 -0.047772303 0.118681625 0.064933434
0000b0 29 d7 a0 3d 07 fa 8f bd 95 4e 91 bd 63 db c4 3d
       0.078535385 -0.07030111 -0.070950665 0.09612157
0000c0 1f 23 6f 3b 1c 01 37 bd 87 85 96 3c 2f 3e 7d bc
       0.003648944 -0.044678792 0.018374218 -0.01545672
0000d0 a0 f9 0a 3d 33 03 87 bd 08 8a 91 3c 73 86 94 3e
       0.033929467 -0.06592407 0.017766014 0.29008827
0000e0 92 05 24 bd 80 dd 1b bc 36 8d e2 bc 70 41 5c 3d
       -0.040044375 -0.009513259 -0.027655225 0.053773344
0000f0 31 fc e3 bd d5 f9 2a be cb 52 5a bd 0a 70 94 bd
       -0.11132086 -0.16696866 -0.053301614 -0.07247932

advantage_layer.2.weight f4 [4, 64]
000000 b7 e0 db 3b a8 e1 f5 3d d0 7e 82 be 15 c7 4f bc
       0.0067101377 0.12005931 -0.25487375 -0.012681742
000010 dd d4 d0 3c f2 72 cc be 51 0a a2 3d 1e 6e 9d 3b
       0.025492126 -0.39931446 0.07912124 0.0048043868
000020 33 25 67 be 97 4f 24 3e 88 ad 99 bd b3 93 55 bd
       -0.22572784 0.16045986 -0.075038016 -0.05214281
000030 be b5 26 bd 2b c4 5a bd 10 7d 68 bd 8f d3 22 3d
       -0.040700667 -0.053409737 -0.056759894 0.03975254
000040 d1 17 0c 3e a9 6d 85 bd 48 5e 97 bd 3b b3 4c 3e
       0.1368096 -0.06515057 -0.073910296 0.19990246
000050 04 f8 13 bf 46 62 21 3d b8 75 19 bd 56 db 8c be
       -0.57800317 0.03940036 -0.03746578 -0.2751109
000060 fb 54 88 3e 48 70 dd bd 96 48 0f bf 56 e9 55 bb
       0.26627335 -0.108124316 -0.5597013 -0.00326403
000070 56 85 4f bc 57 ac c4 3d 3b 14 c9 bd 53 67 c6 3c
       -0.012666067 0.09603184 -0.09818312 0.02421919
000080 1c 5f 3b 3e 4b 03 20 3e af 0a a9 3e ba 5e 3f be
       0.18298 0.15626256 0.33015963 -0.18688479
000090 40 80 17 3d 52 da 17 bf e6 e8 a7 3d 98 39 28 be
       0.036987543 -0.59317505 0.08198719 -0.1642822
0000a0 41 ef 92 be 7a 6a e8 bd c6 f9 a9 be ce 1f d6 3d
       -0.2869816 -0.11348434 -0.33198375 0.10455285
0000b0 d2 df da 3d aa 85 a2 be ec c7 96 3d 78 2f 3b 3c
       0.106872216 -0.31742603 0.07362351 0.011424892
0000c0 ba 1c 8d be 2c e5 05 3d 35 26 4f 3e c2 7f 05 be
       -0.2756098 0.03268926 0.20229419 -0.13037017
0000d0 0b 9d 1c 3e 35 11 3d 3e ed 7f ac bd bd 95 6f 3e
       0.15294282 0.18463595 -0.084228374 0.23396964
0000e0 4a 2d 09 3e da d1 a5 bd e2 8b 95 3d b4 8f be 3d
       0.13396183 -0.08096667 0.07302071 0.09304753
0000f0 08 ae aa 3d f1 d0 84 3d 1f 53 2a be 84 9d 2b 3d
       0.08333975 0.06485165 -0.1663327 0.041898265
000100 49 6f 17 bf 85 d9 00 be 72 c5 1c 3d 76 4c 20 bf
       -0.5915418 -0.12582977 0.038274236 -0.6261667
000110 0a 97 e7 be ab ae d4 3e cc 70 6a bd 71 20 f1 be
       -0.4523242 0.4153951 -0.057236478 -0.47095063
000120 e6 f4 15 bf dd fc 85 3e 96 48 32 3d 6d 85 d4 bd
       -0.5857681 0.26169482 0.043526255 -0.103770114
000130 68 30 26 bc 9f d4 05 bd f7 0d 89 3e 21 cb 37 3d
       -0.010143377 -0.032673474 0.26768467 0.044871453
000140 86 7d 74 3d bf c8 b7 3e bb 81 ec be 3d ae 53 3f
       0.05969002 0.35895345 -0.46192726 0.8268774
000150 ed 26 38 be 83 87 d4 3e 35 ba df 3d 43 11 0a bf
       -0.17983599 0.41509637 0.10924188 -0.5393259
000160 43 90 63 3d 7b 72 fd bd a1 3f d7 bd a0 a2 9c 3d
       0.0555575 -0.12375351 -0.10510183 0.07648206
000170 62 04 3c be 18 2d 9c 3d 81 19 92 3e 7b 37 ba bd
       -0.18361047 0.076257885 0.28535083 -0.09092613
000180 dc ba 60 3e c0 b4 72 3e 2a 74 93 3d 8b aa 6e bf
       0.21946281 0.23701763 0.07199891 -0.9322898
000190 11 3c c3 3c 43 5b 1d 3d d5 a3 84 bd 3b b5 a2 bd
       0.023832353 0.038417112 -0.06476561 -0.07944723
0001a0 50 84 ea bd c0 1f ef bd 54 96 1c 3f ac 39 89 3e
       -0.11451018 -0.11675978 0.6116688 0.26801813
0001b0 e6 d1 8b bd 1e 9c 02 bd 65 a1 05 be 9a 07 29 3e
       -0.06827144 -0.031887166 -0.13049848 0.16506806
0001c0 86 70 87 bf 67 e5 84 3d 80 79 ce 3e 58 f9 0d bc
       -1.0581214 0.064890675 0.40327072 -0.008665405
0001d0 03 ff 49 3e ec 0c 75 3e ef 99 06 be b1 f3 5e 3f
       0.19726186 0.2393071 -0.13144659 0.87090594
0001e0 ec d8 b2 3d 74 d0 48 bd 9f 3c 81 bf 11 42 7b 3e
       0.08732781 -0.04902692 -1.0096625 0.24536921
0001f0 40 be a3 bc 0b 15 a2 be 60 ab ed be ce fc e1 3d
       -0.01998818 -0.3165668 -0.4641981 0.11034547
000200 92 a5 5f 3e 60 71 84 be 6d 8c 0b 3f dd f7 a2 3e
       0.21840504 -0.25867748 0.5451115 0.3182973
000210 32 1f 7f bd 75 df cf 3e 9f c3 95 3d 6f 91 f9 bd
       -0.06228561 0.40600172 0.073127024 -0.121859424
000220 ad 49 da 3e 8d 98 58 be 54 e2 37 3e 3c 0a 19 bd
       0.42634335 -0.21151944 0.17957431 -0.037363276
000230 fd 63 e4 3d 59 73 dc 3e 79 4c 8c 3d 28 c6 b4 bd
       0.11151884 0.43056753 0.068505235 -0.08826858
000240 5b a1 d4 bc f2 af d5 3e 7a 00 ef 3d 35 2f f5 be
       -0.025955847 0.41735798 0.11670013 -0.4788758
000250 25 a8 35 3f d4 69 ac be 0a cc 91 3e c1 83 18 3f
       0.70959693 -0.3367449 0.28475982 0.5957604
000260 37 41 4e bf 08 a7 b9 3e d3 5a 0a 3f 3d 4d 28 3d
       -0.8056826 0.36260247 0.54044837 0.041089285
000270 e8 6a a1 3e 65 89 3e be 91 8a cc 3d c5 a2 0c be
       0.31526875 -0.186071 0.09987367 -0.13733967
000280 6e a1 21 be 9e 10 db be 4d 05 c2 be 2c 6d ce 3e
       -0.15784237 -0.42786115 -0.3789467 0.40317667
000290 5d af 32 3d 1d fe c8 3e d3 89 a4 be fc 01 84 3d
       0.04362427 0.39256373 -0.32136402 0.06445691
0002a0 a3 1b 86 3e d5 85 9d bd d0 f9 99 3e ce 41 87 3d
       0.2619296 -0.07691542 0.30073404 0.06604348
0002b0 50 7d ae bd 27 74 03 3f ff a1 ec bc 74 d4 ea be
       -0.08519995 0.5134911 -0.02888584 -0.45865214
0002c0 a0 3a 0e 3f 30 92 f2 bc 2b 5b d1 be e9 fb aa 3e
       0.55558205 -0.029610723 -0.40889868 0.33395317
0002d0 6c 53 e7 be a9 3f c6 be f1 cc 13 3e 9a 08 a3 bd
       -0.45180833 -0.38720444 0.14433648 -0.07960625
0002e0 bd 8d ad be 34 7d 63 3d db 63 ba 3d a4 49 1f bd
       -0.338972 0.055539325 0.09101077 -0.03888859
0002f0 b3 de a5 bd 7f d9 b6 3e 1a 81 81 3e 74 dc 05 bd
       -0.08099117 0.3571281 0.2529381 -0.032680944
000300 ee 82 71 3e 22 10 b7 3e 1e 01 e8 be 0d 8f bf 3e
       0.23585102 0.35754496 -0.45313352 0.37413827
000310 fe 01 e9 3e da 06 16 bf 73 47 38 3d 20 12 b8 3e
       0.45509332 -0.58604205 0.044990014 0.35951328
000320 cf 0c 09 3e 2e bc 30 3d 4b ba 92 be 37 21 fc 3d
       0.13383792 0.043148212 -0.28657755 0.12311023
000330 83 5c 9d 3d f3 32 01 bf d6 6a d4 be c9 4a 76 3b
       0.07683661 -0.5046837 -0.4148776 0.0037581197
000340 c7 6f 85 3c c4 78 7c bf 46 65 38 3e 14 d0 02 bf
       0.016288651 -0.98621774 0.18007383 -0.5109875
000350 50 26 8d be 74 2c c6 3d 92 06 67 be f3 fc d6 be
       -0.27568293 0.096764475 -0.225611 -0.4198986
000360 b7 89 43 3f f5 96 c6 be e3 9d e1 be 6e c8 83 3d
       0.7638201 -0.38787046 -0.4406577 0.06434713
000370 cb d3 25 bd 4d fa 42 3d c6 b5 a1 be 84 f2 6a 3e
       -0.040485185 0.047601987 -0.31583995 0.22944075
000380 0b 2c 3b be 0c c7 84 3e 7c 78 a0 3e 14 d5 d3 3e
       -0.1827852 0.2593311 0.31341922 0.41373503
000390 29 89 53 3d 3f ec 0d bf ee 45 97 3e 7f 83 74 3e
       0.051644478 -0.5543861 0.2954554 0.23878287
0003a0 e3 94 4b be bb 1f b0 3d 86 3a 41 bf af 20 cc be
       -0.19881015 0.08599802 -0.75479925 -0.39868686
0003b0 8e 29 7e bc c1 bd bf be 25 a8 0e bc d3 55 86 3e
       -0.015512837 -0.37449458 -0.008707081 0.26237354
0003c0 f5 28 b8 3e 09 45 f5 3d 6a 5e 98 3d d1 c2 21 be
       0.35968748 0.11976058 0.07439883 -0.15796973
0003d0 bb 63 35 3e 2e 1e 1c 3e 14 7a 7b be 66 21 2f bf
       0.17713825 0.15245888 -0.24558288 -0.68410337
0003e0 a3 32 be 3e 32 18 82 bd cb cf 9f 3e 75 37 5a be
       0.37148008 -0.06352271 0.3121322 -0.21310218
0003f0 b2 0a a2 3d fa 25 e9 be 1a 23 96 3d 44 dd 06 3d
       0.07912196 -0.45536786 0.07330914 0.03292586

advantage_layer.2.bias f4 [4]
000000 53 e2 8e bc 4e 49 57 3d a2 58 67 bd 67 d6 a4 bc
       -0.017441904 0.052560143 -0.05648101 -0.020121766

value_layer.0.weight f4 [64, 64]
000000 12 43 74 bf 74 46 c6 3d 9e 8b 04 3e 80 7e 6f be
       -0.9541484 0.096814066 0.12943885 -0.233881
000010 ce 57 50 3d 9e cf 7a be 7e 17 85 3d e8 d2 3e 3e
       0.050864987 -0.24493262 0.064986214 0.18635142
000020 f9 09 6c 3e ad b7 1c 3e 0d 05 13 3e e4 7d 5c 3e
       0.2305068 0.15304442 0.14357395 0.21532398
000030 61 a2 76 3e e9 6c 80 3d 60 bd 9c 3d a7 37 d4 3d
       0.2408538 0.06270773 0.07653308 0.10362177
000040 23 db be ba b9 3a 14 3e cf 1c 80 bd 17 75 7a 3e
       -0.0014561157 0.14475526 -0.06255495 0.24458729
000050 ee 5a 7e 3e 57 52 3f 3e d7 bc 47 3d f4 81 83 3e
       0.24839374 0.18683754 0.048764076 0.25685084
000060 ab 15 4c be b6 5f 47 bd 96 b6 18 bf bf ee 52 3b
       -0.1993014 -0.04867526 -0.59653604 0.003218576
000070 f4 3e 69 bd 9a b0 21 3e ca 05 93 bd 15 74 75 3e
       -0.056944802 0.15790024 -0.071788386 0.23970063
000080 d2 07 a2 3d 62 ab 36 be 08 96 2c be 16 4c 9f 3e
       0.07911648 -0.17838815 -0.16854107 0.31112736
000090 8e b5 1d 3e 29 ca cd 3d 4a fb 11 ba 2d 90 d5 3d
       0.15401289 0.100483246 -0.0005568756 0.1042789
0000a0 82 0b 8e 3c dc ab b1 3d 00 25 fc be 70 25 a7 be
       0.017339472 0.08675358 -0.4924698 -0.3264575
0000b0 49 db ed be b1 28 1f 3e f3 26 e6 bd 12 cb 41 3d
       -0.46456364 0.15542866 -0.11237898 0.047312804
0000c0 f9 53 05 be 16 ab 17 3c 4f bf 93 bc 78 d7 35 bf
       -0.13020314 0.009257099 -0.018035559 -0.71031904
0000d0 e7 41 70 3e e4 1c d6 3e 6c 49 ee 3d da fe 98 be
       0.2346264 0.41818917 0.11635098 -0.29881936
0000e0 f8 d2 cb be 34 4b 32 3f b5 1a 69 3e a4 81 01 bd
       -0.39809394 0.69646 0.22764094 -0.031617776
0000f0 f7 87 70 3c bf d0 0c bf ee 1e 20 bd ea e0 2d be
       0.014680854 -0.5500602 -0.039091997 -0.16980329
000100 bb 44 00 bd bc 9e b8 3d a5 65 d1 bc 57 b8 5f bc
       -0.031315546 0.09014651 -0.025561163 -0.01365479
000110 15 48 02 be ce 0d 9c 3d 97 1b c3 bd 67 29 46 3d
       -0.1272281 0.076198205 -0.09526747 0.048379328
000120 d4 00 07 bd b0 ae b6 3c dd d8 92 3d 36 37 11 3c
       -0.032959774 0.022300094 0.0717027 0.008863261
000130 08 60 03 bd 98 c6 d3 3c e9 7f 69 bd 56 8d 6c bd
       -0.032074004 0.025851533 -0.05700675 -0.057751976
000140 fe 34 99 3d 70 ea 56 3c a1 bc 85 bb f5 3e 96 bd
       0.074808106 0.013117418 -0.004081324 -0.07336227
000150 12 8d b2 bd 04 7b 92 3d 2f c4 b0 bd 31 3a 0d be
       -0.08718313 0.071523696 -0.08631169 -0.1379173
000160 5b 30 2e bd 44 c3 f0 bd 80 53 49 bd f7 b6 83 bd
       -0.042526584 -0.11755994 -0.049151897 -0.06431382
000170 70 e3 e8 3c cf 03 9e 3d 92 1e a6 3d b5 67 a1 bd
       0.028428763 0.0771557 0.081112996 -0.07881109
000180 ad 6e a3 3d 91 8d ba bc ba aa 21 be 32 48 7a bd
       0.07980094 -0.022772582 -0.15787783 -0.061104007
000190 56 28 00 be 3a 52 a1 3d 68 f9 1e be 12 57 1e bd
       -0.12515387 0.078770116 -0.15524828 -0.038657255
0001a0 bf a6 57 bd 2e b8 00 3e e5 5d 12 3d 44 16 03 3d
       -0.052649256 0.12570259 0.035734076 0.032003656
0001b0 cb ee af bd 8d 43 db bd 21 9b 9f 3d 18 c3 6d bd
       -0.08590468 -0.10706244 0.0779326 -0.058047384
0001c0 dd 97 d5 3d cf 13 fe bd de de de bc 87 bd 95 bd
       0.10429356 -0.12406122 -0.02720588 -0.0731154
0001d0 4d 81 66 3c 3a 0c f0 3c 0f 3a 52 3c 28 6a 18 3c
       0.014068914 0.029302705 0.012831225 0.009302653
0001e0 dd f8 dd bd 80 1c 7d 3b 8a 38 cc bd c9 02 f9 bd
       -0.108384825 0.0038621724 -0.099717215 -0.12158734
0001f0 b5 99 5b bd 3b 16 86 3d 3a 15 c3 3d 80 9a 5e bd
       -0.053613383 0.06547209 0.09525533 -0.05434656
000200 da 60 d1 bd 00 2a 9d 3d 2e d8 9d 3d 23 8e a1 3d
       -0.10223551 0.076740265 0.07707249 0.078884386
000210 cd 5f ef bd cc 75 58 bd cc 8b c9 bd ed 4a 3b bd
       -0.116881944 -0.052846715 -0.09841117 -0.04572575
000220 2d 3e 83 bd b5 29 b0 bd 38 9a 5d bd 4a c2 03 bd
       -0.064083435 -0.08601705 -0.054102153 -0.03216771
000230 3c 2b cd 3d 70 c0 41 bc b2 7c cd 3d 4d 31 83 bd
       0.10018012 -0.011825666 0.10033549 -0.06405888
000240 3b 25 8f bd f2 91 7c bd e4 cc a9 bd ba c2 f4 3c
       -0.06989523 -0.06166262 -0.08291033 0.02987801
000250 0d 04 e9 bd 94 70 06 be 54 48 bd bd 41 e3 62 3c
       -0.11377726 -0.13128883 -0.09242311 0.013848127
000260 64 a6 af 3d ad ac 8d 3d 80 50 20 3d 60 07 ec bd
       0.08576658 0.06917701 0.03913927 -0.11524844
000270 9e 00 e4 3d 1d ed 70 bd be 0d af bd 5e b4 d1 bd
       0.1113293 -0.05881988 -0.08547543 -0.102394804
000280 47 7b 6c bc a0 fc df bd 68 ab 96 bc 0c b7 d0 bd
       -0.0144336885 -0.10936856 -0.01839228 -0.101911634
000290 69 2f d6 3d a3 6f 8f bd 06 70 75 3c d4 4f 0f 3c
       0.104582615 -0.07003715 0.014980322 0.00874706
0002a0 08 ff d1 3d 96 9d 82 bd d2 cb a4 3c c9 8a 9d 3c
       0.102537215 -0.063777134 0.02011672 0.019231217
0002b0 1e d3 af bd 64 0f e2 bd ba d5 99 3d 0e a3 69 3d
       -0.08585189 -0.11038092 0.07511468 0.057040267
0002c0 df 17 6a bc 50 aa 10 be db 65 ac bd e2 a1 9d bd
       -0.014287918 -0.14127469 -0.08417865 -0.07696892
0002d0 74 4a 66 3d ec af aa 3c 98 d2 e1 bd fc 54 ce bd
       0.056223348 0.02083584 -0.11026496 -0.10074803
0002e0 b3 93 f4 bd 78 3b 9d 3c eb a2 55 3d fd 8d d8 bb
       -0.11942234 0.019193396 0.052157324 -0.006608723
0002f0 4b dd ba bd 2b fb 0f 3c fc 0f 51 3d b9 8d 88 3d
       -0.091242395 0.00878791 0.051040635 0.066676565
000300 58 3c 59 3f 20 7a ce 3d 4a 50 3c 3d 42 46 99 3e
       0.848577 0.10081887 0.045975007 0.29936415
000310 16 14 c4 3d 52 bb 3d 3f 91 87 35 3d 1b b2 7d 3e
       0.095741436 0.74113953 0.04431874 0.24774973
000320 36 0f 59 3c da e7 c0 3d 33 46 71 3d 36 e3 c8 3c
       0.0132482555 0.09419222 0.058904838 0.024522405
000330 58 55 e8 bd 62 70 86 bd 1b 94 29 bd f6 9f e7 3d
       -0.11344403 -0.06564404 -0.04140101 0.11309807
000340 15 13 81 3c 95 94 d2 bd 9a 0c d0 3e 97 f5 60 3d
       0.01575617 -0.10282246 0.40634614 0.054921713
000350 84 c9 3c 3e f3 a2 15 be 09 6f b8 3d 10 a1 05 bd
       0.18436247 -0.14612941 0.09005553 -0.032624304
000360 cb 1a ad 3e 96 98 b6 3e ec c6 17 3f a9 af ee bd
       0.33809504 0.3566329 0.59287906 -0.11654598
000370 0e c9 d8 3d 55 dd 1d be 0a c6 0f 3d 98 b1 9d 3d
       0.10585223 -0.15416463 0.035100974 0.07699889
000380 10 fb 95 3e 7a 0b 13 3f 9e 08 0c 3f e0 71 95 be
       0.29293108 0.57439387 0.5470065 -0.29188442
000390 8a 96 e2 bd 0d 2f b6 3e 9a a2 04 3e 14 49 48 3e
       -0.11063869 0.35582772 0.12952653 0.19559127
0003a0 93 e5 67 3e 3a ab 7a 3c 43 a0 45 3f 4c eb fe 3e
       0.2264617 0.015299613 0.77197665 0.49788892
0003b0 ee 0d 69 3f 0b 5f 19 be ae 66 7b 3e a2 c9 15 3e
       0.9103688 -0.14977662 0.24550888 0.14627698
0003c0 7d a8 a7 3e 63 b5 a6 3e 3c b1 1c 3e e9 a1 97 3f
       0.32745734 0.32560262 0.15301985 1.1846286
0003d0 7b 51 95 bd b8 94 c1 be 69 38 21 3e 8f 58 a6 3e
       -0.07290932 -0.37808776 0.15744175 0.3248944
0003e0 7e 33 59 3f e9 b4 5d bf 96 2b 85 bc 18 f4 4a 3d
       0.84844196 -0.8660417 -0.016256135 0.049549192
0003f0 11 0b dd 3d df 46 1e 3f d4 bd 60 3d d8 27 1a 3f
       0.107931264 0.6182689 0.054868534 0.60217047

value_layer.0.bias f4 [64]
000000 4a 06 3d 3e 35 9a 07 bd d9 77 3a 3d a5 46 81 3e
       0.1845943 -0.033106048 0.045524452 0.2524921
000010 be 48 d3 bd 47 9b 0a be f0 23 bf 3d 93 03 7a 3c
       -0.10316609 -0.13535796 0.093330264 0.015259641
000020 d2 40 4e 3e fd 8c a9 bd 42 d4 ab 3d 1d db c2 3b
       0.20141914 -0.082788445 0.08390094 0.0059465305
000030 bc 67 c5 bd 5e 16 2d 3e e3 50 30 3e cb 9c 0b be
       -0.096389264 0.16903064 0.17218356 -0.1363403
000040 81 71 4e 3d 97 f6 d8 3d 13 d4 35 bd 33 4c 96 3d
       0.050401215 0.10593908 -0.044391703 0.073387526
000050 18 ea 67 bd 52 62 bd 39 ae d4 3f 3e d3 5e 19 3e
       -0.056619734 0.00036122144 0.18733475 0.14977579
000060 ec 86 06 3e a3 dc 16 3e fc af a7 bd a7 a2 ba 3d
       0.13137406 0.14732604 -0.08187863 0.09113055
000070 42 41 4e 3e bf 61 39 bd bf 52 0b be 33 eb 0a be
       0.20142081 -0.045259234 -0.13605784 -0.13566284
000080 5f 62 14 3e c3 a1 de 3d 18 85 12 3e 54 14 2f bd
       0.1449065 0.10870697 0.14308584 -0.042743996
000090 1a c8 be 3d b7 a1 13 3e d5 51 8c 3d 6d b9 8e bd
       0.0931551 0.14417158 0.06851546 -0.06968961
0000a0 f2 d5 aa bd d8 46 4a 3d 1e 3f f2 3c 97 ab 15 3e
       -0.08341588 0.049383968 0.029571112 0.14616238
0000b0 f7 a9 c4 bd 8b 8d 1b 3d f9 43 84 bd 5c 4d 4a bd
       -0.09602731 0.037976783 -0.06458277 -0.049390182
0000c0 e1 d2 d1 3d 54 c2 f1 bd 8b b3 1d 3e be 6f 70 3e
       0.102453 -0.11804643 0.15400521 0.23480126
0000d0 33 cf fc 3d 75 3a d0 3d 8d 9c 9b 3d a1 c8 f4 3d
       0.123442076 0.101674 0.07598219 0.119523294
0000e0 94 18 16 be 86 a3 75 bd a0 2f 87 bd 62 a8 38 bc
       -0.14657813 -0.0599704 -0.066008806 -0.011270614
0000f0 74 b3 2c bd f8 11 c1 3c 03 82 d0 3d 16 3b f1 3c
       -0.042163327 0.023568138 0.10181048 0.02944712

value_layer.2.weight f4 [1, 64]
000000 4a f5 cd be e9 f2 ac bd a3 42 01 3d 95 39 02 3f
       -0.40226203 -0.08444769 0.03155769 0.50869113
000010 e7 24 3a bf 74 b7 7e bf 4d f0 a7 be bc 47 9a bf
       -0.7271256 -0.9949868 -0.32800522 -1.2053142
000020 d1 ef 1b 3f bc 71 a6 3d 45 1b d2 3b 61 b4 b9 be
       0.60912806 0.08127162 0.006411942 -0.3627043
000030 d9 75 98 3f a8 ba 2d 3f c9 1d 00 3f d1 44 80 3d
       1.1910964 0.6786294 0.5004545 0.06263126
000040 57 a4 e5 3e 61 e5 88 be 5e 90 c0 be 2a 59 db be
       0.44851944 -0.26737502 -0.37610143 -0.42841464
000050 a8 28 d7 bc cc 09 2c 3f c1 f3 bb be c5 c9 eb be
       -0.026264504 0.6720245 -0.36709407 -0.46052375
000060 93 4e f4 be dc f8 a2 3f 0e 29 77 bf 20 45 89 3f
       -0.47716197 1.2732196 -0.9654702 1.072422
000070 92 15 17 3f f2 f5 a1 be fe 51 b5 3d 70 ff c5 be
       0.5901729 -0.31632954 0.088535294 -0.38671446
000080 db 37 a5 be 9c 8b 9e be 0a 46 a8 be 90 39 54 bf
       -0.32269177 -0.30965889 -0.32865936 -0.82900333
000090 25 f7 a1 3f bc af aa be 3b c8 c9 be 59 65 25 bf
       1.2653548 -0.333372 -0.39410576 -0.6460777
0000a0 7e ed 44 3d 94 89 16 bf ed cb 22 bf 3e 64 de be
       0.048078053 -0.5880368 -0.63592416 -0.43435854
0000b0 1d ce 0c 3b dc 3c 50 3d 89 2c 8f bf 0e d0 f0 be
       0.0021485158 0.05083929 -1.1185466 -0.47033733
0000c0 15 60 ab be db 22 9b 3d 3c 1f 12 3f 2b 85 12 40
       -0.33471742 0.075750075 0.5707891 2.289378
0000d0 35 fa be be 8b 8e c3 be cc a8 8e be cc 73 cc be
       -0.37300268 -0.3819469 -0.27863157 -0.39932096
0000e0 e8 e8 87 3d 1b f3 84 3d d6 24 9a 3d 4c 41 d4 be
       0.0663622 0.06491681 0.07526557 -0.41456068
0000f0 c0 70 c1 be 57 1b d7 be 64 84 6f 3f 6e 6c af be
       -0.37781334 -0.42013046 0.9356139 -0.34262413
