notebooks/final/2023-02-07-11-02-39_model_checkpoint.pth (torch, 57217 bytes, 11 tensors)

feature_layer.0.weight f4 [64, 8]
0	0x3eb4daf4	0.35323298
1	0x3e41bd61	0.18919899
2	0x3f0a3df6	0.54000795
3	0x3e0c3d4c	0.13695258
4	0xbce4adc2	-0.027914885
5	0x3f6438ff	0.8914947
6	0x3e1516ae	0.14559433
7	0xbfaffe8a	-1.3749554
8	0x3e934c4a	0.2876914
9	0xbe84322b	-0.25819525
10	0x3fd07304	1.62851
11	0xbd75e2ae	-0.06003063
12	0xbeb4216a	-0.35181743
13	0x3e56433a	0.20924082
14	0x3e984c9e	0.29745954
15	0x3d107f4a	0.035277642
16	0xbe37c270	-0.17945266
17	0xbe38d0c4	-0.18048388
18	0xbd656075	-0.05600019
19	0xbed0898a	-0.40729934
20	0x3f8294fb	1.0201715
21	0xbdb44b64	-0.08803442
22	0xbcfc3ef7	-0.030791743
23	0x3e1807f9	0.14846791
24	0x3f54b526	0.8308891
25	0xbda39399	-0.079871364
26	0x3dffc01b	0.12487813
27	0x3e1f7760	0.15572882
28	0x3e1653d1	0.14680411
29	0xbd99b0e7	-0.075044446
30	0xbefe840b	-0.49710116
31	0xbdc2d96d	-0.09514127
32	0xbeeccfeb	-0.4625238
33	0x3a01b16a	0.0004947396
34	0xbebc6c85	-0.36801544
35	0xbdbe724a	-0.09299143
36	0x3f81a5a6	1.0128677
37	0x3e4becd1	0.19914557
38	0xbe98ffcb	-0.29882655
39	0x3e83ca48	0.25740266
40	0xbc85e124	-0.016342707
41	0xbf302f71	-0.6882239
42	0xbe1e132b	-0.15437
43	0xbe1c64fa	-0.15272895
44	0x3ebabc31	0.36471704
45	0x3e935732	0.28777462
46	0xbedfcce7	-0.43711016
47	0x3db52b63	0.08846166
48	0x3d978462	0.07398297
49	0xbf5e176e	-0.867545
50	0xbdc75f4f	-0.097349755
51	0xbe4410b7	-0.19147001
52	0x3eaea134	0.34107363
53	0x3e570c70	0.21000838
54	0xbddda57d	-0.1082258
55	0x3e286c01	0.1644745
56	0xbe59d8f6	-0.2127417
57	0x3d741b88	0.05959657
58	0x3ed1f421	0.41006568
59	0x3b926860	0.004468009
60	0x3d99c930	0.075090766
61	0x3e8310e5	0.25598827
62	0x3f3022e0	0.68803215
63	0xbef762f2	-0.48317677
64	0xbea22199	-0.31666258
65	0x3e3a05a8	0.1816622
66	0xbe77d602	-0.24202731
67	0xbdb1087a	-0.08644195
68	0x3f1fd4ec	0.6243427
69	0x3eada7a9	0.33916977
70	0x3ebbcafb	0.366783
71	0x3e6e7ff0	0.23290992
72	0x3e817f17	0.25292274
73	0x3d926187	0.07147508
74	0xbe18df00	-0.14928818
75	0x3d4f1527	0.05055728
76	0x3e0bb198	0.13641965
77	0x3ed56390	0.41677523
78	0x3f14f3a3	0.5818426
79	0xbef60c25	-0.4805614
80	0xbec16bec	-0.3777765
81	0x3dec0566	0.11524467
82	0xbeafe312	-0.34352928
83	0x3f21216d	0.6294163
84	0x3ed8409e	0.422368
85	0xbdfac653	-0.122448586
86	0xbe218b42	-0.15775779
87	0x3df63b96	0.12023084
88	0xbe876fb1	-0.264524
89	0xbe6dcfa3	-0.23223738
90	0xbd266dba	-0.040631987
91	0x3e1dea17	0.1542133
92	0x3eb6c8c7	0.35700056
93	0x3ecfa288	0.4055369
94	0x3d05adb0	0.032636344
95	0x3e40bfef	0.18823217
96	0xbef7f0d7	-0.48425934
97	0x3e2d96a3	0.16951995
98	0x3e922616	0.28544682
99	0xbee019c3	-0.43769655
100	0xbe46d085	-0.19415481
101	0xbee0e062	-0.4392119
102	0xbeb4126f	-0.35170314
103	0x3ee3dee3	0.44505987
104	0x3e89bff6	0.26904267
105	0xbd57dc4b	-0.052700322
106	0x3e8bab9f	0.27279374
107	0xbec30b13	-0.38094386
108	0x3fabd4c2	1.3424304
109	0xbeb38175	-0.35059705
110	0x3f61e24a	0.88235915
111	0xbe945b59	-0.28975943
112	0x3df23efe	0.11828421
113	0x3e6522ec	0.22376603
114	0x3e5c9508	0.21541226
115	0x3e7be6f2	0.24599817
116	0xbe3b849f	-0.1831231
117	0xbf486afd	-0.7828825
118	0xbf903b6d	-1.1268135
119	0x3cb7d31c	0.022439532
120	0x3d740220	0.05957234
121	0xbd727eb7	-0.059202876
122	0x3eaed40c	0.34146154
123	0x3e957fce	0.2919907
124	0x3fca0d43	1.5785297
125	0x3cbb83a0	0.022889912
126	0x3e5da0e5	0.21643408
127	0xbc550773	-0.013002264
128	0x3cc7e4b5	0.024401048
129	0x3cdcb758	0.026942894
130	0xbd4a8e42	-0.049452074
131	0x3d2d439d	0.04230081
132	0x3fe1e868	1.764905
133	0xbc8bfebd	-0.017089242
134	0xbd28ce29	-0.041212235
135	0xbf457db7	-0.7714495
136	0xbd9d3089	-0.07675273
137	0x3e42a5f2	0.19008616
138	0xbede3e06	-0.43406695
139	0x3e32f701	0.17477037
140	0x3f6c9bde	0.92425334
141	0xbb77be63	-0.0037802688
142	0x3eacae81	0.33726886
143	0x3e80d23d	0.251604
144	0x3dbabe1b	0.09118291
145	0x3f06edc9	0.5270658
146	0xbdb7bfb4	-0.08972111
147	0xbf030472	-0.5117866
148	0x3f1b71e9	0.6072069
149	0x3bc125e0	0.0058944076
150	0xbec511d0	-0.38490152
151	0x3f00d991	0.5033198
152	0xbf37d681	-0.7181168
153	0xbf006187	-0.50148815
154	0x3e10817b	0.14111893
155	0xbe2108dc	-0.15726036
156	0xbe9454ca	-0.2897094
157	0xbc174946	-0.009233778
158	0x3cc1a5f8	0.02363871
159	0xbe9a7552	-0.30167633
160	0xbe43f4fc	-0.19136423
161	0xbe5527a7	-0.20815907
162	0x3f1723f9	0.59039265
163	0xbf27c0f9	-0.6552883
164	0x3d6380cb	0.05554275
165	0x3e0c5c57	0.137071
166	0xbebc3c0c	-0.36764562
167	0x3eb5744c	0.3544029
168	0x3cb9a781	0.02266288
169	0x3d418e36	0.047254764
170	0xbf0b413a	-0.543964
171	0x3b14c72a	0.002270172
172	0x3db20a41	0.08693362
173	0x3f4d506b	0.80200833
174	0xbec96bbc	-0.39340007
175	0xbde15d90	-0.11004174
176	0xbe91464e	-0.2837395
177	0xbd1ce271	-0.03830189
178	0x3f6f8a68	0.93570566
179	0xbe334449	-0.17506517
180	0xbedb0d1d	-0.42783442
181	0x3e899966	0.26874846
182	0xbdb8c5a5	-0.09022073
183	0x3e71b7e9	0.23605312
184	0xba29b68a	-0.0006474039
185	0x3e8a8371	0.27053407
186	0x3d988e8d	0.074490644
187	0xbdd3221b	-0.103092395
188	0xbdac79b2	-0.08421649
189	0xbf03ea4d	-0.5152939
190	0xbe892e3f	-0.26793095
191	0x3ed14ee8	0.40880513
192	0xbad63969	-0.0016344014
193	0x3de30e76	0.110867426
194	0x3ef94913	0.48688564
195	0xbaf35beb	-0.0018566822
196	0xbfdcc138	-1.7246466
197	0xbe15d589	-0.14632238
198	0xbf94d870	-1.1628551
199	0xbeb649cb	-0.35603175
200	0x3ebe1fd2	0.37133652
201	0x3f1f6ca5	0.62275153
202	0x3f19b457	0.600408
203	0xbf2012d2	-0.6252872
204	0x3eea809b	0.45801243
205	0x3e98bdfb	0.29832444
206	0xbe9c5a69	-0.30537727
207	0x3cebc248	0.028779164
208	0xbef13353	-0.4710947
209	0x3e0d3552	0.13789871
210	0x3ef35899	0.47528532
211	0xbf5cf243	-0.8630716
212	0x3e790dcd	0.24321671
213	0x3e36cb82	0.1785107
214	0xbf3695d2	-0.7132236
215	0x3e20ae47	0.15691482
216	0x3ea14229	0.3149579
217	0xbe93e3d9	-0.2888477
218	0xbf2174bb	-0.6306874
219	0x3f0f3ef3	0.5595543
220	0xbd8f1611	-0.06986631
221	0x3db38806	0.08766179
222	0xbce64e5f	-0.028113542
223	0x3e84a74e	0.25908893
224	0x3f009876	0.50232637
225	0x3e93ef9c	0.28893745
226	0x3ea5b25f	0.3236265
227	0x3f18549b	0.595041
228	0x3e11106b	0.14166419
229	0x3ef0a94d	0.47004166
230	0x3cb49366	0.022042941
231	0xbe33bbf6	-0.1755217
232	0xbf01386b	-0.5047671
233	0xbe1635ca	-0.14668956
234	0xbf0f9eac	-0.5610149
235	0xbe7dd524	-0.24788338
236	0xbf45a12c	-0.77199054
237	0x3f16efa9	0.5895944
238	0xbe3e16d6	-0.18563399
239	0xbf4e70a4	-0.80640626
240	0xbccbb89d	-0.024868304
241	0xbe1a2fe3	-0.1505733
242	0xbeed7f49	-0.46386173
243	0xbdb7be6c	-0.08971867
244	0x3f770c2a	0.96502936
245	0xbe84748b	-0.25870165
246	0xbec92161	-0.3928328
247	0x3e3cdb82	0.1844311
248	0xbb8c1259	-0.004274648
249	0xbdae62c9	-0.085149355
250	0xbe22d569	-0.15901722
251	0xbe8efe66	-0.27928466
252	0x3dcaeb10	0.09908116
253	0x3f50060c	0.81259227
254	0x3db86b2f	0.09004819
255	0xbf4b2480	-0.7935257

feature_layer.0.bias f4 [64]
0	0x3e5f8412	0.21827725
1	0x3d8c2195	0.06842343
2	0x3e6c7a69	0.23093571
3	0x3d5046d8	0.050848812
4	0x3e9707f7	0.29498264
5	0xbf1cbb30	-0.61223125
6	0xbf0ccd17	-0.5500044
7	0x3e709b52	0.2349675
8	0xbe50d14e	-0.20392343
9	0x3ce026ad	0.027362192
10	0x3e56795d	0.20944734
11	0x3e996198	0.2995727
12	0xbdb4fa5b	-0.08836814
13	0x3da0978b	0.078414045
14	0x3c1c706c	0.009548288
15	0x3dc054ad	0.093911506
16	0xbbf75579	-0.007548031
17	0x3ed3796d	0.41303578
18	0xbdd75095	-0.10513417
19	0xbdbedb29	-0.09319145
20	0x3e9b7000	0.30358887
21	0x3ebaef68	0.36510777
22	0x3e8790e7	0.2647774
23	0x3e914410	0.2837224
24	0x3e84fbb3	0.2597328
25	0x3e804495	0.25052324
26	0x3e05acd7	0.13054214
27	0x3ed6321f	0.41835114
28	0x3e26bd79	0.16283216
29	0x3e82286f	0.25421473
30	0xbe3e107a	-0.18560973
31	0xbe7ba6e5	-0.24575384
32	0x3e9aab72	0.30208927
33	0x3e85d569	0.26139382
34	0x3ec3b793	0.38225994
35	0x3c991f3b	0.01869165
36	0xbd602e0f	-0.054731425
37	0x3c9ac477	0.01889251
38	0x3c894412	0.016756091
39	0x3e06a208	0.13147748
40	0x3e0ff7b6	0.14059338
41	0x3dfb087b	0.12257477
42	0x3db7f392	0.08982004
43	0xbe0518c5	-0.1299773
44	0x3e2ac309	0.16675963
45	0xbde3382e	-0.110947
46	0x3e924016	0.2856452
47	0x3e93bb92	0.28854042
48	0xbd1654a0	-0.0367018
49	0x3de5f49c	0.11228296
50	0x3da8a444	0.08234456
51	0x3e069977	0.1314448
52	0x3e2fb958	0.17160547
53	0xbe8d29ba	-0.27570897
54	0xbe981574	-0.29703867
55	0x3eb8c934	0.36091006
56	0xbe46db68	-0.19419634
57	0x3ea6e932	0.3259979
58	0x3ced0a24	0.0289355
59	0x3e94c7e3	0.2905875
60	0x3e09a9a0	0.13443613
61	0x3d86e731	0.06587065
62	0x3e407800	0.18795776
63	0xbd9ffd72	-0.07812013

feature_layer.2.weight f4 [64, 64]
0	0xbefc6a1b	-0.49299702
1	0xbfa47997	-1.2849606
2	0x3d996bd8	0.07491273
3	0xbca743fb	-0.020418158
4	0x3c06955a	0.008214319
5	0x3d8bb37e	0.06821345
6	0xbd086084	-0.03329517
7	0x3daa8158	0.083254516
8	0xbd228848	-0.03968075
9	0x3e0e82f9	0.1391715
10	0xbe1579b8	-0.14597213
11	0xbe59f1fa	-0.21283713
12	0xbebfe408	-0.37478662
13	0x3d8b681a	0.06806965
14	0xbc8d482e	-0.017246332
15	0xbdd0b049	-0.10189874
16	0xbe99ca30	-0.3003707
17	0xbc7408ab	-0.014894645
18	0xbdcaadfe	-0.098964676
19	0xbf1142ca	-0.5674254
20	0xbf11b2f8	-0.5691371
21	0x3cfdae18	0.030966803
22	0xbf0a2a10	-0.5397043
23	0x3e0cb8fa	0.13742438
24	0xbd851fe7	-0.065002255
25	0xbf6c6c31	-0.92352587
26	0xbf1adbff	-0.6049194
27	0xbe75d05d	-0.24005266
28	0xbf491291	-0.78543955
29	0xbf07a801	-0.5299073
30	0x3df85cfc	0.1212711
31	0xbe826fde	-0.25475973
32	0xbe3c9092	-0.18414524
33	0x3dccebd2	0.10005917
34	0xbe91a982	-0.28449637
35	0xbe9d1458	-0.30679584
36	0xbed87839	-0.42279223
37	0x3daa4910	0.08314717
38	0x3c8c42d1	0.017121704
39	0x3e8239a3	0.25434598
40	0x3d761b1b	0.060084444
41	0xbf838d64	-1.0277524
42	0xbb6d7eda	-0.003623894
43	0x3e95ae3e	0.292345
44	0x3d2eab1f	0.042643663
45	0xbee7dd4a	-0.45286018
46	0x3e50b236	0.20380482
47	0xbc682866	-0.014169788
48	0xbed204f7	-0.41019413
49	0x3e15fa4e	0.14646265
50	0xbea9bff0	-0.3315425
51	0xbce4942d	-0.027902687
52	0xbe7f57f2	-0.24935892
53	0xbce5eaab	-0.028066
54	0x3e4bda75	0.19907553
55	0xbdb294c7	-0.08719783
56	0xbe793a28	-0.24338591
57	0x3e74d95a	0.23911038
58	0x3eec8d5d	0.46201602
59	0xbf42ef32	-0.76146233
60	0x3f5219be	0.8207053
61	0x3d5afe1f	0.053465005
62	0xbf82593e	-1.0183485
63	0xbe10c6ae	-0.1413829
64	0x3ebb94a2	0.36636835
65	0xbe4a0c66	-0.19731292
66	0xbd90b5ff	-0.07065963
67	0x3c454059	0.012039267
68	0xbb388cb2	-0.0028160033
69	0x3ec7616a	0.3894151
70	0x3e9c1a24	0.30488694
71	0x3e9c45d6	0.3052203
72	0xbe36d5f8	-0.1785506
73	0x3ec02080	0.37524796
74	0x3dbf0dc2	0.09328796
75	0xbdabde47	-0.083920054
76	0xbf35783d	-0.70886594
77	0x3ea51005	0.32238784
78	0x3d2d6a5e	0.042337768
79	0xbc8eccea	-0.017431695
80	0xbf573006	-0.8405765
81	0xbd9636a4	-0.073346406
82	0xbea259d5	-0.3170916
83	0x3f487df1	0.7831717
84	0xbddc5625	-0.10758618
85	0x3e1abfd4	0.15112239
86	0xbe20f49d	-0.15718313
87	0xbe4fc30e	-0.20289251
88	0x3e4cc5f3	0.19997387
89	0x3d29cd85	0.041455764
90	0xbdd877b8	-0.105697095
91	0xbe85b7f2	-0.26116902
92	0x3e55e759	0.20889033
93	0x3ea8819d	0.32911387
94	0xbf2d66e2	-0.6773511
95	0x3ee03c38	0.43795943
96	0xbe716609	-0.2357408
97	0xbe560727	-0.20901166
98	0xbdee97b2	-0.11650027
99	0x3cd05f8d	0.025436187
100	0xbe70d6ff	-0.23519515
101	0x3f294c44	0.66132
102	0x3efa0fd2	0.48840195
103	0x3d661b24	0.056178227
104	0xbeb65cd7	-0.35617706
105	0xbeb5c6ba	-0.3550318
106	0x3df9f32f	0.12204587
107	0x3eb03e07	0.34422323
108	0x3d59ad1f	0.053143617
109	0xbd278a97	-0.040903654
110	0x3e5d9056	0.21637091
111	0x3da00288	0.07812983
112	0xbe74c58a	-0.2390348
113	0x3dae027e	0.08496569
114	0x3e3c9b8b	0.1841871
115	0x3e2e80a3	0.17041259
116	0x3e3a15b3	0.1817234
117	0xbcd50a50	-0.026005894
118	0x3e84f0e3	0.25965032
119	0xbe4bce43	-0.19902901
120	0xbf743875	-0.95398647
121	0xbdc44c1b	-0.095848285
122	0xbe18ea13	-0.14933042
123	0xbbc4c103	-0.006004454
124	0x3d74dcbc	0.05978082
125	0x3de3d891	0.11125291
126	0x3e149c9d	0.14512868
127	0x3bc1503b	0.005899457
128	0x3d9fd3be	0.078040585
129	0x3e1a04dd	0.15040918
130	0x3e71298d	0.23551007
131	0xbeafc3e7	-0.3432915
132	0xbc69cf0d	-0.014270556
133	0xbf07df00	-0.53074646
134	0xbebb8663	-0.36625966
135	0xbb66616a	-0.0035153278
136	0xbc91bda9	-0.017790632
137	0xbe9ca3d3	-0.30593738
138	0xbe3f492f	-0.18680261
139	0xbdc7253d	-0.097238995
140	0x3de82726	0.11335592
141	0x3e293b23	0.16526465
142	0xbda36b71	-0.07979477
143	0x3dd6dc8f	0.10491287
144	0x3ee1aa31	0.44075158
145	0x3dd17f0d	0.10229311
146	0x3e8f9cce	0.2804932
147	0xbdd8e7ec	-0.105911106
148	0x3e688107	0.2270547
149	0x3e84afd1	0.25915387
150	0x3dc50cbf	0.09621572
151	0x3e2f45d5	0.17116483
152	0x3e195575	0.14974006
153	0x3db6d7fa	0.08927913
154	0x3de99e1a	0.114071086
155	0x3dd42ee5	0.10360507
156	0xbe4b9257	-0.19880043
157	0x3d923e24	0.07140759
158	0x3eafa8bc	0.34308422
159	0xbe5fdd28	-0.21861708
160	0xbe2bfe87	-0.16796313
161	0x3dc4ccdc	0.09609386
162	0xbe10fcc6	-0.14158925
163	0x3d127aef	0.03576177
164	0x3e83ac92	0.25717598
165	0x3dde582e	0.10856663
166	0xbe19f7f2	-0.1503599
167	0xbdfa5367	-0.12222939
168	0xbd8f7c33	-0.07006111
169	0x3f1df1f1	0.616973
170	0x3e87e8b6	0.26544732
171	0xbe41be97	-0.1892036
172	0x3e7ab24b	0.24482076
173	0x3e642ef4	0.22283536
174	0x3ea47056	0.32116956
175	0x3e7a39c4	0.24436098
176	0xbeabc744	-0.33550465
177	0x3cb818f7	0.022472842
178	0x3e25664a	0.16152301
179	0xbe17e170	-0.14832091
180	0xbd117b44	-0.035517946
181	0x3eb42f2c	0.3519224
182	0xbea98a62	-0.3311339
183	0x3da2c033	0.07946815
184	0x3d9ec348	0.07752091
185	0x3e00358f	0.12520431
186	0x3e928fa6	0.2862522
187	0x3e9197e9	0.2843621
188	0x3e1f1956	0.15537009
189	0x3ce4ab72	0.027913783
190	0x3e98a49f	0.29813096
191	0x3d888544	0.066660434
192	0xbce87bda	-0.02837937
193	0xbd9b84f9	-0.07593722
194	0xbdb94de0	-0.090480566
195	0xbd5718a4	-0.052513734
196	0x3d7c6fe0	0.06163013
197	0x3db43450	0.0879904
198	0x3de07c1a	0.109611705
199	0xbde04da8	-0.10952312
200	0xbdcbeac2	-0.09956886
201	0x3d04c44e	0.032413773
202	0xbcf30d24	-0.029669352
203	0x3d8585cb	0.065196596
204	0xbda09163	-0.0784023
205	0x3db43d48	0.08800751
206	0x3d9f455f	0.07776903
207	0xbe0fd191	-0.14044787
208	0xbd9e2933	-0.07722702
209	0x3b88ed8c	0.0041787084
210	0xbd4ac4d6	-0.049504124
211	0xbdbbf8d0	-0.091783166
212	0xbe0a1d0a	-0.1348764
213	0x3d1e74c9	0.038685594
214	0xbd3e3f11	-0.046446864
215	0xbd6125be	-0.054967634
216	0xbde53af8	-0.11192888
217	0x3d114bb1	0.035472576
218	0xbda1f1ca	-0.07907446
219	0x3d6a9111	0.057267252
220	0xbdb663e3	-0.08905771
221	0x3dc1af41	0.09457255
222	0x3c24e9d7	0.010065517
223	0xbd0893fa	-0.033344246
224	0xbd900cd6	-0.07033698
225	0x3d29587b	0.041344147
226	0x3d46d369	0.04854146
227	0xbe0d7898	-0.13815534
228	0x3c10c794	0.008836646
229	0x3d9ce27c	0.07660386
230	0xbd158b84	-0.036510006
231	0xbe1a71d1	-0.1508248
232	0xbdf43751	-0.11924613
233	0xbd1b572e	-0.037924938
234	0xbddf4951	-0.10902656
235	0x3d85e853	0.06538453
236	0xbd16808a	-0.03674368
237	0x3d12f0f3	0.03587432
238	0x3d89e6e9	0.06733496
239	0xbe20c81a	-0.15701333
240	0x3d9bc0ea	0.07605155
241	0xbe14e54e	-0.14540598
242	0x3b85248d	0.004063195
243	0x3da75568	0.08170587
244	0xbda61618	-0.08109683
245	0xbd9025a8	-0.07038432
246	0xbc23fc97	-0.010008953
247	0xbac43324	-0.0014968854
248	0xbdc2a3cd	-0.09503899
249	0x3ba965ef	0.005169622
250	0xbd8dab06	-0.06917386
251	0xbd4741fe	-0.04864692
252	0xbdc1647b	-0.09442993
253	0xbe170a6e	-0.14750072
254	0xbd2758ee	-0.040856294
255	0x3d256f76	0.0403895

feature_layer.2.bias f4 [64]
0	0xbd0b02c1	-0.033938173
1	0xbd14f13e	-0.03636288
2	0x3e04ef1c	0.12981838
3	0x3d454bf1	0.048168126
4	0xbd248574	-0.040166333
5	0x3d04f012	0.03245551
6	0x3da0b3d3	0.07846799
7	0x3e08e85f	0.13369893
8	0x3d39cae2	0.0453595
9	0xba8a4202	-0.0010548236
10	0x3d22599d	0.039636243
11	0x3e185613	0.14876585
12	0xbed6f264	-0.41981804
13	0xbd6e46fb	-0.05817316
14	0x3e599afa	0.21250525
15	0x3d493f8d	0.049132872
16	0x3bddadc8	0.006765101
17	0x3e4a31c7	0.19745551
18	0xbe0da233	-0.13831405
19	0xbe24bd3e	-0.16087815
20	0x3da31c48	0.079643786
21	0x3d228b15	0.03968342
22	0x3c2331b1	0.009960578
23	0x3e7b900d	0.2456667
24	0xbcae7db3	-0.021300172
25	0x3c8d1512	0.017221961
26	0x3ba02c3a	0.0048880847
27	0x3e686e5a	0.22698346
28	0xbdf6f70a	-0.12058838
29	0x3dc29828	0.09501678
30	0xbd8584eb	-0.06519493
31	0xbc83a264	-0.016068645
32	0x3e2ab762	0.16671517
33	0xbd9ecdff	-0.077541344
34	0xbd56e660	-0.052465796
35	0x3de7fc11	0.11327375
36	0x3df92f8a	0.121672705
37	0x3d1c658a	0.038182773
38	0x3e10d6c6	0.1414443
39	0xbc8e1fed	-0.017349208
40	0x3ddce0bf	0.107850544
41	0xbd18f916	-0.03734692
42	0xba784369	-0.0009470494
43	0x3dcdbe14	0.1004602
44	0x3eab87dc	0.3350209
45	0x3e49904c	0.19683951
46	0x3d97f04a	0.074188784
47	0x3e65af34	0.22430116
48	0x3e35ec6b	0.17765968
49	0xbcaf52be	-0.02140176
50	0x3ddb67b9	0.10713143
51	0x3d9ce929	0.07661659
52	0x3e33eefe	0.17571637
53	0xbdf2b80e	-0.11851512
54	0x3e842fce	0.25817722
55	0x3dc4aa62	0.096028104
56	0x3ca89ee9	0.020583587
57	0xbcafed55	-0.021475473
58	0x3cb746b5	0.022372583
59	0x3dc1eea1	0.09469343
60	0x3dcabf6b	0.09899791
61	0x3e02e815	0.12783845
62	0xbda40b16	-0.08009927
63	0x3c53fabc	0.012938198

advantage_layer.0.weight f4 [64, 64]
0	0x3ea66fcf	0.32507178
1	0x3e3d5c2c	0.18492192
2	0xbd60040e	-0.054691367
3	0xbc453f28	-0.012038983
4	0x3d74908d	0.059708167
5	0x3dd5e9b1	0.10444964
6	0xbe68ac4b	-0.22721975
7	0x3dfb3598	0.122660816
8	0xbef30434	-0.47464144
9	0xbd277402	-0.040882118
10	0x3e0c51c3	0.13703065
11	0x3be81f7a	0.0070838304
12	0x3ed1f1b8	0.4100473
13	0x3e02988e	0.12753507
14	0xbc90ee86	-0.017691862
15	0xbeea4989	-0.45759228
16	0x3e118b96	0.14213404
17	0xbf621e4a	-0.8832747
18	0x3e7a481d	0.24441572
19	0xbdf8d05a	-0.12149115
20	0xbeb6393f	-0.3559055
21	0xbd502d10	-0.050824225
22	0x3e7e25df	0.24819134
23	0xbec3e100	-0.382576
24	0x3da5f892	0.08104052
25	0xbd85cf1c	-0.065336436
26	0x3d9422c0	0.072331905
27	0xbe8247d6	-0.2544543
28	0x3bfe9804	0.0077695865
29	0x3d0437a1	0.032279614
30	0xbc8389e9	-0.016056972
31	0x3cb11e35	0.02162085
32	0xbd3ce78a	-0.04611925
33	0xbcade4be	-0.021227237
34	0xbec6e715	-0.38848177
35	0x3e0c25c5	0.13686283
36	0xbea8d258	-0.3297298
37	0xbe9712bd	-0.29506484
38	0x3e133145	0.14374264
39	0x3e20fafc	0.15720743
40	0xbc719446	-0.014744824
41	0xbe8dc59e	-0.27689832
42	0xbc8adde0	-0.016951501
43	0xbe04b74c	-0.12960547
44	0xbd1aaa78	-0.037760228
45	0xbc272060	-0.01020059
46	0xbf4ae693	-0.7925808
47	0xbe836215	-0.25660768
48	0xbdbf9650	-0.09354842
49	0xbe9c20d9	-0.3049381
50	0x3de2fe73	0.110836886
51	0xbe0543fa	-0.13014212
52	0x3e0b1a62	0.13584283
53	0xbf1279d4	-0.57217145
54	0xbd81c84c	-0.06337032
55	0xbe55d896	-0.20883402
56	0xbd406ef9	-0.04698083
57	0x3e064f71	0.13116242
58	0x3e13c495	0.14430459
59	0x3e3d1842	0.18466285
60	0xbeb41ec9	-0.35179737
61	0xbe3bc235	-0.18335803
62	0xbcdfec03	-0.027334219
63	0xbee14f3b	-0.4400576
64	0xbec4ca2d	-0.38435498
65	0xbdff6a4d	-0.12471447
66	0xbcefb1e5	-0.029259631
67	0x3d238cde	0.039929263
68	0x3ddbf3de	0.10739873
69	0x3dc451ec	0.09585938
70	0x3dd561b7	0.10419028
71	0xbd098fff	-0.03358459
72	0x3ed45b7a	0.4147604
73	0xbc644d1e	-0.013934402
74	0xbd7c6750	-0.061621964
75	0x3c635d67	0.013877249
76	0xbf6e2f5f	-0.9304103
77	0xbe5c9779	-0.21542157
78	0x3dc251e9	0.09488279
79	0x3e347b90	0.1762526
80	0x3e542617	0.20717655
81	0xbd20c514	-0.03925045
82	0xbc9dd232	-0.019265268
83	0x3e194c1a	0.14970437
84	0x3e602319	0.21888389
85	0xbe74b6d8	-0.23897874
86	0xbe77dd62	-0.24205545
87	0x3e9e28d1	0.30890515
88	0x3cea25f8	0.028582558
89	0x3e9f6675	0.31132856
90	0x3dc10824	0.09425381
91	0xbeef2d96	-0.46714467
92	0xbc4ab938	-0.012373261
93	0x3e9e8729	0.30962494
94	0xbdaa7b68	-0.08324319
95	0x3d26c373	0.04071374
96	0x3e92001d	0.2851571
97	0xbe36d923	-0.17856269
98	0xbeb089d8	-0.34480166
99	0xbd1a31a0	-0.037644982
100	0xbe6ed8f8	-0.23324955
101	0xbecc093d	-0.39850798
102	0x3d23e726	0.040015362
103	0x3bb2a34d	0.005451596
104	0xbdd14470	-0.102181315
105	0xbe23c38c	-0.15992564
106	0x3da82d93	0.082118176
107	0xbe0a8f9c	-0.13531345
108	0x3df1bd26	0.11803655
109	0x3ec0bd44	0.37644398
110	0x3d3bd8f1	0.04586119
111	0x3e89fee3	0.26952276
112	0x3e23da16	0.16001162
113	0x3c6c07d9	0.014406168
114	0xbd84825f	-0.06470179
115	0xbb177bfb	-0.002311467
116	0x3e67f022	0.22650197
117	0x3f15deca	0.58543074
118	0x3e533c4c	0.2062847
119	0x3dd78b0a	0.105245665
120	0x3e88c32a	0.26711398
121	0xbe6a6551	-0.22890212
122	0xbe098439	-0.13429345
123	0xbe2f097f	-0.17093466
124	0xbe5aab79	-0.21354474
125	0xbd9bc5ba	-0.07606073
126	0x3cf504ad	0.029909456
127	0x3e6b66c7	0.22988425
128	0xbf12bd28	-0.5731988
129	0xbe811f5e	-0.25219244
130	0x3da789a4	0.0818055
131	0x3dd3d970	0.10344207
132	0xbe15c496	-0.14625773
133	0x3eb510ae	0.35364288
134	0xbda64553	-0.08118691
135	0xbda3186a	-0.07963641
136	0x3d92a38e	0.07160102
137	0xbda6c89d	-0.08143733
138	0x3de3967b	0.11112686
139	0x3d2afede	0.041746967
140	0xbf026409	-0.5093389
141	0xbe2873ce	-0.16450426
142	0x3e05d02c	0.13067693
143	0xbb0581cf	-0.0020371561
144	0x3d0efa6a	0.034906782
145	0x3db27700	0.08714104
146	0xbdd98457	-0.10620945
147	0xbdc28694	-0.09498325
148	0x3ded84e7	0.11597615
149	0xbb00dd37	-0.0019663104
150	0xbeb4ea6c	-0.353351
151	0x3cb97a26	0.022641253
152	0x3e0891eb	0.13336913
153	0x3da255af	0.07926499
154	0xbdf545e9	-0.11976225
155	0x3dd612a4	0.10452774
156	0xbd927f07	-0.07153135
157	0x3ca1c216	0.019745868
158	0x3df4237c	0.119208306
159	0x3d17545e	0.036945693
160	0x3e02219f	0.12708138
161	0xbeb9192b	-0.36152014
162	0xbdea2ba9	-0.11434109
163	0x3da3ac3a	0.07991834
164	0xbe2b2a82	-0.16715434
165	0xbd3423d4	-0.04397948
166	0x3e0884c5	0.13331898
167	0xbdc566d4	-0.096387535
168	0x3d38089b	0.04493008
169	0xbd92fffc	-0.071777314
170	0x3d895eca	0.06707533
171	0x3db2cb37	0.087301664
172	0xbd6b4286	-0.05743649
173	0x3e3ac5ac	0.18239468
174	0x3d8cb176	0.068697855
175	0xbd452063	-0.04812659
176	0xbdc98af6	-0.09840958
177	0x3d8f729b	0.07004281
178	0xbe1e69dd	-0.15470071
179	0xbd2f14b4	-0.042744353
180	0x3cbd0e02	0.023077969
181	0x3de95583	0.11393263
182	0x3d407829	0.046989594
183	0xbeb30f4b	-0.34972605
184	0x3d98b7e9	0.07456953
185	0x3e1b1087	0.15143023
186	0x3e53f28d	0.20697995
187	0xbc0d666c	-0.008630376
188	0x3c9fb539	0.019495593
189	0x3dd6e30e	0.10492526
190	0x3d1d1bb4	0.038356498
191	0x3d99a0bc	0.07501361
192	0xbf921b8a	-1.1414654
193	0xbeb72e01	-0.35777286
194	0x3e096fbd	0.13421531
195	0x3d3c6ddb	0.046003204
196	0x3dd2bd55	0.102900185
197	0xbec202e2	-0.37892824
198	0x3de2e5b7	0.11078971
199	0xbc81f442	-0.015863542
200	0xbe82adac	-0.25523126
201	0x3b8ef2fd	0.0043624626
202	0xbe7feb89	-0.24992193
203	0x3e309f81	0.17248346
204	0x3f1ef4b1	0.6209212
205	0xbe6b2895	-0.229647
206	0x3e3b9be2	0.18321183
207	0xbd91bc6d	-0.071160175
208	0x3cf63e55	0.03005902
209	0xbd41c24c	-0.047304437
210	0xbe0181a0	-0.12647104
211	0x3d36cada	0.044627048
212	0xba70db08	-0.00091879116
213	0x3e0a3eb5	0.13500483
214	0x3e051bfc	0.12998956
215	0x3e0f813e	0.14014146
216	0x3c3da7a1	0.01157561
217	0x3e19f4c9	0.15034784
218	0x3d184f9b	0.037185293
219	0xbea6f2ab	-0.32607016
220	0xbe01ed1f	-0.12688111
221	0x3de03b4f	0.10948812
222	0xbdd02f80	-0.1016531
223	0xbbca90e4	-0.006181823
224	0x3dbed734	0.093183905
225	0xbe7a9761	-0.24471809
226	0xbe59f974	-0.21286565
227	0xbe900157	-0.28126022
228	0x3da55fdc	0.08074924
229	0xbe764447	-0.24049483
230	0x3df53798	0.11973494
231	0x3dbb52bb	0.09146639
232	0x3e14b71b	0.14522974
233	0xbdae046f	-0.084969394
234	0x3c8b898a	0.017033357
235	0xbdc7d08f	-0.09756576
236	0x3ca1bb43	0.019742614
237	0x3dc987ec	0.09840378
238	0x3d711bd1	0.05886442
239	0x3ddccf7c	0.10781762
240	0xbd029290	-0.031878054
241	0xbd9589e0	-0.07301688
242	0x3d35e102	0.044404037
243	0x3d949cfb	0.07256504
244	0xbe62f672	-0.22164324
245	0xbf713041	-0.94214255
246	0x3e15f494	0.1464408
247	0x3f066d61	0.5251065
248	0x3d8fbc65	0.07018355
249	0x3f54f734	0.831897
250	0xbc90aa39	-0.017659293
251	0xbe25e18b	-0.16199319
252	0xbe91d72b	-0.28484473
253	0xbdf32d48	-0.11873871
254	0xbcb45fa6	-0.022018265
255	0x3d1585e4	0.03650464

advantage_layer.0.bias f4 [64]
0	0xbd01f35f	-0.031726237
1	0x3da9bd8f	0.082881086
2	0xbd364dc5	-0.04450776
3	0x3d987e9a	0.07446022
4	0x3e791f45	0.24328335
5	0x3e259b66	0.16172561
6	0xbe017438	-0.1264199
7	0x3e84e9b4	0.2595955
8	0x3d8a22dd	0.06744931
9	0xbe489d3b	-0.19591229
10	0x3dd8ac87	0.10579782
11	0x3e455921	0.19272281
12	0xbdc02ecd	-0.093839265
13	0x3d03a5ed	0.03214066
14	0x3d68c466	0.056827925
15	0xbd44e52a	-0.04807011
16	0x3c8d9290	0.0172818
17	0x3da17da9	0.07885296
18	0x3e663038	0.22479331
19	0x3e70373e	0.23458573
20	0x3e218aa3	0.15775542
21	0x3c7d6641	0.015466274
22	0xbbb4c24d	-0.0055163265
23	0x3ddc0fbf	0.10745191
24	0x3ec40f8e	0.38293117
25	0x3d937ab3	0.072011374
26	0x3e128631	0.14309002
27	0xbda2ef82	-0.07955839
28	0xbd84ef9f	-0.064910166
29	0x3e17a798	0.14810026
30	0x3d96878c	0.07350072
31	0xbe2c1ad3	-0.16807108
32	0x3d9b3fb8	0.07580513
33	0xbbd14e61	-0.0063875173
34	0x3b9ff112	0.0048810327
35	0xbd0b86aa	-0.034063973
36	0x3df99202	0.12186052
37	0x3dd05ead	0.10174308
38	0x3e3a3d5c	0.18187469
39	0x3d40c5a1	0.047063474
40	0xbdd2bb4a	-0.10289629
41	0x3de3b2ee	0.111181125
42	0xbc7a8270	-0.015289888
43	0x3e4aeb64	0.19816357
44	0x3e909bf8	0.28243995
45	0x3e5bfa17	0.2148212
46	0xbda29f50	-0.07940543
47	0x3d2db0f2	0.042405076
48	0x3dd876f3	0.10569563
49	0xbd35e7b8	-0.044410437
50	0xbe24c2c6	-0.16089925
51	0xbccb894b	-0.02484574
52	0xbe9d2680	-0.30693436
53	0xbdb14c72	-0.08657159
54	0xbc9ed0d9	-0.019386696
55	0xbc849110	-0.016182452
56	0xbe05e017	-0.13073765
57	0xbd2dcb58	-0.04243025
58	0xbb249e1d	-0.0025118657
59	0x3d3e3e20	0.046445966
60	0xbdce2b70	-0.10066879
61	0x3bf25b24	0.0073961187
62	0x3e4b04a5	0.1982599
63	0xbee57426	-0.44815177

advantage_layer.2.weight f4 [4, 64]
0	0x3e434156	0.19067892
1	0x3dbb2c8b	0.09139355
2	0x3ba6aa57	0.005086224
3	0xbd2cedfb	-0.042219143
4	0xbe1b47a1	-0.15164043
5	0x3e31c0f3	0.1735876
6	0x3dba66c6	0.09101634
7	0xbdcc8af0	-0.09987438
8	0x3c4e4ea1	0.012591989
9	0xbf2d3cc2	-0.67670834
10	0xbf03f322	-0.51542866
11	0xbf1b2420	-0.60602
12	0xbcb6217b	-0.022232762
13	0x3c4f8522	0.012666019
14	0x3e84dd75	0.25950208
15	0x3d05cfbc	0.032668814
16	0x3dd34782	0.103163734
17	0x3d7eb03b	0.062179785
18	0x3e2c230d	0.16810246
19	0xbe20961f	-0.15682267
20	0xbe4f87af	-0.20266603
21	0xbbffa74a	-0.007801925
22	0xbd25d321	-0.04048455
23	0xbe31e1ee	-0.17371342
24	0x3d8997a0	0.06718373
25	0x3ce9c93c	0.028538339
26	0xbe9015ee	-0.2814173
27	0xbcf13910	-0.029446155
28	0xbf2c6317	-0.673387
29	0x3e27141e	0.16316268
30	0x3d417cef	0.047238287
31	0x3e87b165	0.2650253
32	0xbe59caae	-0.21268722
33	0x3cbea2aa	0.023270924
34	0x3d84df0b	0.064878546
35	0xbdc6ca0d	-0.09706507
36	0xbd941349	-0.07230241
37	0xbe265a8a	-0.16245475
38	0xbdd3d28f	-0.10342895
39	0x3dc1929d	0.094517924
40	0xbc12d6c1	-0.008962334
41	0x3bcd3718	0.006262671
42	0x3df69dcb	0.12041815
43	0x3dab6143	0.083681606
44	0x3ec89c52	0.39181763
45	0xbdd30800	-0.1030426
46	0x3d3ee811	0.046608035
47	0x3c087e6f	0.008330925
48	0x3dac961c	0.084270686
49	0x3d0d46d4	0.034491375
50	0x3e7baca4	0.24577576
51	0xbd3fcd2b	-0.046826523
52	0x3ed5368c	0.41643178
53	0x3d974971	0.07387055
54	0xbd75b2f6	-0.059985124
55	0x3d885ab3	0.066579245
56	0x3a72260e	0.0009237238
57	0xbc745524	-0.014912877
58	0xbe31bd41	-0.17357351
59	0x3e0b029d	0.13575216
60	0x3db93fd4	0.090453774
61	0xbd1b0c81	-0.03785372
62	0xbe91ba44	-0.28462422
63	0x3d0b6471	0.034031335
64	0xbe6efc10	-0.23338342
65	0x3e114889	0.14187826
66	0x3cf5a442	0.02998555
67	0xbe9835f1	-0.29728654
68	0xbf498045	-0.7871135
69	0x3ea619b7	0.32441494
70	0xbd022604	-0.031774536
71	0xbf14f86f	-0.5819158
72	0xbdb22fbc	-0.08700511
73	0xbebd58b9	-0.36981753
74	0xbef0f45d	-0.47061434
75	0xbf537e13	-0.8261425
76	0xbc03f86a	-0.008054832
77	0x3f0cc4a3	0.54987544
78	0x3e994c32	0.29940945
79	0x3d0e1bd7	0.03469452
80	0x3d986dfe	0.07442854
81	0x3ea3ca4d	0.3199028
82	0xbdb91722	-0.09037615
83	0x3f36344b	0.7117354
84	0x3e7e4f06	0.24834833
85	0x3d4090ea	0.0470132
86	0x3e98d52e	0.29850143
87	0xbdf0bccd	-0.11754761
88	0xbe9c309a	-0.3050583
89	0x3f1de3fe	0.61676013
90	0xbea51ded	-0.32249394
91	0x3dae8be6	0.08522777
92	0xbddf93b4	-0.10916844
93	0x3f31cb03	0.69450396
94	0x3d9a2467	0.075264744
95	0x3d2b3469	0.04179803
96	0x3f2d6715	0.67735416
97	0x3e62e2f2	0.22156885
98	0x3d874175	0.06604282
99	0xbf514dde	-0.8175944
100	0xbf75620c	-0.9585273
101	0x3dcef299	0.101048656
102	0xbf794788	-0.97374773
103	0xbdf173ba	-0.11789651
104	0xbf467154	-0.77516675
105	0xbf3a0197	-0.72658676
106	0x3eb8f60b	0.36125216
107	0x3e8e1c93	0.27756175
108	0xbe314b0e	-0.17313787
109	0x3f142a5d	0.5787714
110	0xbe107ef4	-0.14110929
111	0x3d91c122	0.07116915
112	0xbef58746	-0.47954768
113	0x3d27c3bc	0.04095815
114	0x3d3b1583	0.045674812
115	0xbd765232	-0.06013698
116	0xbf36f7ba	-0.7147175
117	0x3d11994d	0.03554659
118	0xbeef1013	-0.4669195
119	0x3d730994	0.059335306
120	0xbee9c9d1	-0.45661786
121	0xbd3b5757	-0.04573759
122	0xbf4df498	-0.80451345
123	0x3dd6801e	0.10473655
124	0xbcd5d730	-0.026103586
125	0x3de67ec1	0.11254645
126	0xbf11a04f	-0.56885237
127	0x3f02c94e	0.51088417
128	0x3f172b25	0.5905021
129	0xbee9cf5b	-0.45666012
130	0xbd80a55b	-0.06281539
131	0x3e906f8e	0.2821011
132	0x3e988cb4	0.29794848
133	0xbf300bf9	-0.6876827
134	0x3dae1fd1	0.08502162
135	0x3d1aaeb3	0.037764262
136	0x3d3e189c	0.046410188
137	0x3ed8b05e	0.42322057
138	0x3f8161e3	1.0107998
139	0x3e8808fe	0.2656936
140	0x3df294de	0.118448004
141	0x3ddb2e5c	0.10702202
142	0xbec50640	-0.3848133
143	0xbd938988	-0.072039664
144	0xbd742100	-0.059601784
145	0x3ccd3390	0.025049001
146	0xbceeb4ce	-0.029138949
147	0xbd79cd70	-0.060986936
148	0x3ef61010	0.4805913
149	0xbe8cdfc4	-0.2751447
150	0x3e9952fb	0.29946122
151	0xbcac465d	-0.021029646
152	0xbdaebc0d	-0.085319616
153	0xbee5b140	-0.44861794
154	0x3f23077e	0.6368331
155	0x3cd7e4e0	0.026354253
156	0x3f6a13a3	0.91436213
157	0xbeb5c471	-0.35501435
158	0x3e62b63b	0.22139828
159	0x3f6b2b7e	0.9186324
160	0xbdec5413	-0.115394734
161	0xbdef34a4	-0.11679962
162	0xbda55d94	-0.08074489
163	0x3e6fc0d3	0.234134
164	0x3edc3a23	0.43013105
165	0x3e9c9ba5	0.30587497
166	0x3d8a5849	0.0675512
167	0x3da4a22f	0.080387466
168	0x3ed2a374	0.4114033
169	0xbf0b6a4a	-0.5445906
170	0xbd65a529	-0.056065712
171	0xbc358677	-0.011079422
172	0xbf2ff8c7	-0.6873898
173	0x3db8d2f7	0.09024613
174	0xbc46dc48	-0.01213748
175	0xbe74742c	-0.23872441
176	0x3c9d7a1d	0.019223267
177	0xbcf6ccd1	-0.030126961
178	0xbf2e17fe	-0.6800536
179	0x3ebdaca3	0.37045774
180	0x3ed2bbdb	0.41158947
181	0xbdaf4c46	-0.0855947
182	0x3efe15a7	0.49625894
183	0x3d2d3f40	0.042296648
184	0x3ebde712	0.37090355
185	0xbdd40c88	-0.10353953
186	0x3e657ece	0.22411653
187	0xbdc196a4	-0.094525605
188	0xbdab880c	-0.08375558
189	0x3def5260	0.11685634
190	0x3f36be0f	0.71383756
191	0xbea08f15	-0.31359163
192	0xbf403fd0	-0.7509737
193	0x3ea4df3d	0.32201567
194	0x3d96c74c	0.073622316
195	0x3e4e4673	0.20144062
196	0x3f0641d5	0.524442
197	0x3e82fad3	0.2558199
198	0x3d250472	0.040287443
199	0x3ed70f17	0.420037
200	0xbbd19e73	-0.0063970624
201	0x3e06da29	0.13169159
202	0xbf037d64	-0.51363206
203	0x3f21959e	0.6311892
204	0x3da3d24c	0.07999095
205	0xbf2fd411	-0.6868296
206	0xbd63d508	-0.055623084
207	0xbb23f434	-0.0025017383
208	0x3c978c88	0.018499628
209	0xbe5bf1f8	-0.21479023
210	0xbdcaa047	-0.09893852
211	0xbf4ddb20	-0.80412483
212	0xbecc57d1	-0.3991075
213	0x3ed444db	0.41458783
214	0xbe9482b2	-0.29005963
215	0x3e568b41	0.20951559
216	0x3eb0ab96	0.3450591
217	0xbe816e90	-0.25279665
218	0xbed67bd8	-0.4189136
219	0x3d76c5b8	0.060247153
220	0xbf8dd1b3	-1.107962
221	0xbef10a13	-0.47078
222	0xbe90b1bf	-0.2826061
223	0xbf3f4a35	-0.74722606
224	0xbf39c7d5	-0.72570544
225	0x3dce8235	0.10083429
226	0xbc69e2a7	-0.01427523
227	0x3f3a19c1	0.7269555
228	0x3ecb5255	0.39711252
229	0xbf477183	-0.7790758
230	0x3f3ae0d5	0.72999316
231	0x3dcbcc32	0.099510565
232	0x3e8165ff	0.2527313
233	0x3f7f0be1	0.996275
234	0xbe78458b	-0.24245279
235	0xbea434fb	-0.3207167
236	0x3f195966	0.59902036
237	0xbf359647	-0.7093243
238	0xbcbe2707	-0.023211969
239	0x3d31b4ab	0.04338519
240	0x3f03c500	0.51472473
241	0x3dc64222	0.096805826
242	0x3f7ba9c1	0.983059
243	0xbe9e3d7b	-0.3090628
244	0x3f8e34d3	1.1109871
245	0x3d0d43d8	0.03448853
246	0xbe252c3b	-0.16130154
247	0x3d9cd9a2	0.07658698
248	0x3e05bdee	0.13060734
249	0x3e833e8f	0.25633666
250	0x3e5dca19	0.21659125
251	0x3d5ebae0	0.054377437
252	0x3db0764c	0.08616313
253	0xbe81f660	-0.25383282
254	0xbe691145	-0.22760494
255	0x3db527fb	0.08845516

advantage_layer.2.bias f4 [4]
0	0x3d443062	0.047897704
1	0x3e05b195	0.13056023
2	0xbddc75a1	-0.107646234
3	0xbd1d5962	-0.03841532

value_layer.0.weight f4 [64, 64]
0	0x3f682b11	0.90690714
1	0x3ebfb147	0.3743994
2	0xbddc1a57	-0.107472114
3	0xbcbc5c3a	-0.022993196
4	0x3dbad906	0.09123425
5	0x3d7c20ac	0.061554596
6	0xbdb23155	-0.087008156
7	0x3e04c6d9	0.1296648
8	0xbed46d6d	-0.41489735
9	0x3dd717f9	0.10502619
10	0x3e0e873c	0.13918775
11	0x3e028811	0.12747218
12	0x3f980e3b	1.1879343
13	0x3ea9dded	0.33177128
14	0xbd511242	-0.051042803
15	0x3dd717b9	0.105025716
16	0xbe20292b	-0.15640704
17	0x3d1cf775	0.03832193
18	0x3f257b8a	0.6464163
19	0x3eeae19d	0.45875254
20	0x3eb2a7e1	0.34893706
21	0x3d3f5c14	0.046718672
22	0x3cde8eaf	0.027167646
23	0x3de54bd9	0.111961074
24	0xbdaa8c27	-0.08327513
25	0x3dd6d473	0.1048974
26	0xbe05b543	-0.13057427
27	0x3e256bbd	0.1615438
28	0xbd3a5608	-0.045492202
29	0x3e81c918	0.25348735
30	0xbd937f2c	-0.072019905
31	0x3dfd6bee	0.123741016
32	0x3dd0e763	0.102003835
33	0xbf2f2d78	-0.68428755
34	0xbae1f3c2	-0.0017238783
35	0x3e357b43	0.17722802
36	0x3ca4bd02	0.020109657
37	0xbdfb2466	-0.12262802
38	0x3de99699	0.11405677
39	0x3e158ab0	0.14603686
40	0xbd961412	-0.07328047
41	0x3d201755	0.03908475
42	0xbd82d087	-0.0638743
43	0xbe1ae970	-0.15128112
44	0xbe2f17fd	-0.17098995
45	0x3e1aa3cc	0.15101546
46	0xbe19cbcb	-0.15019147
47	0x3e850dc3	0.25987062
48	0xbd825e8e	-0.06365691
49	0xbe3358a7	-0.17514287
50	0x3de660db	0.112489425
51	0xbb803852	-0.003912964
52	0x3e7db6a8	0.24776709
53	0x3e326278	0.17420375
54	0x3de7065f	0.11280512
55	0xbefe392e	-0.49653
56	0x3db17027	0.086639695
57	0xbfbf19f9	-1.4929801
58	0x3e9b4a18	0.30329967
59	0x3c873f84	0.016509779
60	0x3d45d394	0.04829748
61	0x3b3c9042	0.0028772508
62	0xbce5791c	-0.028011851
63	0xbf69927f	-0.9123916
64	0xbc508b30	-0.012728497
65	0x3da1202a	0.07867463
66	0xbd35e329	-0.04440609
67	0xbbba99e0	-0.005694613
68	0xbe0a1667	-0.13485108
69	0x3db1f8cc	0.08690032
70	0xbde249b3	-0.11049213
71	0x3d0f86f3	0.035040807
72	0xbd16cf1c	-0.03681861
73	0x3c394aed	0.011309368
74	0x3d83a98c	0.06428823
75	0x3b5af5dd	0.0033410706
76	0xbd2945a0	-0.041326165
77	0x3c012722	0.007882865
78	0xbd95e2f7	-0.07318681
79	0xbd92c8e7	-0.07167225
80	0x3d54fcc1	0.051998857
81	0x3d016028	0.031585842
82	0x3b1c54c0	0.0023854226
83	0xbd63fd6a	-0.055661596
84	0xbda7b606	-0.08189015
85	0x3db484d8	0.088144004
86	0xbdb0e831	-0.08638037
87	0xbe0a7e06	-0.13524637
88	0xbd210b34	-0.039317325
89	0xbdcfe446	-0.101509616
90	0xbd70f320	-0.058825612
91	0xbd984818	-0.07435626
92	0x3ce8e370	0.028428763
93	0x3d86e83e	0.065872654
94	0x3da61e92	0.081112996
95	0xbdac2e48	-0.08407265
96	0x3d84b854	0.0648047
97	0x3d3dc2f8	0.046328515
98	0xbe05b97f	-0.13059042
99	0xbd35305b	-0.04423557
100	0xbdf2c6f3	-0.11854353
101	0x3d8105ef	0.0629996
102	0xbe07b3f5	-0.13252242
103	0xbd2c48e1	-0.04206169
104	0xbd8cd4cb	-0.068765245
105	0x3de01ad3	0.10942616
106	0x3d2116ca	0.039328374
107	0x3cb7cc6f	0.022436349
108	0xbdc3bbc0	-0.09557295
109	0xbdbac790	-0.09120095
110	0x3d88d00f	0.06680309
111	0xbbb713e0	-0.005587086
112	0x3dac96ca	0.08427198
113	0xbe0c537c	-0.13703722
114	0xbca2ab18	-0.019856974
115	0xbd8e5c32	-0.069511786
116	0x3c993668	0.0187027
117	0x3ca96fa8	0.020683125
118	0xb8d39467	-0.00010088906
119	0x3bdac229	0.0066759777
120	0xbdccf959	-0.10008497
121	0x3b7d1c80	0.0038621724
122	0xbdbb1fed	-0.09136949
123	0xbde49486	-0.11161141
124	0xbca7ca6c	-0.020482264
125	0x3d14dbbe	0.036342375
126	0x3dc3153a	0.09525533
127	0xbd3163f0	-0.0433082
128	0xbf8b643b	-1.0889963
129	0xbe7651fa	-0.24054709
130	0x3ee90453	0.45511112
131	0x3db7ec29	0.08980591
132	0xbd8881de	-0.06665395
133	0xbe7eb2dc	-0.24872917
134	0x3e9601ba	0.29298192
135	0x3e3964a2	0.18104795
136	0x3f22393a	0.6336857
137	0x3dd20fa1	0.10256887
138	0xbe243472	-0.16035631
139	0x3e7a975a	0.24471799
140	0xbf85c9cb	-1.0452207
141	0xbe4052c6	-0.18781576
142	0x3ea2c5ca	0.31791526
143	0x3da15538	0.07877582
144	0x3ecd4139	0.40088823
145	0xbbc23727	-0.005926985
146	0xbf5a1f33	-0.85203856
147	0xbe632352	-0.22181442
148	0xbea40feb	-0.32043394
149	0x3e460273	0.19336872
150	0xbe4c46f9	-0.19948949
151	0x3e6866ca	0.22695461
152	0x3db5848f	0.08863174
153	0x3d9d134e	0.07669698
154	0x3d69ad38	0.05704996
155	0xbe4bbfee	-0.19897434
156	0x3dcafb69	0.09911234
157	0xbdef303b	-0.11679121
158	0xbdb0169c	-0.085980624
159	0x3e413b3f	0.18870257
160	0x3ebcbc3e	0.36862367
161	0x3f2a7a32	0.66592705
162	0xbcc8c54e	-0.024508145
163	0xbe9600ac	-0.29297388
164	0x3e92f421	0.2870188
165	0x3eadf485	0.33975616
166	0x3e97e0cb	0.2966369
167	0x3da063fc	0.078315705
168	0x3ec968e7	0.39337847
169	0x3e2abc30	0.1667335
170	0x3efb2518	0.49051738
171	0x3eefe1b9	0.468519
172	0x3f0a068c	0.5391624
173	0xbd16a147	-0.0367749
174	0x3f05045a	0.51959765
175	0xbe798372	-0.24366549
176	0x3e911ff4	0.2834469
177	0x3ea88b20	0.32918644
178	0xbdddac98	-0.10823935
179	0xbd6b2e13	-0.057416987
180	0x3dc0ecb5	0.09420148
181	0xbc12ca54	-0.008959372
182	0x3e7274a9	0.23677315
183	0x3e7453f6	0.23860154
184	0x3dcb7df1	0.09936131
185	0x3f64a0e6	0.8930801
186	0xbe0843c6	-0.13307104
187	0xbc88a665	-0.016680906
188	0xbe348ae3	-0.17631106
189	0x3eebab88	0.46029305
190	0x3d15d092	0.03657586
191	0x3f35e1a1	0.7104741
192	0x3de45397	0.11148756
193	0x3d82a09d	0.06378291
194	0x3d9035e2	0.07041527
195	0xbdf8b9fd	-0.121448494
196	0x3c8983f5	0.016786555
197	0x3db17556	0.08664958
198	0xbb6fc5f4	-0.0036586495
199	0x3d3b1cc0	0.045681715
200	0xbd530263	-0.051515948
201	0xbdc45b21	-0.09587694
202	0x3d686a47	0.05674198
203	0xbdc7919e	-0.09744571
204	0xbdd98f5c	-0.10623047
205	0xbdb41c3a	-0.08794446
206	0xbd43690f	-0.047707614
207	0xb9498e8d	-0.00019221958
208	0xbd136df2	-0.035993524
209	0xbe0185c1	-0.1264868
210	0x3da3f2b9	0.0800528
211	0x3dbfb26c	0.09360203
212	0x3d99cca6	0.07509737
213	0xbe18a3e8	-0.14906275
214	0x3d99ae52	0.07503952
215	0x38d99c71	0.00010376506
216	0xbdf15bf4	-0.11785117
217	0x3d48dc6c	0.049038336
218	0x3df51da2	0.11968543
219	0xbdfad3a1	-0.12247396
220	0x3dd8c90e	0.10585223
221	0x3b0f73dd	0.0021889128
222	0x3d11c060	0.035583854
223	0xbd898494	-0.067147404
224	0xbd534db9	-0.051587794
225	0x3db10884	0.08644202
226	0xbd30ce33	-0.043165397
227	0x3d81a81d	0.06330893
228	0xbd2c346b	-0.042042177
229	0x3d8cce42	0.06875278
230	0x3c33219c	0.010933306
231	0x3d8b6f3b	0.06808325
232	0xbdab408f	-0.08361923
233	0xbe0dea6f	-0.1385896
234	0xbb907627	-0.004408616
235	0x3d3b4cc9	0.045727525
236	0x3c7d05c2	0.015443267
237	0xbde97d25	-0.114008226
238	0xbd920977	-0.071307115
239	0xbdccd286	-0.10001092
240	0x3c89ff67	0.016845418
241	0x3dbc4ab1	0.09193934
242	0xbced833c	-0.028993241
243	0xbba2a879	-0.004963931
244	0xbda504a6	-0.08057527
245	0xbe0c9911	-0.13730265
246	0xbda20960	-0.079119444
247	0xbce1c3a2	-0.027559105
248	0xbddb2809	-0.107009955
249	0x3d0fe8ec	0.03513424
250	0xbdf885f5	-0.12134925
251	0xbdd3cc0f	-0.103416555
252	0xbc0666c2	-0.00820321
253	0x3d75fd44	0.060055986
254	0x3d6e0344	0.058108583
255	0x3dc38574	0.095469385

value_layer.0.bias f4 [64]
0	0x3e024667	0.12722169
1	0xbd352ea6	-0.04423394
2	0x3ea1a615	0.31572023
3	0x3dbca0d7	0.09210365
4	0xbb87505d	-0.004129453
5	0xbd9c85ab	-0.07642683
6	0x3dcf221f	0.1011393
7	0xbe1cebd6	-0.1532434
8	0x3e2e6aa4	0.17032868
9	0xbd9c9abd	-0.076467015
10	0xbdc30064	-0.09521559
11	0x39aba861	0.00032741114
12	0x3d9fcd28	0.07802802
13	0x3e48d9b2	0.19614294
14	0x3d7b8c95	0.061413366
15	0xbe7b14c5	-0.24519642
16	0xbd563005	-0.05229189
17	0x3dd3a14b	0.103334986
18	0xbd4638ab	-0.048393887
19	0x3cacf2bc	0.021111839
20	0xbd934ab5	-0.071919836
21	0xbd9fe53e	-0.07807396
22	0x3e1da947	0.15396605
23	0x3e1074b3	0.14107017
24	0x3deff599	0.11716766
25	0x3e2a8812	0.16653469
26	0x3cca7a54	0.024716534
27	0x3d459f6a	0.048247732
28	0xbdc619e0	-0.09672904
29	0x3cd9abed	0.026571238
30	0xbe0e8257	-0.13916908
31	0x3e0cf8c5	0.13766773
32	0x3ddd9719	0.10819835
33	0x3d9b50ab	0.075837456
34	0x3e1cfa7a	0.15329924
35	0x3d75b593	0.059987616
36	0x3e42cf62	0.19024423
37	0x3c8316de	0.016002115
38	0x3d029ebf	0.031889673
39	0xbd9f5828	-0.07780486
40	0x3ba6c33b	0.0050891913
41	0xbec02979	-0.3753164
42	0x3d9ab8da	0.07554789
43	0x3df719d1	0.12065471
44	0xbdc0e250	-0.09418166
45	0x3df70009	0.120605536
46	0x3e18c870	0.14920211
47	0xbd9e2c02	-0.077232376
48	0x3d8a6d7b	0.06759163
49	0xbdec108e	-0.11526595
50	0x3e5acf83	0.21368222
51	0x3db30f8a	0.08743198
52	0x3d543bf6	0.051814996
53	0x3d8abfa7	0.06774836
54	0x3cd6366d	0.026149
55	0x3d5f82c6	0.054568075
56	0xbe191fc6	-0.14953527
57	0x3dc8726e	0.09787451
58	0xbd6aff12	-0.05737216
59	0xbd5ec62e	-0.054388218
60	0xbd020117	-0.03173932
61	0xbb82b26d	-0.003988555
62	0x3dcbdad5	0.09953848
63	0xbc9ab71a	-0.018886138

value_layer.2.weight f4 [1, 64]
0	0xbec102dc	-0.37697494
1	0xbd96c3f6	-0.07361595
2	0x3ee743f6	0.45169038
3	0xba8e21b5	-0.0010843786
4	0xbf094320	-0.5361805
5	0xbfb83f6a	-1.4394352
6	0xbee2486c	-0.44195879
7	0xbf85e77b	-1.0461267
8	0x3f989ac5	1.1922232
9	0x3dac2637	0.084057264
10	0xbfc37ad3	-1.5271858
11	0xbee9e955	-0.4568583
12	0x3ef6216b	0.4807237
13	0x3f0afc96	0.54291666
14	0x3f640ff3	0.89086837
15	0x3f366fc2	0.7126428
16	0x3da03aad	0.078236915
17	0xbeb62765	-0.3557693
18	0xbfc17c11	-1.5115987
19	0xbec27535	-0.37980047
20	0xbeeb0d87	-0.45908758
21	0x3dc70d94	0.09719387
22	0xbeb4819b	-0.3525513
23	0xbec06cfa	-0.37583143
24	0xbedcfbf2	-0.4316097
25	0x3eb7a555	0.35868326
26	0xbf0de0cd	-0.55421144
27	0x3da1e168	0.07904321
28	0x3f8b23a0	1.0870247
29	0xbeeb06b2	-0.45903546
30	0x3d8b0d7c	0.06789681
31	0x3ec64172	0.38721806
32	0xbe9ee8e3	-0.31037053
33	0xbeb60830	-0.35553122
34	0xbecdd574	-0.40201914
35	0xbee31ab3	-0.44356307
36	0x3f0e8937	0.55678123
37	0xbed5fc3f	-0.4179401
38	0xbeea6e41	-0.45787242
39	0xbf190739	-0.59776646
40	0x3fd67777	1.6755208
41	0xbfa4d815	-1.2878443
42	0xbee74de1	-0.45176604
43	0xbece9e11	-0.4035497
44	0x3d32a0d8	0.043610424
45	0x3f881afd	1.0633236
46	0x3ea9689d	0.33087626
47	0xbebcb865	-0.36859432
48	0xbedc92c1	-0.43080714
49	0x3da7ac5c	0.08187172
50	0x3edf72d5	0.43642297
51	0x3c5a3ba6	0.013319885
52	0xbec026cf	-0.3752961
53	0xbea71a22	-0.32637125
54	0xbebdaff1	-0.37048295
55	0xbed95e4f	-0.42454764
56	0x3d6167d5	0.055030663
57	0x3f3942e0	0.7236767
58	0x3f2434ef	0.6414327
59	0xbecebf73	-0.4038044
60	0xbf021ffa	-0.5083004
61	0xbee0dff6	-0.4392087
62	0x3f96de07	1.1786507
63	0xbec46d45	-0.38364616
