notebooks/final/2023-02-03-15-35-52_model_checkpoint.pth (torch, 20375 bytes, 6 tensors)

layers.0.weight f4 [64, 4]
0	0xbe2947cb	-0.16531293
1	0xbda59e26	-0.08086805
2	0x3ff238d1	1.8923589
3	0x3ec53cd3	0.38522968
4	0xbcb0c3fc	-0.021577828
5	0xbcc590aa	-0.024116833
6	0x3e61cc73	0.22050647
7	0xbdee9af5	-0.116506495
8	0x3b5cc3c4	0.0033686021
9	0xbd17907b	-0.03700302
10	0x3ffa3972	1.9548781
11	0x3e08db25	0.13364847
12	0xbe4ce850	-0.20010495
13	0x3d8360f3	0.06414976
14	0xbe0d9314	-0.13825637
15	0x3e28f0bf	0.16498087
16	0x3eadd8f6	0.3395459
17	0xbf1e9292	-0.619424
18	0xbf5bb440	-0.85821915
19	0xbe2feaa3	-0.1717935
20	0x3f0e0496	0.5547575
21	0xbeab6ee2	-0.33483034
22	0x3fa342a8	1.2754717
23	0xbe148d39	-0.14506997
24	0x3f00b7f8	0.50280714
25	0xbd7919d2	-0.06081564
26	0x3fa9f03a	1.3276436
27	0x3ef21a48	0.47285676
28	0x3e57bb65	0.21067579
29	0x3e0881ed	0.13330813
30	0xbfd4cf75	-1.6625811
31	0xbd0add27	-0.033902314
32	0x3d981ef1	0.074277766
33	0xbda4b9e9	-0.08043272
34	0xbfd884eb	-1.6915563
35	0xbe9c6343	-0.3054448
36	0x3eb44795	0.35210863
37	0x3ee0c93d	0.43903533
38	0x3ea76bfa	0.32699567
39	0x3e84dfa5	0.25951877
40	0x3de5bc39	0.11217541
41	0xbec8c91b	-0.3921593
42	0x3f535eb6	0.8256639
43	0xbe74768e	-0.2387335
44	0x3e4fa33d	0.20277114
45	0x3cbc3dab	0.022978624
46	0xbfc393a6	-1.5279434
47	0xbe3ee3c2	-0.1864157
48	0xbe6cbff9	-0.23120107
49	0xbeda8f92	-0.4268766
50	0x3f3e753a	0.74397624
51	0xbe777708	-0.241665
52	0x3e38168b	0.1797735
53	0xbb822610	-0.0039718226
54	0xbf374095	-0.7158292
55	0xbe447832	-0.19186476
56	0xbe97bea2	-0.2963763
57	0x3e03b400	0.12861633
58	0x3f311fce	0.69189155
59	0x3e6b5a88	0.22983754
60	0x3da21a01	0.07915116
61	0x3d323494	0.043507174
62	0xbe51e5c2	-0.20497802
63	0xbe55b9cf	-0.20871662
64	0xbe9bdd1f	-0.3044214
65	0x3e7283af	0.23683046
66	0xbf4ecd1c	-0.8078172
67	0x3de55669	0.11198122
68	0x3e03c1c2	0.12866881
69	0xbcee2f59	-0.029075311
70	0xbe60fc71	-0.21971299
71	0x3e64e08c	0.22351283
72	0x3e1b234d	0.15150185
73	0xbd3f16a8	-0.046652466
74	0xbfaeb6c9	-1.3649532
75	0xbd3ee242	-0.046602495
76	0xbd30f0b0	-0.043198287
77	0x3e0b8a6d	0.13627024
78	0x3ff3e6cb	1.9054807
79	0x3d169800	0.036766052
80	0xbe2fb33a	-0.17158213
81	0x3e8d51f0	0.27601576
82	0x3eae0b2c	0.33992898
83	0x3eb8713b	0.36023888
84	0xbe1935c0	-0.1496191
85	0x3e7f5986	0.24936494
86	0xbfa768c3	-1.3078846
87	0x3e0d94e9	0.13826336
88	0xbd81b7b9	-0.063338704
89	0xbe70dbfa	-0.23521414
90	0x3fbb8f04	1.465302
91	0x3dac9e37	0.084286146
92	0x3ea81297	0.32826683
93	0x3e96ee91	0.29478887
94	0x3f78acb1	0.97138506
95	0x3e6a1b30	0.22861934
96	0xbefb504c	-0.490847
97	0x3d847e20	0.06469369
98	0x3f2a076c	0.66417575
99	0x3da14474	0.078743845
100	0xbe8f3af8	-0.27974677
101	0x3bec6e94	0.0072153304
102	0xbf5db741	-0.8660775
103	0xbd2ec21f	-0.042665597
104	0x3e608394	0.21925193
105	0xbda7c11d	-0.0819113
106	0xbf9619b6	-1.1726596
107	0xbe0aec7c	-0.13566774
108	0x3d0a3980	0.033746243
109	0x3e98390e	0.2973103
110	0x3ff98b12	1.9495566
111	0x3eeb94da	0.46012002
112	0xbd9f9786	-0.07792573
113	0x3dae7d52	0.08519997
114	0x3ffb789f	1.9646186
115	0x3dcc994c	0.099901766
116	0xbdc61b15	-0.09673134
117	0xbdd2e47b	-0.102974854
118	0xbfab0b83	-1.3362888
119	0xbefe03bd	-0.49612227
120	0x3f0c504d	0.5481003
121	0x3dcdb53c	0.10044333
122	0xbf621554	-0.88313794
123	0xbdb80422	-0.08985163
124	0x3e84be1c	0.25926292
125	0xbe26f1f5	-0.16303237
126	0x3fbfc06d	1.4980599
127	0x3dcaf3da	0.09909792
128	0xbe8a6d3c	-0.27036464
129	0x3e9e7d7e	0.30955118
130	0x3ee436e2	0.44573122
131	0x3e152e46	0.14568433
132	0x3ea15835	0.3151261
133	0xbdfb0bc7	-0.12258106
134	0xbfc0fbcf	-1.5076846
135	0xbe37cd59	-0.17949428
136	0x3e752e69	0.23943485
137	0x3ec345db	0.38139233
138	0xbe90aef7	-0.28258488
139	0x3e8fe525	0.2810451
140	0x3e490cfa	0.19633856
141	0x3e0a5dd0	0.13512349
142	0x3ff87141	1.9409562
143	0x3ea7ad24	0.32749283
144	0x3e8a9790	0.27068758
145	0x3ee0c06b	0.43896803
146	0x3f475fdd	0.7788065
147	0x3e9c99ef	0.30586192
148	0x3eb5a3ec	0.35476625
149	0xbdf4cf96	-0.119536564
150	0xbf5a47ce	-0.85265815
151	0xbdd4ecfa	-0.10396762
152	0xbf19f7e7	-0.60143894
153	0xbe81c9b1	-0.2534919
154	0x3f395662	0.72397435
155	0xbd4ca8e3	-0.04996575
156	0x3ee623c7	0.4494917
157	0xbdec2ee0	-0.11532378
158	0xbf22597a	-0.6341778
159	0xbe1c3e3f	-0.1525812
160	0x3d85eccf	0.06539308
161	0xbeff1288	-0.49818826
162	0x3f891e28	1.0712328
163	0xbe83bdd9	-0.2573078
164	0xbe46fd50	-0.19432569
165	0x3d8548e5	0.06508044
166	0xbeeb2a90	-0.4593091
167	0x3df941a3	0.12170722
168	0xbcf01c5d	-0.0293104
169	0x3e46031d	0.19337125
170	0xbf7492e7	-0.95536655
171	0xbda1aab4	-0.07893887
172	0xbeaeae1e	-0.34117216
173	0x3eaaac5c	0.33334625
174	0xbf392fbd	-0.7233847
175	0x3e246307	0.16053401
176	0xbb7a0e09	-0.0038155338
177	0xbde05838	-0.109543264
178	0x3effa75b	0.4993237
179	0xbdaea915	-0.085283436
180	0xbf073ec6	-0.5283016
181	0xbd805727	-0.06266623
182	0x3d3d4310	0.046206534
183	0xbc341ccc	-0.010993194
184	0x3d696714	0.05698307
185	0x3ef6585d	0.4811429
186	0x3fe4d095	1.7876154
187	0x3ecb6405	0.39724746
188	0xbea2788b	-0.31732592
189	0xbd82f048	-0.06393486
190	0x3fd8bf60	1.6933403
191	0x3e177b1d	0.14793058
192	0x3e422e6d	0.18963023
193	0xbe1e5562	-0.15462258
194	0x3ff2b63a	1.8961861
195	0x3d74372d	0.059622932
196	0xbe094383	-0.1340466
197	0x3ecf90af	0.40540072
198	0xbf44fc05	-0.7694705
199	0xbe0da54f	-0.13832591
200	0xbf2b780b	-0.66980046
201	0x3e33a981	0.1754513
202	0x3fa8c9f1	1.3186628
203	0x3e1ff975	0.15622504
204	0x3d3110f6	0.043229066
205	0x3d3fccb1	0.04682607
206	0x3fac47ad	1.3459374
207	0x3e2a5f09	0.16637816
208	0xbec590ab	-0.38586935
209	0xbe4c0248	-0.19922745
210	0x3fb3959b	1.4030031
211	0xbddaac32	-0.10677375
212	0x3e81f822	0.25384623
213	0xbe047ff6	-0.12939438
214	0xbfc292bc	-1.520103
215	0xbd4ab100	-0.049485207
216	0x3e735550	0.23763013
217	0xbe1b641c	-0.15174907
218	0xbfadc270	-1.3574963
219	0xbcd7524e	-0.026284363
220	0xbe7c0fb8	-0.24615371
221	0xbdf7acd6	-0.12093513
222	0x3f30cb78	0.6906047
223	0x3d12a081	0.0357976
224	0x3e89a936	0.2688691
225	0x3e39de97	0.18151318
226	0x3fd1f345	1.6402365
227	0x3eb8949a	0.36050874
228	0x3ea41a71	0.32051423
229	0x3ec82068	0.39087224
230	0x3ea9dd51	0.33176664
231	0x3e87138f	0.2638211
232	0x3d77ea9b	0.06052647
233	0xbd3530ad	-0.044235874
234	0xc00c0420	-2.1877518
235	0xbe493e7a	-0.19652739
236	0xbedfaf5a	-0.4368847
237	0x3ecd5cac	0.40109766
238	0xbf6c4947	-0.9229931
239	0x3e349102	0.17633441
240	0xbed40b0d	-0.4141468
241	0xbedef5ae	-0.43546814
242	0xbf5cbf52	-0.8622943
243	0xbe9659ed	-0.29365483
244	0x3e8e908a	0.2784465
245	0xbe434d59	-0.19072475
246	0xbf97caf6	-1.1858814
247	0xbea3343e	-0.31875795
248	0xbe78d741	-0.24300863
249	0xbe55a4dd	-0.20863672
250	0xbfc67d5b	-1.5507005
251	0xbe956d3d	-0.29184905
252	0xbe9c0346	-0.30471247
253	0x3f112ec3	0.5671198
254	0xbf4a9615	-0.79135257
255	0x3ea842ea	0.3286355

layers.0.bias f4 [64]
0	0x3d1edc48	0.038784295
1	0x3e3a0e15	0.18169434
2	0x3f111753	0.56676215
3	0x3f4f1549	0.80891854
4	0xbf3ab948	-0.72938967
5	0xbe354e8d	-0.17705746
6	0xbea0fca8	-0.3144276
7	0xbedfe20d	-0.4372715
8	0xbea3061f	-0.31840608
9	0xbef64f11	-0.48107198
10	0x3ef20b8e	0.4727444
11	0x3f1637a3	0.58678645
12	0xbf57ce1d	-0.8429888
13	0x3ef39df2	0.4758144
14	0x3f570fc7	0.8400845
15	0x3f11f7d0	0.57018757
16	0x3ef0b343	0.47011766
17	0x3f27869b	0.65439767
18	0x3eb71e5b	0.35765347
19	0x3f327b44	0.6971934
20	0xbf13b0b5	-0.5769151
21	0x3ebd51c4	0.36976445
22	0xbe92f250	-0.28700495
23	0xbf1e944b	-0.6194503
24	0xbf2dd685	-0.67905456
25	0xbf1577b8	-0.583858
26	0x3ed50bdf	0.4161062
27	0xbdb6008e	-0.088868245
28	0x3effcf2d	0.4996275
29	0xbeb0ba5b	-0.34517178
30	0xbf414132	-0.75490105
31	0x3f18b47c	0.596504
32	0x3f086df7	0.53292793
33	0x3eee3958	0.46528125
34	0xbf342b5b	-0.70378655
35	0xbebad2ff	-0.36489102
36	0xbf24fc20	-0.6444721
37	0xbf3ae378	-0.7300334
38	0xbe8b2c60	-0.27182293
39	0xbf279235	-0.6545747
40	0x3ed07593	0.40714702
41	0x3f0310e5	0.51197654
42	0x3f3a4270	0.72757626
43	0x3f4297a1	0.7601262
44	0xbe9e734a	-0.30947334
45	0x3dd62647	0.104565196
46	0xbf2d745b	-0.6775567
47	0x3ed3e81f	0.41388032
48	0x3f045d72	0.51705086
49	0xbf16d33e	-0.5891608
50	0xbf04bc28	-0.51849604
51	0xbe95ecb4	-0.29282153
52	0xbf61a7c6	-0.88146627
53	0x3edeb46d	0.4349703
54	0x3ed66949	0.418772
55	0xbf0caf8c	-0.54955363
56	0xbec8af5f	-0.39196298
57	0xbf399e59	-0.72507244
58	0xbef9da2b	-0.4879926
59	0x3f16dbbb	0.5892903
60	0xbe1ff9f4	-0.15622693
61	0x3f0b7a41	0.5448342
62	0x3f51897e	0.8185042
63	0x3e88ee96	0.26744527

layers.2.weight f4 [64, 64]
0	0x3dfcd239	0.12344784
1	0xbd7b0181	-0.06128073
2	0xbdb1c8a0	-0.08680844
3	0x3d07e424	0.033176556
4	0xbe041442	-0.12898353
5	0xbdac319e	-0.08407901
6	0xbd81b9d9	-0.06334276
7	0xbb4ff33e	-0.0031730677
8	0xbbb3aa3b	-0.0054829395
9	0xbdda90fb	-0.10672184
10	0x3c26add5	0.010173281
11	0xbc428911	-0.0118734995
12	0x3daab77f	0.0833578
13	0xbd64ea39	-0.055887435
14	0xbdfbcf1a	-0.12295361
15	0xbd94f02f	-0.07272374
16	0x3d961862	0.073288694
17	0xbbb69691	-0.005572148
18	0xbdc0e6d1	-0.09419025
19	0xbde27156	-0.11056773
20	0x3dd9e4e2	0.10639359
21	0x3d88a19e	0.06671451
22	0x3dc924db	0.09821483
23	0xbc04d440	-0.008107245
24	0xbdc86f64	-0.09786871
25	0xbe18a5a1	-0.14906932
26	0xbe050a58	-0.12992227
27	0xbd5f17b2	-0.054465957
28	0xbd823576	-0.06357853
29	0xbe0e862b	-0.13918369
30	0x3d37ca94	0.044870928
31	0x3dd1e7e8	0.10249311
32	0xbde90e9c	-0.1137974
33	0xbe03eb81	-0.12882806
34	0x3dcc6500	0.09980202
35	0xbe09e471	-0.1346605
36	0xbd378af8	-0.044810265
37	0xbd707e80	-0.05871439
38	0xbdbe4234	-0.09289971
39	0xbdff13fa	-0.12454982
40	0xbc353c4b	-0.011061738
41	0x3c261bcd	0.010138464
42	0xbe0eadcc	-0.13933486
43	0xbe1c3a89	-0.15256704
44	0x3dc57780	0.096419334
45	0x3d1bc03d	0.03802513
46	0xbdced71c	-0.100996226
47	0x3c56d5e6	0.013112521
48	0x3dee93db	0.11649295
49	0xbe0b48dc	-0.13602012
50	0x3d45fc8e	0.048336558
51	0xbd621d30	-0.055203617
52	0x3c6bd698	0.014394425
53	0xbd80f7cc	-0.062972635
54	0x3d0d91ad	0.034562755
55	0xbddeba95	-0.108754314
56	0xbde3d57a	-0.11124702
57	0xbd0559a8	-0.032556206
58	0x3cdb7d65	0.026793191
59	0xbdba772e	-0.09104763
60	0x3d2e6af2	0.04258246
61	0xbbda98f8	-0.0066710673
62	0x3d6ced1f	0.057843324
63	0xbcb8fec2	-0.022582415
64	0xbdc9f80a	-0.09861763
65	0xbe14d135	-0.14532931
66	0x3ce687bd	0.028140897
67	0xbda67c51	-0.0812918
68	0x3dc1a06b	0.094544254
69	0xbcb199e7	-0.021679832
70	0xbde926dc	-0.11384365
71	0xbd376fac	-0.044784233
72	0xbb9efca0	-0.0048518926
73	0xbcad0684	-0.021121271
74	0xbde668c4	-0.11250451
75	0xbdcd45ac	-0.100230545
76	0x3d88ee2d	0.066860534
77	0x3dc21d81	0.09478284
78	0x3d88e79f	0.06684803
79	0x3c721b7a	0.014777059
80	0x3db09cdf	0.08623671
81	0xbda0caff	-0.078512184
82	0x3dc10add	0.094259
83	0xbdc40da8	-0.09572917
84	0x3d769d7c	0.060208783
85	0xbcfc09eb	-0.030766448
86	0x3dda5a1a	0.10661717
87	0xbe01e486	-0.12684831
88	0x3c2f6430	0.010705039
89	0xbddc4a91	-0.1075641
90	0x3d8e76ae	0.0695623
91	0x3bf3ef68	0.007444311
92	0xbdda4aac	-0.10658774
93	0xbdebda6a	-0.115162686
94	0x3d4eb505	0.050465602
95	0xbcc14bbf	-0.023595689
96	0xbd5cd89d	-0.053917516
97	0xbe18a966	-0.1490837
98	0x3dae4ba1	0.08510519
99	0xbcafaf21	-0.021445813
100	0x3ddc3536	0.10752337
101	0x3d00c3fa	0.031436898
102	0x3a7a216c	0.00095417234
103	0x3b8fc5ec	0.004387608
104	0x3db73479	0.08945555
105	0x3dbf1ab0	0.09331262
106	0x3b27e329	0.0025617576
107	0xbe07adc6	-0.13249883
108	0xbc504660	-0.012712091
109	0x3cd419b8	0.02589117
110	0x3cf5ec60	0.030019939
111	0xbe0a2f5c	-0.13494629
112	0x3a595917	0.00082911685
113	0xbdb3617e	-0.087588295
114	0xbd456ed8	-0.048201412
115	0xbdb618c0	-0.088914394
116	0xbc3a804d	-0.011383128
117	0xbcdfb17d	-0.027306313
118	0x3d980c15	0.074241795
119	0xbd484dbe	-0.048902266
120	0xbe01bfa4	-0.12670761
121	0x3da5baf1	0.08092297
122	0xbdcf2c8c	-0.101159185
123	0xbdc378b4	-0.09544507
124	0x3d52e812	0.05149085
125	0xbdb1073c	-0.08643958
126	0xbe18b16b	-0.1491143
127	0x3d8a58ba	0.067552045
128	0x3e18e158	0.14929712
129	0xbd2756bc	-0.0408542
130	0x3eb5d1a4	0.35511506
131	0x3ea61816	0.3244025
132	0xbe6e8bef	-0.23295568
133	0xbde6a96f	-0.11262786
134	0x3da26c97	0.07930868
135	0x3e25890b	0.16165559
136	0x3d58cd37	0.052930083
137	0xbe398001	-0.18115236
138	0x3e61107c	0.21978945
139	0x3e10e431	0.14149548
140	0xbf1786d5	-0.5919011
141	0x3e094773	0.13406162
142	0x3ecb013b	0.39649376
143	0x3e410b20	0.188519
144	0x3bf08ef5	0.0073412606
145	0x3e5ec2d0	0.21754003
146	0x3c9494cb	0.018137356
147	0x3e5b6a0d	0.21427174
148	0xbe37f552	-0.17964676
149	0x3d4dee16	0.050275885
150	0xbe02607c	-0.12732118
151	0xbf94958e	-1.160814
152	0xc012cbb8	-2.293684
153	0xbf9c3a2f	-1.2205256
154	0x3e92c845	0.2866842
155	0xbd874085	-0.06604103
156	0x3e9ac60c	0.30229223
157	0xbcaf1bb1	-0.021375509
158	0xbd7a037d	-0.061038483
159	0x3e3ccef8	0.18438327
160	0x3e0c60fe	0.13708875
161	0x3e7d98ad	0.24765272
162	0x3cb8573b	0.022502532
163	0xbd1fa364	-0.03897418
164	0xbf2f2c9d	-0.6842745
165	0xbedfc95a	-0.43708307
166	0xbe1f3133	-0.15546112
167	0x3d42d86f	0.04756969
168	0xbd2840ee	-0.041077547
169	0x3eb24da8	0.34824872
170	0x3e3f774e	0.18697855
171	0x3ec42c9e	0.3831529
172	0xbca031d7	-0.019555015
173	0xbcfabf67	-0.030608846
174	0x3f1476f1	0.5799399
175	0x3d44e083	0.048065674
176	0x3ea81701	0.3283005
177	0x3dca8b6c	0.09889874
178	0xbf99d65b	-1.2018541
179	0xbf82b732	-1.0212157
180	0xc00e7587	-2.2259233
181	0x3e6d3788	0.23165715
182	0x3cdaab2e	0.026692953
183	0xbf283811	-0.6571055
184	0xbc3de958	-0.011591278
185	0xbf622102	-0.88331616
186	0xc01a255e	-2.4085307
187	0xbbf25d98	-0.007396411
188	0xbe4122bd	-0.18860908
189	0x3ecc96a9	0.39958695
190	0x3e88ba24	0.26704514
191	0x3e100bbd	0.14066978
192	0x3e10b82b	0.14132755
193	0x3cb0ec85	0.021597156
194	0x3ebbaf36	0.36657113
195	0x3e8768fc	0.26447284
196	0x3cdae448	0.026720181
197	0xbe3c5b44	-0.1839419
198	0xbddb2d08	-0.107019484
199	0xbe784e6f	-0.2424867
200	0xbec0de4e	-0.37669605
201	0xbe2bcf3c	-0.16778272
202	0x3e9787c9	0.29595783
203	0x3e869b18	0.26290202
204	0xbf02ad32	-0.51045525
205	0x3e74e980	0.23917198
206	0x3e8cf34d	0.27529374
207	0x3e5cf87a	0.21579161
208	0xbdc8a970	-0.09797943
209	0x3eb42d26	0.35190696
210	0x3d029328	0.03187862
211	0x3e57c60e	0.21071646
212	0x3e19c500	0.15016556
213	0x3e0ff94a	0.1405994
214	0x3e73ab76	0.23795876
215	0xbf59646d	-0.8491886
216	0xc0105775	-2.255338
217	0xbfa232f2	-1.2671797
218	0x3e592e6e	0.21209118
219	0x3e11ffb6	0.14257702
220	0x3e967ceb	0.2939218
221	0xbc23a36c	-0.009987693
222	0xbd1c41de	-0.038148753
223	0x3e20658d	0.15663739
224	0x3e7f5cfb	0.24937813
225	0x3e9999e9	0.30000237
226	0x3e0028ac	0.12515515
227	0x3de01a01	0.1094246
228	0xbf0863fc	-0.53277564
229	0xbf28d17a	-0.65944636
230	0xbe303270	-0.1720674
231	0x3d5b20d3	0.0534981
232	0x3d5bd787	0.05367234
233	0x3e42ed4f	0.19035839
234	0x3e9a5849	0.3014548
235	0x3e37643d	0.17909332
236	0x3c93821c	0.018006377
237	0xbe014937	-0.12625585
238	0x3f2e2585	0.68026
239	0x3e850cc8	0.25986314
240	0x3e138d25	0.14409311
241	0xbd225ae0	-0.039637446
242	0xbfa6e632	-1.3039
243	0xbf290031	-0.6601592
244	0xc012b54d	-2.2923157
245	0x3c44e258	0.012016855
246	0xbcabbf37	-0.020965202
247	0xbeed9c79	-0.46408442
248	0x3e315211	0.17316462
249	0xbf446d93	-0.76729697
250	0xc0360b16	-2.8444266
251	0x3e6b5841	0.22982885
252	0xbde86c64	-0.11348799
253	0x3e9f0d45	0.3106481
254	0x3e0978d8	0.13425004
255	0x3d36381e	0.04448711

layers.2.bias f4 [64]
0	0xbe0aff00	-0.13573837
1	0x3c71bc66	0.01475439
2	0x3ebfc82b	0.37457404
3	0x3e9e5d19	0.30930403
4	0x3eac01fb	0.3359526
5	0xbd9048a3	-0.07045104
6	0xbd73a317	-0.059481706
7	0x3edd4519	0.4321678
8	0x3edb660d	0.42851296
9	0xbc2b62ea	-0.010460595
10	0xbe8f28aa	-0.27960712
11	0xbe06b089	-0.1315328
12	0xbc0ad1d8	-0.008472882
13	0xbe94ccd8	-0.29062533
14	0xbdf93f07	-0.12170225
15	0x3e925d84	0.28586972
16	0xbdaca400	-0.08429718
17	0xbc75a12b	-0.014992039
18	0x3ecbc409	0.39798
19	0x3eab178f	0.3341641
20	0x3ee9fe7c	0.4570197
21	0x3e8eb627	0.27873346
22	0x3d4e193b	0.05031703
23	0x3ea7ed8b	0.32798418
24	0x3efe8f02	0.4971848
25	0x3ca235da	0.019801069
26	0x3ed9429a	0.42433625
27	0xbe45c379	-0.19312848
28	0xbdebf339	-0.115210004
29	0x3eb5aa53	0.3548151
30	0xbbd87b89	-0.0066065234
31	0x3ebccd30	0.36875296
32	0x3d2b630f	0.041842517
33	0x3effa157	0.4992778
34	0xbd68af8b	-0.056808036
35	0xbe6de891	-0.23233248
36	0x3d8c763d	0.0685849
37	0x3d73d1d7	0.05952629
38	0x3f03ec91	0.51532847
39	0xbe950d00	-0.2911148
40	0x3ed68f8a	0.41906387
41	0xbda33f47	-0.079710536
42	0x3e706338	0.23475349
43	0x3e94d28b	0.29066882
44	0xbe2c4827	-0.16824399
45	0x3ea235b6	0.31681603
46	0x3f03646f	0.51325125
47	0x3ee89ce6	0.45432204
48	0x3bc26e46	0.005933556
49	0x3ea2d3f5	0.31802335
50	0xbca1df99	-0.01975994
51	0xbbad23c0	-0.0052838027
52	0xbe189215	-0.14899476
53	0x3ecb9d77	0.39768574
54	0x3d457135	0.048203666
55	0xbc79488c	-0.01521505
56	0x3ed86c84	0.4227029
57	0xbcb953f2	-0.022623036
58	0x3ea1e05f	0.31616494
59	0x3ef01246	0.46888942
60	0x3e835f47	0.25658628
61	0x3cb86255	0.022507826
62	0x3ebb7960	0.3661604
63	0x3e954d32	0.29160458

layers.4.weight f4 [2, 64]
0	0x3c63efaa	0.013912121
1	0xbda35559	-0.07975263
2	0x3eea66b7	0.4578149
3	0x3eba236b	0.36355147
4	0x3ecae8fe	0.39630884
5	0xbddc44a3	-0.10755279
6	0xc034efa3	-2.8271263
7	0x3ef6e022	0.48217875
8	0x3f01a1d0	0.5063753
9	0xbc97e460	-0.018541515
10	0xc0539cf9	-3.3064559
11	0xbe149c94	-0.14512855
12	0xc0280275	-2.62515
13	0xbf924566	-1.1427429
14	0xc048b0dc	-3.1357946
15	0x3ed83fdd	0.42236224
16	0xbdff0152	-0.12451424
17	0x3e09a6a3	0.13442473
18	0x3f2bb164	0.6706755
19	0x3f1047c1	0.5635949
20	0x3ec9efc2	0.39440733
21	0x3ec81c7a	0.39084226
22	0x3b891654	0.00418357
23	0x3f02e92c	0.5113704
24	0x3ee2a3d1	0.44265607
25	0x3cdc4f79	0.026893364
26	0x3f45f824	0.7733176
27	0xbfded605	-1.7409064
28	0x3ca4847b	0.020082703
29	0x3ebb13a3	0.3653842
30	0xbd5a68a9	-0.053322468
31	0x3efb1ca4	0.4904529
32	0xc05d019a	-3.4532228
33	0x3ed45a55	0.41475168
34	0xbf450cd6	-0.7697271
35	0xbfafe2ee	-1.3741128
36	0x3c0dea2b	0.008661787
37	0x3c156107	0.009117371
38	0x3ef11124	0.4708339
39	0xc0049c31	-2.0720332
40	0x3ef2e7a1	0.47442344
41	0xbff36b46	-1.9017112
42	0x3ee85389	0.45376232
43	0x3ebaed64	0.3650924
44	0xbfc4f6f3	-1.5387863
45	0x3ee6755b	0.4501141
46	0x3eeacb27	0.45858118
47	0x3f0275c5	0.5096095
48	0x3dfad5dc	0.12247822
49	0x3ef8f67b	0.4862555
50	0xbec33cfa	-0.3813246
51	0x3dc8607a	0.097840264
52	0xbe51a4ac	-0.20472974
53	0x3efe4f05	0.49669662
54	0xc0987d15	-4.765269
55	0xbda78087	-0.081788115
56	0x3eb49ff3	0.35278282
57	0xc041f6b7	-3.0306833
58	0x3eabe3db	0.33572277
59	0x3ec9e31d	0.39431086
60	0x3f16ea34	0.58951116
61	0xbdb466c3	-0.08808663
62	0x3ec213a7	0.3790562
63	0x3ec52e4b	0.3851188
64	0x3d83fd31	0.06444777
65	0xbc1ad4ed	-0.0094501795
66	0x3ec896fa	0.39177686
67	0x3ee530fb	0.44763932
68	0x3ed7cbe7	0.42147753
69	0xbda034c9	-0.07822568
70	0xc062c637	-3.543348
71	0x3eb3f636	0.35148782
72	0x3f0a8dd8	0.54122686
73	0xbd744bf6	-0.059642754
74	0xc0407b80	-3.0075378
75	0x3eaae855	0.3338038
76	0xc00ec4ac	-2.230754
77	0xbf0ee4bb	-0.55817765
78	0xc0894e18	-4.290783
79	0x3ec2409e	0.37939924
80	0x3de21874	0.1103982
81	0xbe9a5b35	-0.3014771
82	0x3f363f1e	0.7119006
83	0x3ecdf820	0.40228367
84	0x3ee40dc8	0.44541764
85	0x3eeca2ab	0.46217856
86	0xbde27fac	-0.11059508
87	0x3eac481e	0.3364877
88	0x3eea39eb	0.45747313
89	0xbd0c42b2	-0.034243293
90	0x3f34f10e	0.7068032
91	0xbf57a708	-0.84239244
92	0xbdbc561d	-0.09196112
93	0x3ef06ec5	0.4695951
94	0xbcb27dde	-0.021788534
95	0x3f03abd2	0.5143405
96	0xc06f96f9	-3.7435896
97	0x3eca23e6	0.39480513
98	0xbe5d8ee9	-0.21636547
99	0xbf7b9c12	-0.9828502
100	0x3c06c284	0.008225087
101	0xbdb06b76	-0.086142465
102	0x3f1a0f98	0.60180044
103	0xc0008d5c	-2.008628
104	0x3edcb237	0.43104717
105	0xc00fb08e	-2.245151
106	0x3e979ff4	0.29614222
107	0x3ee4192a	0.4455045
108	0xc02e68ff	-2.7251585
109	0x3edba0b5	0.42896047
110	0x3efe6232	0.49684292
111	0x3ee796b5	0.45232168
112	0xbe4fecbd	-0.20305152
113	0x3eb80020	0.35937595
114	0xbe20fdf4	-0.15721875
115	0xbd0a0908	-0.03370002
116	0x3e8d6a8c	0.2762035
117	0x3f00d041	0.5031777
118	0xbdbd2348	-0.09235245
119	0xbf57ba81	-0.8426896
120	0x3ef152f1	0.47133592
121	0xc0956fa6	-4.669879
122	0x3ef10de3	0.47080907
123	0x3ebcf3e6	0.3690483
124	0x3f2dff2d	0.6796749
125	0x3d8fc2a9	0.0701955
126	0x3ee23b39	0.44185808
127	0x3ed859cb	0.42256007

layers.4.bias f4 [2]
0	0x3eadefd5	0.3397204
1	0x3ecf766c	0.40520036
