notebooks/final/2023-02-03-14-12-17_model_checkpoint.pth (torch, 20375 bytes, 6 tensors)

layers.0.weight f4 [64, 4]
00000000: f263 953e 9cc5 3f3e c65c 853e fc2d 093e
00000010: 2302 0c3f 1e08 273e 40ce ab3d e184 61be
00000020: df6e 8d3c 4c35 0dbd 1687 033f d323 403d
00000030: d561 2dbe c2bb a7bd 7147 ed3d e77f bc3e
00000040: dc3a 4dbe 76be e5be b0c6 f5bd 6840 a2be
00000050: b718 e63e 9ca1 cabe 969d 9a3e d963 d8bd
00000060: 0288 e33e 3f36 94be 4db3 42bd a9d2 f63e
00000070: 7272 32bd 33e4 b4be 4603 85be 28ae 57be
00000080: b5a9 3bbe c14f 383e ee38 b7be 484c 73be
00000090: 208f 703e 544d 603e 602e 95be 58c5 663e
000000a0: 4d43 993e 17f9 e6be 198a 363e 3a76 0e3e
000000b0: 0223 9a3e 5a30 b73c fc92 bfbe 9e20 d7bd
000000c0: 8c89 b3be f68c e9be 80df 8a3d 207a 5cbe
000000d0: 0b27 b53e 42c4 c13d fdf0 08be 3413 0b3c
000000e0: b16d 91be 082d 1d3d 8b1c 133e 2120 373e
000000f0: 9232 d43c 9d43 ba3e 167c b53e 7231 d8be
00000100: f9a7 a0be 78cb 983d e669 4abe a6ce b9bc
00000110: 68a1 c63e 5449 8cbd 1704 47be ae85 fb3e
00000120: 9a6d bf3e 5aa7 8fbd c5b8 9fbe 6961 f73d
00000130: 5785 d63d 177f df3e 7a24 243f e980 2cbe
00000140: 456c babe 0f3a 683e 953f 963c 5f2f f53e
00000150: c58a 80bd 7596 1dbc 6cf6 05bf 7820 833e
00000160: 8548 b2be 7b99 f7be ea1b 12bd 0fcc b33e
00000170: 3aa5 9b3e 6b60 063e 69b9 63be 5588 e83e
00000180: 0677 80be e0f4 ac3c 4801 653e 8034 34bc
00000190: a9d5 00bf 5711 e2be 2ca8 2abe 98fe 333e
000001a0: 4559 be3e a15e cfbc 9b69 b8bd 79e0 afbd
000001b0: cc88 8e3e 9da7 023f 79f7 0a3f 2883 393e
000001c0: 84be 313e 79da 5e3e 2f2e e83e f6e1 093e
000001d0: 244e 9d3d 4893 96be 900c 74be 5f06 a9bc
000001e0: 05b8 273f 778c 443e 26fd c6be ee95 67be
000001f0: e658 c83e bb4b 8abd 2ed7 8d3e e174 bf3d
00000200: 2f7c 24be 678a e23e 3071 3d3c 09f8 513d
00000210: 2be0 cb3e d4c9 35be c76f 05be 7d49 47be
00000220: 4923 18bd 2b82 ec3e 85c7 a3be 5dc5 21be
00000230: 0c20 813e 5652 6b3e b7d0 6d3e f9a0 023f
00000240: f184 a33c 6d9a d03e 114b 7abe 3098 8abe
00000250: 8e63 e33e db2e f0be ca7f 1c3d 212c 8e3e
00000260: 26b1 32be abc3 cebe 78cc eb3e 39b0 813e
00000270: 15b9 f13e 17f6 c73d cef4 90bd f5fd c7be
00000280: 3e48 23be bc14 dfbe a5f2 0c3f ce7d d5be
00000290: 733c 89bc 954f 98bc 855d b2be 7f80 633e
000002a0: c320 09bd 2566 953e 8f30 3abe 0cbf 2b3c
000002b0: fa97 57be fc47 ae3e 9440 a4be d637 3e3e
000002c0: 20af 20bd c03b 14be 282e f83e 9089 4ebd
000002d0: a53b a4bd 2cbb 183e b0ca 37be 9b1c 63be
000002e0: 9158 b6bd e0bf c03e 017e c83e 8b74 29be
000002f0: 59e6 83be eefd 4ebe 7bd6 ee3d 5b02 833d
00000300: 1868 bb3e 0839 9f3d 54ae e73e 330c e83d
00000310: 5057 a8be dff4 ae3e b9ae 02bf d50b 443b
00000320: d42d 043e 6166 af3e 6e62 123f b204 d9be
00000330: 4789 ae3e b325 d73d 955f 9ebd ce85 473e
00000340: c734 febe 6dd8 a2be 9c43 cc3e 838f 56be
00000350: 8ed0 963e cba3 8cbe 903a a1be 8fd2 9bbd
00000360: 5c91 513e b1a1 42be d09b f5be 76d1 623e
00000370: facf a9be 929e 97bd bca6 c3bc 727b 703e
00000380: d5af ea3d a71a b53e f44a f33e 6d99 e83e
00000390: ac10 7f3e c168 a33e eb5c f1be 411d 96bd
000003a0: 69ac cc3d 6705 a2be 8146 83bf d642 97be
000003b0: 4197 00bf 24f1 d33e 01df 91be 6e3e 3dbe
000003c0: 4400 90be 56a4 b8be 5cde 63be 9c01 70be
000003d0: f889 c03e 24fa a6be 43c5 37bd 2d46 94be
000003e0: 27a0 84be 4643 01be 17c0 abbe b223 64be
000003f0: 83cc b83d a4c0 f03e 3c5a 40be acce 21be
0.29177815 0.18727726 0.26047343 0.13396448 0.5469076 0.1631169 0.083889484 -0.22023346
0.017264782 -0.034474656 0.51378 0.046909165 -0.16931851 -0.08190109 0.11585892 0.36816332
-0.20041984 -0.44871873 -0.12000787 -0.31689763 0.4494073 -0.39576423 0.30198354 -0.105659194
0.44439703 -0.28947636 -0.047534276 0.48207596 -0.043566175 -0.35330352 -0.2597906 -0.21062529
-0.18326457 0.17999174 -0.3578562 -0.23759568 0.23492098 0.21904498 -0.29136944 0.22536218
0.2993416 -0.45111915 0.17826118 0.13912287 0.30104834 0.022361923 -0.37416828 -0.10504268
-0.35065877 -0.45615357 0.067809105 -0.21530962 0.3538135 0.09461261 -0.1337318 0.008488465
-0.28404 0.038373023 0.14366357 0.1788335 0.02590302 0.3637971 0.35446233 -0.42225224
-0.31378153 0.074606836 -0.1976696 -0.022681545 0.38795018 -0.06849924 -0.19435154 0.49125427
0.37388307 -0.07014342 -0.31195655 0.120791264 0.10474651 0.4365165 0.6411816 -0.1684605
-0.36410728 0.22678398 0.018340865 0.47887704 -0.06276468 -0.009618391 -0.52329135 0.2561071
-0.34820953 -0.48359284 -0.035671152 0.35116622 0.30399495 0.13122718 -0.22238697 0.45416513
-0.25090808 0.02111286 0.2236377 -0.010998845 -0.5032602 -0.44153854 -0.16665715 0.17577589
0.37177482 -0.025313677 -0.09004518 -0.08587737 0.27838743 0.5103701 0.54283863 0.18116438
0.17357832 0.21763028 0.45347735 0.13465104 0.0768092 -0.29409242 -0.23832917 -0.02063292
0.65515167 0.19194208 -0.38865012 -0.22615787 0.39130324 -0.06752726 0.27703232 0.09348465
-0.16062997 0.44246218 0.0115626305 0.051261935 0.39819464 -0.17752773 -0.13030921 -0.19461627
-0.037143026 0.4619306 -0.3198816 -0.15797944 0.25219762 0.22980627 0.2322415 0.51026875
0.019960852 0.40742818 -0.24442698 -0.27069235 0.44411892 -0.46910748 0.038207807 0.27768043
-0.1745039 -0.40383658 0.46054435 0.2532976 0.4721152 0.09763735 -0.07077943 -0.3906094
-0.15945527 -0.43570507 0.55057746 -0.41697544 -0.016752457 -0.018592635 -0.34836975 0.22216986
-0.03347851 0.29179493 -0.18182586 0.010482561 -0.21054068 0.34039295 -0.3208052 0.18575987
-0.039229512 -0.14475918 0.48472714 -0.05042416 -0.08019189 0.1491515 -0.17948413 -0.22178881
-0.089036115 0.3764639 0.39158633 -0.16548364 -0.2576168 -0.20214054 0.11662003 0.06396934
0.36602855 0.0777455 0.4525019 0.11330452 -0.32879114 0.34171197 -0.51047856 0.002991428
0.12908107 0.34257796 0.5718144 -0.42386395 0.3408911 0.105052374 -0.077330746 0.19484636
-0.4964964 -0.31805745 0.39895332 -0.20953183 0.2945599 -0.27468714 -0.31489992 -0.0760852
0.20465606 -0.19006993 -0.47970438 0.22150216 -0.33166486 -0.07403292 -0.023883216 0.2348459
0.114593185 0.35371897 0.47518122 0.45429555 0.24908704 0.31915858 -0.47141203 -0.073297985
0.09993822 -0.31644747 -1.0255891 -0.2954318 -0.50230795 0.41394913 -0.2849045 -0.18480846
-0.28125203 -0.36062878 -0.22252792 -0.23438114 0.37605262 -0.32612717 -0.044865858 -0.2895979
-0.25903437 -0.12623319 -0.3354499 -0.22279242 0.090233825 0.47021973 -0.18784422 -0.15801495

layers.0.bias f4 [64]
00000000: 1405 06be 9ff6 9b3d 0c98 953e 64d0 f53e
00000010: cadd f1be 82e5 dabd 6a3d 01be 8556 ca3d
00000020: 1b40 86be bc1d b6be 3784 433e 4e79 d93e
00000030: 2e85 babe 437f 9f3e ddd9 fe3e 16aa f13e
00000040: d68e b83e 29dd f63e d316 413e 4704 f03e
00000050: 2dd9 c2be b168 e83d 279f da3d b385 85be
00000060: 8c88 a0be 347b 31bd d50e 843e 50bb 523d
00000070: 38d3 693e fa82 4a3e dbf7 d7be d050 c93e
00000080: 9a02 be3e d830 a03e 0e43 f0be 554d 7cbd
00000090: a920 cebe 4c2b 883c febf 8e3d 7d2e 15bc
000000a0: f8d0 b23e c4f5 8e3e a05b 0b3f 243f 0a3f
000000b0: b857 8cbe a175 e6bc 883c c9be d8d7 4a3e
000000c0: 5a7c 823e ca69 3bbe 65b4 30be 83c5 e2bd
000000d0: 1a04 b53e f9c1 183e a310 4c3e c63a c3be
000000e0: b714 1bbd 07a0 06bf a2c9 94be fa12 f73e
000000f0: e0eb 27be 1795 993e ec13 d33e 35a4 b13d
-0.13087875 0.076153986 0.29217565 0.48010552 -0.47239524 -0.106883064 -0.12621084 0.098797835
-0.26220784 -0.3556956 0.19093405 0.4247536 -0.36429733 0.3115178 0.49775591 0.47200078
0.36046475 0.48215607 0.18856363 0.46878263 -0.38056317 0.11348093 0.10674887 -0.26078567
-0.31354177 -0.043330386 0.25792566 0.051448166 0.2283448 0.19776526 -0.42181286 0.39319468
0.3711136 0.31287265 -0.4692616 -0.061597187 -0.40259293 0.016622208 0.06970213 -0.009105322
0.34925056 0.2792188 0.54436684 0.54002595 -0.27410674 -0.028132262 -0.39303994 0.198089
0.25485498 -0.18302074 -0.17256315 -0.110728286 0.35354692 0.14917745 0.19928221 -0.38130778
-0.037861552 -0.5258793 -0.29060084 0.48256665 -0.16398573 0.2999656 0.41226137 0.08673898

layers.2.weight f4 [64, 64]
00000000: f0d7 f43d fa2f 9cbd 286b b6bd c0e0 6f3d
00000010: a00f f4bd 38c9 8bbd e8d0 b9bd f008 2a3c
00000020: d807 813d 607b babd 78b0 af3c a00c debb
00000030: c273 983d 0ee6 95bd cc34 cdbd 5c38 42bd
00000040: c4c4 f73d 4095 f5bb 70fb aabd 8839 f1bd
00000050: e2e4 d93d 8054 e63d 58a0 b13d 40d4 04bc
00000060: 8436 48bd f895 f5bd da23 cebd 140a 6cbd
00000070: 52f0 afbd 201f e2bd 94ca 373d 402e 6e3d
00000080: 2a49 aebd cafc e7bd 0065 cc3d 9018 7abd
00000090: f88a 37bd 807e 70bd 6282 b3bd 5242 dfbd
000000a0: 6047 ba3b 8cd5 263d da7d eebd e845 edbd
000000b0: 8077 c53d 8a78 823d 1cd7 cebd c82f 0c3d
000000c0: 9011 733d 8249 a0bd 7040 733d 301d 62bd
000000d0: 8045 343c 9813 33bd 8c54 4c3d 581a ffbd
000000e0: 2496 9cbd a859 05bd f2b7 dd3d bee7 84bd
000000f0: 56f5 853d 30ac 3d3c e2ad c23d a831 e83c
00000100: 607e 85bd c0bc fabd 7a49 403d caa2 7dbd
00000110: 3a00 e13d 774f 09b9 2c65 ddbd 0977 c0bc
00000120: a0fc 9ebb 2020 acbb 733a bcbd 0d28 adbd
00000130: 1c45 e33d 9c09 e23d 82ff 903d 81c0 f43c
00000140: f3e5 d63d dbff 73bd ee31 e53d e6bb a4bd
00000150: 68b7 bf3d f44f 23bc a30e e73d c5fa e3bd
00000160: 3064 2f3c 21be c0bd 7661 ae3d 3ca7 183c
00000170: 8c26 babd c71e debd 58dc 873d c24e babb
00000180: 2bc3 1dbd 14eb 07be 84c9 ce3d 0568 8abc
00000190: 8caa fc3d ddae 143d 6a42 033c b0fa a53c
000001a0: 97d3 c03d aad0 e43d a658 963c d28a ebbd
000001b0: 6046 50bc b819 d43c 60ec f53c 2915 05be
000001c0: dbc0 8d3c c839 93bd d86e 45bd 4d69 b7bd
000001d0: 8ee8 bebb 72f4 0ebc 6b8b c03d b805 99bc
000001e0: e8f7 ffbd 5a33 c63d 8c2c cfbd 31e7 a3bd
000001f0: fcc7 c23d 5911 8dbd afbd 04be 48fa b03d
00000200: 5a96 ee3d ed8f 55bd 11e6 ec3d c67c 393d
00000210: 5aa0 94bd 55ce 3fbd 2775 183d 4c70 023e
00000220: f6cb 0fbd f608 81bd 6e3f 64bd ff25 1dbd
00000230: e871 d93c 4614 303b 7c7a d93d adf3 d13d
00000240: 8676 553c f957 053d e5c8 99bd 1149 733d
00000250: d109 6fbe 228b a63d 8fcf 38bd bdd4 0dbd
00000260: 3842 f63c a227 d1bd 7c38 2c3e 32e4 c53d
00000270: 35b0 143e f1ec 1fbb bc2c 90be 1115 6dbc
00000280: d0ac bcba 30d6 503d 1a1e b7bd 6226 88bc
00000290: 1e1d cfbd 317a 05bd f69e 7c3d 1ffb 0cbd
000002a0: c5da 94bd 1869 1e3e b681 92bc 65bb 1e3e
000002b0: 20ed 8abc 52b4 b43d 9c68 143e 2be8 99bd
000002c0: d9a2 293e 1a2b a3bd 2754 ef3d fc6a 13be
000002d0: f292 e83d 7cac c83d 612c 3f3c f16d 4ebe
000002e0: 784f 2e3d 15e8 a1bd b069 0dbf 08a4 99bd
000002f0: e090 023c 6464 113e 62a2 003e fca0 033e
00000300: ec6a b73d 6444 5b3d bc0d ef3d bebc 60bc
00000310: 68c6 363d 19f5 ebbd 7692 b0bd 68d1 ba3d
00000320: 6cb9 99bd 701a 80bd 91a0 a73d 9d68 c83d
00000330: 6851 cebc 8508 d93d e61a 62bc a811 c73d
00000340: 86b0 6fbd 3fd4 233e 178a 2fbd 2c4f 003d
00000350: ee9d 7dbc 3ef9 013e 4a21 fc3d 2525 c03d
00000360: 3ed3 ba3d f250 bf3d de5e f13d 1157 313e
00000370: 22e0 fd3d 9ea2 213e 338f 5fbe 34f8 5bbd
00000380: 8828 d73d 1537 113e 1384 d23d b1f8 01bd
00000390: d42d c0bc e70b b33b e13b bbbb 12f4 823b
000003a0: d59c 173d c4c2 483c 6061 c43d d59a 48bd
000003b0: 7022 aa3c 72c5 26bd 5857 5a3d c57f 1e3e
000003c0: 9d34 22bd 48e9 4d3d a06c 7f3d fc98 d0bc
000003d0: 753c 813d e1d8 91bd 319c 3abd 486f 11be
000003e0: e393 dc3b cc26 4abd c72d f7be 8592 103e
000003f0: b84b 353d 7d7d bd3d b37f 2fbc 600b fd3c
0.11955249 -0.07626338 -0.08907157 0.058563948 -0.11917043 -0.06825489 -0.09073049 0.010378107
0.06300324 -0.09105563 0.021446452 -0.0067764074 0.07443954 -0.0731927 -0.10019836 -0.04741703
0.12098077 -0.0074945986 -0.08348739 -0.11778551 0.10639359 0.11246586 0.08673161 -0.008107245
-0.048880115 -0.11991495 -0.10065432 -0.0576268 -0.08590759 -0.11041093 0.044870928 0.058149576
-0.08510049 -0.113275126 0.09980202 -0.06105858 -0.044810265 -0.05871439 -0.08765103 -0.109013215
0.005684778 0.040730998 -0.11645098 -0.11585599 0.096419334 0.06370647 -0.100996226 0.034225255
0.05934292 -0.078265205 0.059387624 -0.055203617 0.011002898 -0.043719858 0.049885318 -0.124561965
-0.076458246 -0.032556206 0.108261004 -0.06489514 0.06540935 0.011576697 0.09505822 0.02834399
-0.06518245 -0.122430325 0.046945073 -0.061922826 0.10986371 -0.00013094941 -0.10810313 -0.02349426
-0.0048518926 -0.005252853 -0.09190836 -0.08454905 0.11097166 0.11036989 0.07079984 0.02987695
0.10493078 -0.059570175 0.11191164 -0.08043651 0.09361154 -0.009967793 0.112820886 -0.11131815
0.010705039 -0.09411264 0.08514683 0.0093172155 -0.090893835 -0.10845714 0.06633824 -0.005685658
-0.038516205 -0.13273269 0.1009703 -0.016895304 0.12337217 0.036299575 0.00801144 0.020261139
0.094153576 0.11172612 0.018352818 -0.11501087 -0.012712091 0.02589117 0.030019939 -0.12996353
0.017303875 -0.07188755 -0.048201412 -0.089556314 -0.0058260625 -0.0087252725 0.09401592 -0.018679485
-0.12498456 0.09677763 -0.101159185 -0.08003081 0.095108 -0.068880744 -0.12962984 0.08641487
0.11649771 -0.05213921 0.11567319 0.04528501 -0.07257147 -0.046827633 0.0372211 0.1273815
-0.03510662 -0.06300537 -0.055724554 -0.038366314 0.026543573 0.0026867553 0.10619065 0.102515556
0.0130287465 0.0325546 -0.07509021 0.059395853 -0.23343588 0.08132006 -0.04511982 -0.03462671
0.030060872 -0.102126375 0.16818422 0.096626654 0.14520343 -0.0024402703 -0.2815913 -0.014470355
-0.0014394764 0.050985515 -0.08941288 -0.016619865 -0.101129755 -0.032587234 0.061675034 -0.034419175
-0.072682895 0.15469778 -0.017884117 0.15501173 -0.016958773 0.08823456 0.1449303 -0.07514986
0.16566028 -0.07967205 0.11685973 -0.1439628 0.113561526 0.09798524 0.011668296 -0.20159127
0.042556256 -0.07905594 -0.5523939 -0.075019896 0.007969111 0.14198452 0.12561944 0.1285438
0.089559406 0.05353202 0.116725415 -0.013716875 0.04462281 -0.11521358 -0.08621685 0.09121972
-0.075060695 -0.062550426 0.081849225 0.097855784 -0.025185302 0.10597328 -0.013800358 0.097201645
-0.058517955 0.15998934 -0.042856302 0.031325504 -0.015479548 0.12692735 0.12311037 0.09382085
0.091223225 0.09341611 0.117856726 0.1731837 0.123962656 0.1578469 -0.2183197 -0.0537035
0.105057776 0.14181168 0.102790974 -0.03173131 -0.023459353 0.0054640654 -0.005713925 0.0039963806
0.0370148 0.012253467 0.09588885 -0.048975784 0.020768374 -0.040715642 0.053305954 0.15478428
-0.039600957 0.050271302 0.062359452 -0.025463574 0.063103594 -0.071214445 -0.045559112 -0.14202607
0.0067314967 -0.049353406 -0.48277113 0.14118393 0.044261664 0.092524506 -0.010711598 0.030889213

layers.2.bias f4 [64]
00000000: c677 f2bd 58a2 053d 3fe6 f03c 6326 16bd
00000010: e89a 8a38 2031 4abd c879 163d ad42 c43d
00000020: 6de6 f43c a514 f23b 0373 323c 0aa8 6dbd
00000030: 5723 1a3d e026 a2bd cdc9 fcbd 0e48 57bd
00000040: 00a4 acbd 3c4d 94bd 1548 813d fb19 b93b
00000050: 25a8 e23d 9b30 a0bd 2751 c33d e11d b93b
00000060: f764 123e 0a8d 163d a25a 823d 34d8 e4bd
00000070: c86b a9bd 398b a6bc 2a62 573c c062 2dbd
00000080: bc62 88bd fa63 253e e05b ea3b 76ac ffbd
00000090: 7ea6 ae3d aa3f 983d c4d5 bf3d 04f4 81bd
000000a0: de5e 6e3d 1793 1c3d e3e4 96bd 5f89 29bd
000000b0: 5e37 c5bd 5567 20bd 46ec 0c3e 3563 ab3d
000000c0: a345 8d3d c57d 70bc 59ca a03d c023 adbb
000000d0: 78b8 42bd e77f af3c 897f 98bd 205a 773c
000000e0: 93e6 9f3d 37d4 043d ddeb 4bbc d266 0d3e
000000f0: 0195 91bd a265 733d 3024 d83c e90d 66bd
-0.11839251 0.032625526 0.029406665 -0.036657702 6.609206e-05 -0.049363256 0.036737233 0.0958303
0.029895032 0.007387715 0.010891679 -0.058021583 0.03763136 -0.07917571 -0.12343178 -0.05255895
-0.08429718 -0.07241294 0.06312577 0.005648849 0.11067227 -0.07821771 0.09536963 0.005649314
0.14296328 0.0367556 0.06364943 -0.1117405 -0.08272511 -0.020330058 0.013145963 -0.042330503
-0.06659457 0.1615142 0.0071520656 -0.12484066 0.085278496 0.07434018 0.093669444 -0.063453704
0.05819594 0.038226213 -0.073678754 -0.041390773 -0.09629701 -0.039161045 0.13762006 0.083685316
0.06898048 -0.014678423 0.07851095 -0.0052838027 -0.047539204 0.021423293 -0.074462004 0.015097171
0.078076504 0.032428946 -0.012446371 0.13808754 -0.07108498 0.059423096 0.026384443 -0.05616561

layers.4.weight f4 [2, 64]
00000000: 2018 8b3c ade2 c2bd bbb2 0e3e dec2 433d
00000010: ffb7 763d ecca fcbd 6fa0 7fbd da0f e13d
00000020: 408f 463e 5afc 9abc f0b7 48bc cda5 d1bd
00000030: 19e3 c1bd 4894 00be be64 1dbc 2c0f 013e
00000040: 5201 ffbd 7573 0f3d ddcd fd3d 9071 013e
00000050: d486 173d 0169 813d 7e0a 93bd dcd9 273e
00000060: 5935 9f3d 1a33 363c 8162 ad3d b1d5 c23b
00000070: 3036 123d 04e4 a2bd ddfb 91bd c870 a9bc
00000080: d611 22bd 5768 7e3d d4ed 98bd 7d2b 40be
00000090: a534 8cbc 8d7b afbc 6c0f 4fbd 1093 b1bd
000000a0: 5228 213e 32fb b2bc 9b79 213e 571e 95bb
000000b0: 5149 13bd 93b6 f93d 8fc8 8c3c 3fb0 323e
000000c0: e652 873d b84e 113e fc29 e4bd 7a60 c83d
000000d0: 81fc cbbc 1b84 50bd 6bfa 9ebd c73a 2fbd
000000e0: 70e2 4ebd a615 273d f5d9 d1bc 1554 c33d
000000f0: 0c78 f03d 1f1c 99bd 9c36 743c bc03 783d
00000100: c8df 1a3d cc37 2bbc dd50 903d 11ff 1e3e
00000110: 0bba f83d 98ba c0bd 5cd6 68bc 6ced 703c
00000120: a275 763e 3913 a1bd c992 28bd 828c b83d
00000130: 097b cabd 2e0b f0bd f452 aebd 0cef af3d
00000140: 7418 e23d c32c e3bd 89ca 9ebd 26f1 553d
00000150: 8c54 c63d ab84 233e ad66 abbd 551d c2bc
00000160: 365a e93d 0d6f 77bd ad30 1a3c c302 90bd
00000170: 5496 94bd 1e44 dd3d f0aa cdbc 40c2 4c3d
00000180: b923 8fbd 643b 7f3d a06c a6bb e4a3 1ebe
00000190: dec8 ccbc 7193 ddbd 973c fe3d 56e6 95bd
000001a0: a83d 063e f387 cabd 8b2a af3c 970a 013e
000001b0: a038 4ebe efcd f73d d4b0 8d3d c6cb 193e
000001c0: 4b5a 9cbd 9a8f ef3c 53bd e6bd 0809 0abd
000001d0: 1a66 063e c3ae 683d 20f8 c4bd a065 b4bd
000001e0: e55a cf3d 4fae c6bd fe1a 2a3e d3e2 363d
000001f0: 0566 66bd cd79 cb3d 1ccd 023e 36bf 013e
0.016979277 -0.09515891 0.13935368 0.04779326 0.060234066 -0.12343392 -0.06240886 0.109893516
0.19390583 -0.018919159 -0.012250885 -0.10236702 -0.094671436 -0.12556565 -0.009606538 0.12603444
-0.12451424 0.035022218 0.12392781 0.12640977 0.036993816 0.06318856 -0.071797356 0.163917
0.07773847 0.011120582 0.08466054 0.005945884 0.03569621 -0.07953647 -0.07128117 -0.020683661
-0.03956779 0.062111225 -0.07467237 -0.1876659 -0.017114947 -0.021421218 -0.050551817 -0.08670628
0.15738037 -0.021848295 0.15769045 -0.004550736 -0.03595859 0.121930264 0.017185478 0.17450045
0.066076085 0.14190185 -0.111408204 0.097840264 -0.024900677 -0.050907236 -0.07762607 -0.042780664
-0.050508916 0.04079213 -0.025616625 0.09537522 0.11741647 -0.07476067 0.014905598 0.060550436
0.03781107 -0.010450315 0.070466734 0.15526988 0.1214486 -0.0941059 -0.0142112635 0.014705043
0.24068311 -0.078649946 -0.04115561 0.09011175 -0.09886748 -0.11720882 -0.08511916 0.085905164
0.1103982 -0.11092522 -0.07753474 0.05223193 0.09684095 0.15968578 -0.08369193 -0.023695627
0.113941595 -0.06040864 0.009411019 -0.07031777 -0.07255235 0.10804008 -0.025105923 0.04998994
-0.069892354 0.0623125 -0.005078867 -0.15492207 -0.024998125 -0.10819138 0.124139 -0.07319324
0.13109457 -0.098892115 0.02138259 0.12601696 -0.20138788 0.120998256 0.06918493 0.1501914
-0.076344095 0.02924328 -0.112665795 -0.03370002 0.13124886 0.05680729 -0.096176386 -0.08808446
0.10124759 -0.097012155 0.16611859 0.04464991 -0.056249637 0.09935341 0.12773556 0.12670597

layers.4.bias f4 [2]
00000000: e12c 263c 4ce7 7fbc
0.010142536 -0.01561911
